app/src/main/assets/seizure_prediction_model.tflite (tflite, 297528 bytes, 6 tensors)

sequential/dense_1/BiasAdd/ReadVariableOp f4 [64]
0	0x3b34abb1	0.0027568156
1	0xbbabbca1	-0.005240992
2	0xbb01b043	-0.0019788898
3	0xbc98f9d0	-0.018673807
4	0xbc6945a5	-0.014237796
5	0xbc6d38cf	-0.014478876
6	0x3b2766ca	0.0025543445
7	0x3bfa84dd	0.007645233
8	0xbcb39671	-0.021922322
9	0xbc1a8876	-0.009431949
10	0xbc255318	-0.010090612
11	0xbc211329	-0.009831228
12	0xbc0ebc4b	-0.008711885
13	0xbc4915a4	-0.012273226
14	0x3b274121	0.0025520998
15	0xbbf7cd64	-0.0075623263
16	0x3c06b572	0.008221971
17	0x3bf5a775	0.007496769
18	0xbc1dcded	-0.009631616
19	0xbb9fdf7b	-0.004878936
20	0x39bd3ab3	0.00036092623
21	0xbb2489a7	-0.0025106461
22	0x3ba3bf96	0.004997204
23	0x3a1d0dae	0.0005991113
24	0xbb957eba	-0.004562226
25	0xbc1f32f8	-0.009716742
26	0xbc707bad	-0.014677924
27	0xbc4c9218	-0.012486003
28	0xbad809e1	-0.0016482436
29	0xbc78b72e	-0.015180392
30	0xbc02dd5f	-0.007987349
31	0x3c1bed22	0.009516986
32	0xbc742eb0	-0.014903709
33	0xbc521df0	-0.0128245205
34	0xbc0a97aa	-0.008459011
35	0xbb80f0f3	-0.0039349734
36	0xbc60c327	-0.013718403
37	0xbc507f7d	-0.012725708
38	0xba74df7a	-0.0009341162
39	0xbc257c84	-0.010100488
40	0xbbfa2737	-0.0076340693
41	0xbc320ef9	-0.010867828
42	0xbab5a5f4	-0.0013858662
43	0xbc2df102	-0.010616543
44	0x3b64ad3e	0.00348933
45	0xbc7993ab	-0.015232961
46	0xbc34fceb	-0.0110466285
47	0xbca0e0df	-0.019638477
48	0xbc84bfb2	-0.016204689
49	0xbbd95ed7	-0.0066336202
50	0xbc4abd61	-0.012374253
51	0xbbddf352	-0.006773391
52	0xbb4ccf1b	-0.0031251374
53	0xbbcc3f84	-0.0062331576
54	0xbb83041a	-0.0039982917
55	0xbb932886	-0.0044909148
56	0xbc06c612	-0.008225935
57	0xbc6ff216	-0.01464512
58	0xbbcb0c49	-0.006196533
59	0xbaeb12e6	-0.0017934709
60	0x3ad5e9a0	0.0016320236
61	0x3bb4a126	0.0055123745
62	0xbc0611bc	-0.008182939
63	0xbc7474ee	-0.014920456

sequential/dense_2/BiasAdd/ReadVariableOp f4 [3]
0	0x3b61cb09	0.0034453294
1	0x3ac6af3e	0.0015158427
2	0x3b39086b	0.0028233777

sequential/dense/BiasAdd/ReadVariableOp f4 [128]
0	0xbad3d653	-0.0016161896
1	0xbc46104c	-0.012088846
2	0xbbc440b3	-0.005989158
3	0x3b448895	0.0029988636
4	0x3c66536b	0.014057974
5	0xbb599df4	-0.003320572
6	0xbc149c6b	-0.009070496
7	0x3bd36516	0.0064512594
8	0xbbf646d7	-0.007515769
9	0xbc27955b	-0.01022848
10	0x3b405c3e	0.0029351856
11	0xbc077a7c	-0.008268949
12	0x3a502b9d	0.0007941069
13	0xbc2fea95	-0.010737081
14	0xbba90ce7	-0.005159009
15	0x3b221396	0.0024730912
16	0xbc14e0ca	-0.009086797
17	0xbbe92dc5	-0.007116052
18	0x3c039595	0.008031269
19	0xbadaa253	-0.0016680456
20	0xbc0e4ada	-0.008684838
21	0x00000000	0.0
22	0xbb78a572	-0.003794041
23	0xbc0f0b14	-0.008730669
24	0xbbb62813	-0.0055589764
25	0x3c6c7a6e	0.014433486
26	0xbc9a18fc	-0.018810742
27	0xbc15e815	-0.009149571
28	0xbbe2595b	-0.0069076247
29	0xb9ee13f0	-0.00045409752
30	0xbc16a234	-0.009193946
31	0xbb13a02b	-0.0022525887
32	0x3bd91aa5	0.0066254907
33	0x3a8f1b62	0.0010918195
34	0xbc136356	-0.0089958515
35	0xbbe60284	-0.007019343
36	0xbadd4468	-0.0016881349
37	0xbbaf4c48	-0.0053496696
38	0xbc22249a	-0.009896422
39	0xbc13679b	-0.008996869
40	0x3c4bc679	0.012437456
41	0xbc044f6d	-0.008075577
42	0xbb7974db	-0.0038064036
43	0x3b11a234	0.0022221925
44	0xbb429992	-0.0029693586
45	0xbc4ddb70	-0.012564525
46	0xbc8cc225	-0.01718242
47	0xbc20eff8	-0.009822838
48	0xbba55484	-0.0050454754
49	0xbbbd2fe2	-0.0057735303
50	0x394eceb0	0.00019722688
51	0xbbb63e57	-0.0055616307
52	0xbc1d8984	-0.009615306
53	0xb9a112aa	-0.0003072222
54	0x3c2d8925	0.01059178
55	0xbb224045	-0.0024757546
56	0xbb04be34	-0.0020254971
57	0xbbbffb34	-0.005858803
58	0x00000000	0.0
59	0xba898aec	-0.0010493672
60	0xbc8218fc	-0.015881054
61	0x3b2c6b5e	0.0026309113
62	0x3adbf78a	0.0016782146
63	0xbbfce75a	-0.007718009
64	0x3a006144	0.0004897306
65	0xbb030831	-0.0019993896
66	0xbc7258fd	-0.014791724
67	0xbbb58d92	-0.005540558
68	0xbba8492f	-0.0051356773
69	0xbbda5ac9	-0.0066636545
70	0xbb5fb8a8	-0.0034137163
71	0xbb30f7c3	-0.0027003146
72	0xbbe99411	-0.0071282466
73	0xbc5d85a1	-0.013520629
74	0xbc09c952	-0.008409815
75	0xbc0670a9	-0.008205571
76	0xbbce4a08	-0.0062954463
77	0xbc204ab4	-0.009783436
78	0xbbe47374	-0.006971771
79	0xbc30c594	-0.010789294
80	0xbc3c57ad	-0.011495513
81	0xbc508f86	-0.012729531
82	0xbc43fb4b	-0.011961768
83	0xbbd5e423	-0.00652744
84	0xbbedccd9	-0.0072570858
85	0xbb4c4600	-0.0031169653
86	0xbc4ef36f	-0.012631281
87	0xbc558c09	-0.013033875
88	0xbbc8bc12	-0.0061259354
89	0xbc09b8bf	-0.008405863
90	0xbbc42f01	-0.0059870486
91	0xbc254c6c	-0.010089021
92	0xbb6f8cab	-0.003655235
93	0xbbe4d163	-0.0069829687
94	0xbbc4402a	-0.0059890943
95	0x3a778a78	0.00094429357
96	0xbc107178	-0.008816116
97	0xbbc4132d	-0.0059837312
98	0x3b249bd1	0.0025117288
99	0xbb8406a3	-0.0040291115
100	0x3c1612bc	0.00915974
101	0xba250014	-0.0006294262
102	0xbbf76e93	-0.0075510233
103	0xbbe8cb9b	-0.00710435
104	0xbbc3ed41	-0.0059792106
105	0x3c49623b	0.012291486
106	0xbae7e55c	-0.0017692256
107	0xbc80eb04	-0.015737064
108	0x3c429b1c	0.011877801
109	0xbc15f303	-0.009152177
110	0xbbda58bd	-0.0066634105
111	0xbbae7ff4	-0.005325312
112	0xbbd85e87	-0.0066030654
113	0xbc7e43b2	-0.0155190695
114	0xbc49a73d	-0.012307939
115	0x3b8cc4d7	0.004295926
116	0x3ad61d26	0.0016335591
117	0x3c212c0d	0.009837163
118	0xb9bf26e8	-0.00036459346
119	0xb9afb1e3	-0.00033511137
120	0x3b96e45e	0.00460486
121	0xbc7ee87f	-0.015558361
122	0xbbf39d7f	-0.0074345465
123	0xbbc430eb	-0.005987277
124	0xbbbf7e36	-0.005843903
125	0xbc709dc7	-0.014686055
126	0xbb487157	-0.0030585134
127	0xbc766bf4	-0.0150403865

sequential/dense/MatMul f4 [128, 510]
0	0xbdbd8c08	-0.092552245
1	0xbdb91711	-0.09037603
2	0x3d4a8e79	0.04945228
3	0xbd3937d4	-0.045219257
4	0xbdaa98dd	-0.083299376
5	0xbd51b7e6	-0.05120077
6	0x3d7ab339	0.061206076
7	0xbda86cd7	-0.082238846
8	0xbd5fed55	-0.054669697
9	0xbc0d59f1	-0.008627401
10	0xbda9a792	-0.082839146
11	0xbb8365ee	-0.0040099537
12	0xbc966f10	-0.018363506
13	0xbd3b23fb	-0.04568861
14	0xbd90ceeb	-0.070707165
15	0xbdc345ed	-0.09534822
16	0xbc00cd1d	-0.007861403
17	0xbc1e57a0	-0.009664446
18	0xbd739237	-0.059465613
19	0xbbae6d6b	-0.005323102
20	0xbcb69921	-0.022289814
21	0xbc0a317b	-0.008434649
22	0x3d159e8c	0.036528155
23	0xbdc0e93b	-0.09419485
24	0x3d7e7c74	0.062130406
25	0x3d74a365	0.059726138
26	0xbd9a9bd5	-0.07549254
27	0xbd82bb19	-0.06383342
28	0xbdac239b	-0.08405229
29	0x3c145cdd	0.009055343
30	0x3d829312	0.06375708
31	0xbd0ce5b9	-0.034398768
32	0xbd0583cf	-0.032596406
33	0xbd6ed325	-0.058306832
34	0xbd497665	-0.049185175
35	0x3d128618	0.035772413
36	0xbd1bf7fd	-0.038078297
37	0x3b84cc76	0.004052694
38	0x3c9707a1	0.018436255
39	0xbdc1ebc0	-0.09468794
40	0x3da833e0	0.08213019
41	0xbd9fb31c	-0.07797834
42	0xbb3a3e95	-0.002841865
43	0xbcb2aced	-0.021810973
44	0xbd6efd9f	-0.05834734
45	0x3d5e61dd	0.05429255
46	0x3bef267c	0.007298289
47	0xbd929df8	-0.071590364
48	0x3ccff2db	0.025384357
49	0x3d42c3ba	0.04754994
50	0x3cf1a139	0.029495822
51	0xbdbf5998	-0.093432605
52	0x3d675129	0.056473885
53	0xbc820be3	-0.015874809
54	0xbdd7efc3	-0.10543778
55	0x3cad890c	0.021183513
56	0xb891707b	-6.93509e-05
57	0x3cf06464	0.029344745
58	0x3d0638b0	0.032768905
59	0x3d1a0d9d	0.03761064
60	0xbd473f50	-0.048644364
61	0x3d25e176	0.04049822
62	0x3d99f059	0.07516546
63	0x3d0b4d8c	0.0340095
64	0xbd744b34	-0.05964203
65	0xbcae0bc5	-0.021245847
66	0xbcf54cb8	-0.029943809
67	0x3cec4842	0.028843049
68	0x3da1946e	0.07889639
69	0xbd320a4c	-0.04346685
70	0xbd7b5ed0	-0.061369717
71	0x3d574c65	0.05256309
72	0x3d458c0c	0.048229262
73	0xbda36d22	-0.079798
74	0xbdb4b9fb	-0.088245355
75	0x3d892f15	0.06698433
76	0xbd33e297	-0.043917265
77	0x3d892a3e	0.0669751
78	0x3d60bd5c	0.054868087
79	0x3d9d6bd2	0.07686581
80	0x3d454d2a	0.048169293
81	0x3d1d7bd6	0.038448177
82	0x3d374876	0.04474684
83	0x3cf9864b	0.030459544
84	0xbd174e65	-0.036939997
85	0x3d882144	0.0664697
86	0x3d94e3f4	0.07270041
87	0x3c1a97cc	0.009435605
88	0x3d96c943	0.073626064
89	0xbc51cb3f	-0.012804805
90	0xbd8dc530	-0.06922376
91	0xbd90ad7a	-0.07064338
92	0xbdc5ee77	-0.09664624
93	0xbda55145	-0.080721416
94	0xbd88f841	-0.06687976
95	0xbcaab01f	-0.020835934
96	0x3da340d1	0.07971347
97	0x3bd1f03d	0.0064068125
98	0x3cf0f803	0.029415136
99	0xbc2c8b19	-0.01053121
100	0x3dbbeba7	0.091758065
101	0xbd0f7af5	-0.03502937
102	0x3ccc262a	0.024920542
103	0x3c9f0929	0.019413548
104	0xbdb18c17	-0.08669298
105	0xbdbf0ee4	-0.09329012
106	0xbdb24aaf	-0.08705651
107	0xbd8e343b	-0.06943556
108	0x3c49e613	0.01232292
109	0x3c997c97	0.018736167
110	0xbcf41900	-0.029797077
111	0x3d6c9117	0.057755556
112	0x3d1f2134	0.038850024
113	0x3d71f0b9	0.05906746
114	0xbd916a31	-0.071003325
115	0x3c2a463f	0.010392725
116	0xbd9fdeb6	-0.078061506
117	0xbc7c1a35	-0.015387108
118	0xbc13b27c	-0.009014722
119	0x3c7586ea	0.014985779
120	0x3d5e8c8f	0.054333266
121	0xbda1c55a	-0.0789897
122	0xbd2b9857	-0.04189333
123	0x3d625f47	0.055266645
124	0x3d7737c1	0.060355905
125	0xbda6e882	-0.08149816
126	0xbc27fad6	-0.010252675
127	0x3d773dff	0.06036186
128	0xbd83e3ed	-0.06439958
129	0x3c99e21e	0.018784579
130	0xbd2fd6de	-0.042929523
131	0xbd91148c	-0.07083997
132	0xbdb95db8	-0.090510786
133	0x3d7e544b	0.062092107
134	0x3dc263da	0.094917014
135	0xbdadb6b3	-0.08482113
136	0xbca4b49b	-0.02010565
137	0xbc849996	-0.016186517
138	0x3bae7f6c	0.0053252485
139	0x3cbcc483	0.023042923
140	0xbcbbeae7	-0.022939159
141	0xbd2f6433	-0.042820167
142	0xbd967368	-0.07346231
143	0x3d9b5642	0.07584812
144	0xbd191f22	-0.037383206
145	0xbd20c62d	-0.039251495
146	0xbd4e086f	-0.05030101
147	0xbbbc256d	-0.005741766
148	0xbb9ea173	-0.0048410236
149	0x3cc9a5ba	0.024615157
150	0xbd3e3609	-0.04643825
151	0x3ca9c5dc	0.02072423
152	0xbcf2ee3e	-0.029654618
153	0x3da87918	0.08226222
154	0xbd7bca3b	-0.06147216
155	0x3b766c40	0.0037601143
156	0x3da00753	0.07813897
157	0x3d3c345d	0.045948375
158	0x3b2f80fc	0.0026779762
159	0xbd66cc5d	-0.05634724
160	0x3b0ac495	0.00211743
161	0xbccf8837	-0.025333507
162	0xbd6f029e	-0.058352105
163	0x3da6de8f	0.081479184
164	0xbd940a5e	-0.0722854
165	0x3d4d8165	0.05017223
166	0xbd5f8e52	-0.054579087
167	0x3d8da1ca	0.069156244
168	0xbdb457d4	-0.088058144
169	0xbd60410d	-0.054749537
170	0xbc094295	-0.008377691
171	0x3d64427b	0.055727463
172	0xbd9cd141	-0.076570995
173	0x3cf47e8a	0.029845495
174	0xbdd1eaed	-0.10249887
175	0xbc9e73a8	-0.019342259
176	0xbb5bce8e	-0.0033539864
177	0x3cbab70b	0.02279236
178	0xbd16016e	-0.036622457
179	0xbc26cb9b	-0.010180379
180	0xbdb42bb3	-0.087973975
181	0x3b2431a4	0.0025054002
182	0x3cf8396f	0.030300824
183	0x3c32dda3	0.0109171
184	0x3ce97f19	0.028502988
185	0xbda218ac	-0.07914862
186	0xbd5bccbb	-0.053662043
187	0xbdb29c59	-0.08721227
188	0xbd370ce2	-0.04469002
189	0x3d4673ae	0.048450164
190	0x3d000430	0.031253994
191	0x3dae6335	0.08515016
192	0xba961398	-0.0011449931
193	0x3d6fcab3	0.05854292
194	0xbd5196d0	-0.051169217
195	0xbd5783e3	-0.05261601
196	0x3d1ab993	0.037774634
197	0xbdab2ee4	-0.08358553
198	0xbc9563d0	-0.01823607
199	0x3d936a13	0.071979664
200	0xbd49ccfe	-0.04926776
201	0x3d9ff620	0.078106165
202	0x39740a24	0.00023273431
203	0xbdcc3569	-0.09971125
204	0xbd5b7d1a	-0.053586103
205	0x3d4a1544	0.049336687
206	0xbc5348d5	-0.0128957825
207	0xbc32d24e	-0.010914398
208	0x3d9bf23e	0.076145634
209	0x3ac961d6	0.001536424
210	0x3dab07af	0.08351075
211	0x3d95e424	0.07318905
212	0xbda71157	-0.08157604
213	0x3c3f253a	0.01166659
214	0xbca1bb1a	-0.019742537
215	0xbc54cbc5	-0.012988036
216	0x3d66e6f3	0.056372594
217	0xbda8d50c	-0.082437605
218	0x3cb50596	0.02209739
219	0x3d1ac1bd	0.03778242
220	0x3d371b95	0.04470404
221	0xbaa9d133	-0.0012956023
222	0x3ac17d96	0.0014762159
223	0xbd618c91	-0.055065695
224	0x3bc90440	0.00613454
225	0x3d1e4e11	0.03864867
226	0x3c8346ba	0.016024936
227	0x3cd56473	0.026048874
228	0x3c74570d	0.014913333
229	0x3c831c06	0.016004574
230	0x3caa782a	0.020809252
231	0x3d923b94	0.0714027
232	0x3d19528d	0.037432242
233	0xbd84d282	-0.06485464
234	0xbdd2a0bf	-0.10284566
235	0x3dabe248	0.08392769
236	0x3d9e5ca8	0.077325165
237	0xbd5cfbe7	-0.05395117
238	0x3d9b4a00	0.07582474
239	0x3d26f8e2	0.040764697
240	0xbd22d6c6	-0.039755605
241	0x3d70510c	0.058671042
242	0x3dc0d1a5	0.094149865
243	0x3da1625f	0.07880091
244	0x3da7b528	0.0818885
245	0xbdd040fa	-0.10168643
246	0x3d0ec5b8	0.034856528
247	0xbb67b5a4	-0.003535607
248	0x3b2ddef8	0.0026530605
249	0xbd3fe167	-0.04684582
250	0xbd03499d	-0.032052625
251	0xbda7d3d4	-0.081947
252	0x3d4e8251	0.05041725
253	0xbdaffde9	-0.085933514
254	0xbcbfcb27	-0.0234123
255	0xbcb2f15b	-0.021843603

sequential/dense_1/MatMul f4 [64, 128]
0	0xbaf920b9	-0.0019006944
1	0x3e1411ad	0.14459868
2	0xbd6fb534	-0.05852242
3	0xbcaa145d	-0.020761663
4	0xbde730d7	-0.11288612
5	0xbdaccf7b	-0.08438011
6	0xbd5e4b39	-0.054270957
7	0x3dbb73a4	0.09152916
8	0x3e24c098	0.16089094
9	0x3d937421	0.07199884
10	0x3e20bcf1	0.15697075
11	0xbe0724e2	-0.13197663
12	0x3b6a79fe	0.003577828
13	0x3e362ce3	0.1779056
14	0x3cd19928	0.025585726
15	0x3dcc4b19	0.09975261
16	0xba59dc92	-0.00083107606
17	0xbddad073	-0.1068429
18	0xbdb008f4	-0.08595458
19	0x3e1d7b9f	0.15379189
20	0x3da555a0	0.08072972
21	0xbda201a5	-0.0791047
22	0x3d6a56d5	0.057211716
23	0x3d917f2c	0.07104334
24	0x3d7138b9	0.058891986
25	0xbc2e59de	-0.010641543
26	0x3e2ca972	0.16861513
27	0xbe2c88fc	-0.1684913
28	0x3e0c27bf	0.13687037
29	0xbe06774f	-0.1313145
30	0x3e2d44a8	0.16920722
31	0xbbddcfe1	-0.006769166
32	0xbd82c78c	-0.06385717
33	0x3c1cb1c5	0.009563868
34	0xbdc5d276	-0.09659283
35	0xbe2b6f82	-0.16741756
36	0xba736365	-0.00092845253
37	0x3cffa1f0	0.031205148
38	0xbdfe5a08	-0.12419516
39	0x3d36bc4b	0.044613164
40	0xbe330cef	-0.17485403
41	0x3aa98194	0.0012932294
42	0x3de88f46	0.11355452
43	0xbd9b9623	-0.07596996
44	0x3e233e50	0.15941739
45	0x3c06a7c9	0.008218714
46	0x3d015e18	0.031583875
47	0xbe0032cd	-0.12519379
48	0x3d4f34e5	0.050587554
49	0xbb70a47f	-0.003671914
50	0xbdfaaba4	-0.12239769
51	0xbcebe23a	-0.028794397
52	0x3d1fce70	0.039015234
53	0xbdfedb32	-0.12444152
54	0x3e1a931c	0.1509518
55	0xbe07161b	-0.13192026
56	0x3ce9f252	0.02855793
57	0x3b8b96c6	0.004259917
58	0xbdeac452	-0.114632264
59	0xbd934a63	-0.071919225
60	0xbdb9e528	-0.09076911
61	0x3e137939	0.14401712
62	0xbc081c8c	-0.008307587
63	0x3cdc30f7	0.026878817
64	0xbe2b6fca	-0.16741863
65	0x3e027463	0.1273971
66	0xbdeb4d4a	-0.11489351
67	0x3c490b20	0.012270719
68	0xbda6d2c6	-0.081456706
69	0x3ca37716	0.019954246
70	0x3d5b2af0	0.053507745
71	0x3e15c91f	0.14627503
72	0xbdbb2aa8	-0.091389954
73	0xbd1b4fb3	-0.037917804
74	0x3e34423a	0.17603388
75	0x3de8ea39	0.113727994
76	0xbd487ecc	-0.048949048
77	0xbdee35a8	-0.11631328
78	0xbda7d8fe	-0.08195685
79	0x3d3f7a81	0.04674769
80	0x3c9caf3f	0.019126533
81	0x3d092b7e	0.033488743
82	0xbd1aa3dc	-0.037753925
83	0x3ddcb6ac	0.107770294
84	0xbe30ec38	-0.1727761
85	0x3e1b9637	0.15194021
86	0x3d32c3a6	0.043643616
87	0xbe1729be	-0.14762017
88	0xbe249bca	-0.16075054
89	0xbce0b76c	-0.027431212
90	0x3cbe1960	0.02320546
91	0x3de7824f	0.11304151
92	0xbe205658	-0.15657938
93	0xbdef11d3	-0.116733216
94	0x3d23accf	0.039959725
95	0xbd36e05f	-0.04464757
96	0x3cab0250	0.020875126
97	0xbdf58018	-0.119873226
98	0x3e1491bc	0.14508718
99	0xbcf4f963	-0.029904073
100	0x3d345978	0.044030637
101	0x3e359a30	0.17734599
102	0x3dfd2ee3	0.123624586
103	0xbd0b3fd8	-0.033996433
104	0x3e1ad2cb	0.15119474
105	0x3cda22aa	0.026627857
106	0xbcd3f921	-0.02587563
107	0x3e19e281	0.1502781
108	0x3e15b928	0.14621413
109	0xbd67991d	-0.056542505
110	0x3dd79cb6	0.10527937
111	0x3e0638a7	0.13107549
112	0xbe10f4cc	-0.14155883
113	0xbae9f809	-0.001785041
114	0xbd037f00	-0.03210354
115	0xbe1b2149	-0.15149416
116	0x3a375453	0.0006993461
117	0xbda3da31	-0.08000601
118	0xbe1fbe65	-0.15599973
119	0xbe3cb319	-0.18427695
120	0xbd75ddd6	-0.060026012
121	0xbd1f1480	-0.03883791
122	0xbe0c271d	-0.13686796
123	0xbd8731df	-0.06601309
124	0x3dd9110b	0.10598954
125	0xbe2d1c7b	-0.16905396
126	0x3dd4b26d	0.103855945
127	0xbb9a32c3	-0.0047057583
128	0xbd54ac9d	-0.05192243
129	0x3accc234	0.0015621842
130	0xbe253eaf	-0.16137193
131	0xbe037862	-0.12838891
132	0xbe1bebcf	-0.15226673
133	0xbe0b2ad2	-0.13590553
134	0xbcabb3b0	-0.020959705
135	0x3daf96f2	0.085737124
136	0xbe064ae9	-0.13114513
137	0x3de77dbe	0.1130328
138	0xbc31f832	-0.010862397
139	0xbc9efc58	-0.019407436
140	0x3db3981b	0.08769246
141	0xbd9413ed	-0.07230363
142	0x3dbef9be	0.09324978
143	0xbd5e1452	-0.054218598
144	0x3e00225f	0.12513112
145	0x3d62ecca	0.0554016
146	0xbde80875	-0.11329738
147	0x3d99d010	0.07510388
148	0xbe1b8b9a	-0.15189973
149	0xbe2b1e97	-0.16710888
150	0x3c900038	0.01757823
151	0xbdff2689	-0.12458522
152	0x3ce8c454	0.028413929
153	0xbd51ed4f	-0.051251706
154	0x3e058873	0.13040332
155	0xbe0155d1	-0.12630393
156	0xbd4f7f0c	-0.05065827
157	0xbd77d48f	-0.060505446
158	0x3dd871e0	0.10568595
159	0x3d33b485	0.04387333
160	0xbe02c77b	-0.12771408
161	0x3d62e7a4	0.05539669
162	0xbe1f684b	-0.15567128
163	0x3e1d820c	0.1538164
164	0xbdfdfd41	-0.1240182
165	0xbd3def88	-0.046371013
166	0xbe10ed24	-0.14152962
167	0xbd9f7290	-0.07785523
168	0xbe2bae7e	-0.16765782
169	0xbc66d0b5	-0.014087846
170	0xbe1ae9a1	-0.15128185
171	0xbd8fcbdf	-0.07021307
172	0xbbbf4180	-0.0058366656
173	0x3e01c463	0.12672572
174	0xbdf884e0	-0.12134719
175	0x3db327be	0.087478146
176	0x3e20a4c3	0.15687852
177	0xbce331b7	-0.027733667
178	0xbdb28f7f	-0.08718776
179	0xbe2b277c	-0.16714281
180	0xbd5a5209	-0.05330089
181	0xbe342590	-0.17592454
182	0x3dbbc3cc	0.09168205
183	0x3e032338	0.12806404
184	0x3e0697de	0.1314387
185	0xbe22c422	-0.15895131
186	0x3d938a32	0.07204093
187	0x3e27fc09	0.16404738
188	0xbe0bec7b	-0.13664429
189	0xbe212457	-0.15736519
190	0x3b118971	0.0022207166
191	0xbd62741e	-0.05528652
192	0x3d586a82	0.05283595
193	0x3da5294c	0.080645174
194	0x3caf9dd8	0.02143757
195	0xbc0ce5b0	-0.008599684
196	0xbdd682f3	-0.10474195
197	0xbd572536	-0.05252572
198	0xbe12ffbf	-0.14355372
199	0x3daee3f3	0.085395716
200	0x3e256c7b	0.16154663
201	0xbe0b4509	-0.13600554
202	0xbe0e8772	-0.13918856
203	0x3dc5593d	0.096361615
204	0xbdaf2f92	-0.08553995
205	0x3e0202c9	0.12696375
206	0xbcfcf271	-0.030877324
207	0x3dfb0d16	0.12258355
208	0xbd84bc13	-0.06481185
209	0xbe12f9dd	-0.14353128
210	0x3dda72e4	0.10666445
211	0x3e2abd37	0.16673742
212	0x3ced7fed	0.028991664
213	0xbccc84d7	-0.024965687
214	0xbb34baae	-0.002757709
215	0xbe2162f3	-0.15760402
216	0x3d6fa69f	0.05850851
217	0x3e005a63	0.1253448
218	0x3e1805ab	0.14845912
219	0xbd5fb95a	-0.054620124
220	0x3cfc1440	0.030771375
221	0x3da550c2	0.08072044
222	0xbd271a24	-0.040796414
223	0x3d4937d3	0.049125504
224	0x3dba701a	0.09103413
225	0xbbc0a800	-0.005879402
226	0x3d4a1b8a	0.04934267
227	0xbe26651b	-0.16249506
228	0xbd805c90	-0.06267655
229	0xbc9d851f	-0.019228516
230	0xbde37922	-0.111070886
231	0x3c17dfa9	0.009269633
232	0xbd87a779	-0.0662374
233	0xbd3ae164	-0.045625106
234	0xbdb7433b	-0.0894837
235	0x3d7ae429	0.061252747
236	0x3e332a0a	0.17496505
237	0xbdb0c101	-0.086305626
238	0x3e087c68	0.13328707
239	0xbd28ff68	-0.0412592
240	0xbe014ef5	-0.12627776
241	0xbc71fa8c	-0.014769208
242	0x3d68bb0c	0.056819007
243	0x3c1ea6e9	0.009683349
244	0xbe0fbbc7	-0.14036475
245	0xbdee0013	-0.11621108
246	0xbdce8ff2	-0.10086049
247	0xbda5cab2	-0.08095302
248	0x3c8874ff	0.01665735
249	0xbe308479	-0.17238034
250	0xbcfd530e	-0.030923393
251	0x3d921862	0.07133557
252	0xbe178618	-0.14797246
253	0xbd59e6ed	-0.053198744
254	0xbaad969b	-0.0013243736
255	0xbdc87066	-0.09787063

sequential/dense_2/MatMul f4 [3, 64]
0	0x3e0f34bb	0.13984959
1	0x3e8a800e	0.27050823
2	0x3e403176	0.18768868
3	0xbe08ce82	-0.13360026
4	0xbe72220a	-0.23645797
5	0xbdc4b33a	-0.09604497
6	0xbde4c4c6	-0.11170344
7	0x3df96082	0.121766105
8	0xbd0a1504	-0.03371145
9	0x3de25c4f	0.11052763
10	0x3d534335	0.051577765
11	0x3d30a4ff	0.043126103
12	0x3e5b8490	0.21437287
13	0xbe19585b	-0.14975111
14	0x3e3911c1	0.18073179
15	0xbe611d92	-0.21983936
16	0x3ddacf60	0.10684085
17	0xbe691227	-0.22760831
18	0x3e1fcf9f	0.15606545
19	0x3d9e4f04	0.07729915
20	0x3e1c32da	0.15253773
21	0xbe2c441c	-0.16822857
22	0xbd777d9c	-0.060422525
23	0x3e40b17a	0.18817702
24	0xbe8cccc9	-0.2749999
25	0x3d940d2d	0.072290756
26	0x3e4f6b7e	0.20255849
27	0x3df107db	0.117690764
28	0x3e524704	0.20534903
29	0x3e61708e	0.22015592
30	0x3cb472d6	0.022027414
31	0x3c6f73ac	0.014614981
32	0x3d8ecb9d	0.0697243
33	0x3e8e65cc	0.2781204
34	0x3df508df	0.11964583
35	0xbe8c4c21	-0.27401832
36	0x3d7deb4d	0.06199198
37	0x3e92175e	0.28533453
38	0xbe3c955c	-0.18416351
39	0x3e1e3d0f	0.1545298
40	0x3d3ff572	0.046864934
41	0xbe478c5e	-0.1948714
42	0xbd3431ef	-0.043992933
43	0x3c3f41d1	0.011673407
44	0xbe3167ab	-0.17324702
45	0xbd78799c	-0.06066285
46	0xbd176ad9	-0.036967132
47	0xbd32b68f	-0.043631133
48	0x3e220625	0.15822656
49	0x3e4cb175	0.1998957
50	0x3d669eef	0.056303915
51	0x3e6aff16	0.2294887
52	0xbd2e7ed4	-0.04260142
53	0xbe91c6e7	-0.28472063
54	0xbe963fe1	-0.2934561
55	0xbe808c91	-0.25107244
56	0x3e2dbd50	0.16966748
57	0xbdd036ff	-0.1016674
58	0x3d31f108	0.043442756
59	0xbcff475c	-0.031161956
60	0x3d7c3444	0.061573282
61	0x3df6cd8c	0.12050924
62	0x3d2faa58	0.04288706
63	0xbdbf2c80	-0.093346596
64	0xbd724b8e	-0.059154086
65	0xbd4df447	-0.05028179
66	0x3e4cac8b	0.19987695
67	0xbe41ce76	-0.18926415
68	0xbe1e3d1e	-0.15453002
69	0x3e598ed7	0.21245895
70	0x3e1ac7c9	0.15115274
71	0x3e5e1441	0.21687414
72	0x3e8ec676	0.2788579
73	0xbaca66d4	-0.0015442022
74	0x3e086874	0.13321096
75	0xbe7ecad5	-0.24882062
76	0x3e4b0c85	0.19828995
77	0x3e95b29f	0.2923784
78	0xbc8b528c	-0.017007135
79	0xbe12b7b8	-0.14327896
80	0xbe57c99e	-0.21073005
81	0x3c9301f0	0.01794526
82	0xbdbffc90	-0.09374344
83	0xbe1304c6	-0.1435729
84	0x3e02bfef	0.1276853
85	0xbd991041	-0.07473803
86	0x3e972726	0.29522055
87	0x3e462833	0.19351272
88	0xbe492734	-0.19643861
89	0x3e742ca9	0.23845161
90	0xbe81060c	-0.25199926
91	0xbd2134b1	-0.03935689
92	0x3e714430	0.23561168
93	0xbded9b8b	-0.11601933
94	0xbe06bece	-0.13158724
95	0xbe174bf3	-0.14775066
96	0x3e913125	0.28357807
97	0x3bab2efb	0.0052241064
98	0xbd6c3f39	-0.05767748
99	0x3c44cf64	0.012012336
100	0xbded9f32	-0.1160263
101	0x3ded9ddc	0.11602375
102	0xbe97f0f1	-0.2967601
103	0xbdc60490	-0.09668839
104	0xbde59a4a	-0.11211069
105	0xbd48f856	-0.049064957
106	0xbccf0580	-0.025271177
107	0x3e81f9d1	0.25385907
108	0x3dd60379	0.10449881
109	0x3ddba86e	0.10725485
110	0xbdeb2505	-0.1148167
111	0x3e878561	0.26468948
112	0x3dc2f4ee	0.09519373
113	0x3e19013c	0.14941877
114	0xbdfee4c9	-0.12445981
115	0x3e6d2e97	0.23162304
116	0x3d94a20e	0.07257472
117	0xbd628beb	-0.055309217
118	0x3c2bfb9a	0.010496998
119	0xbe696161	-0.22791053
120	0x3c0afd97	0.008483312
121	0x3ddd170a	0.1079541
122	0xbe9179da	-0.28413278
123	0x3e7f09ba	0.24906054
124	0x3e85a4da	0.26102334
125	0xbe37e7a8	-0.17959464
126	0x3de94272	0.113896266
127	0xbe2c2b93	-0.16813497
128	0xbe400da3	-0.18755202
129	0x3e45db4c	0.19321936
130	0x3dee8a97	0.11647528
131	0x3e46d453	0.19416933
132	0xbe41a9f1	-0.18912484
133	0xbe4d85af	-0.20070527
134	0x3e57898c	0.21048564
135	0x3d3f7e7e	0.04675149
136	0xbe48564f	-0.19564174
137	0x3e6f941a	0.2339634
138	0x3ceb23d7	0.028703613
139	0xbd8fa1dc	-0.07013294
140	0x3c881bd4	0.016614832
141	0x3e6a2187	0.22864352
142	0xbe92626d	-0.28590718
143	0x3e1c9b2a	0.15293565
144	0x3d5d0547	0.05396011
145	0xbd8b026a	-0.0678757
146	0x3d0c8aff	0.034312245
147	0x3d155b47	0.036464002
148	0x3e48ad36	0.19597325
149	0xbd858939	-0.06520314
150	0x3d467173	0.048448037
151	0xbdbdacb1	-0.09261454
152	0x3d1647f3	0.03668971
153	0x3e953688	0.29143167
154	0x3e84715f	0.25867745
155	0x3dfa788d	0.122300245
156	0xbe067f1b	-0.13134424
157	0x3d14f21b	0.036363702
158	0x3b139b7c	0.0022523096
159	0x3d89dda6	0.06731729
160	0x3d81bc83	0.06334784
161	0xbe17e5b8	-0.14833724
162	0xbe8ae609	-0.27128628
163	0xbd41803c	-0.047241434
164	0xbe6608dc	-0.22464317
165	0xbe0ffa26	-0.14060268
166	0xbd9dd3f6	-0.07706444
167	0xbe7a4786	-0.24441347
168	0xbd9812a2	-0.07425429
169	0x3d77948e	0.060444407
170	0xbdf4020c	-0.11914453
171	0xbe79270d	-0.24331303
172	0x3e0477ca	0.12936321
173	0x3e454b03	0.19266896
174	0xbdc64cc2	-0.09682609
175	0xbe053d13	-0.13011579
176	0x3c523009	0.012828835
177	0x3dbf36b7	0.09336608
178	0xbe3068ab	-0.17227428
179	0x3ce4e221	0.027939858
180	0xbe53e6f0	-0.20693564
181	0x3e3ebcfe	0.18626782
182	0xbac635f1	-0.0015122277
183	0xbd7c1811	-0.06154639
184	0xbd6cc89e	-0.05780851
185	0xbd24924d	-0.040178586
186	0xbe815d6f	-0.25266597
187	0x3de3600d	0.111023046
188	0x3de70379	0.11279959
189	0x3e09c5f4	0.1345442
190	0xbd8b49ac	-0.06801161
191	0xbc834e2a	-0.016028482
