app/src/main/assets/v2_seizure_prediction_model.tflite (tflite, 297528 bytes, 6 tensors)

sequential/dense_1/BiasAdd/ReadVariableOp f4 [64]
-0.008372126 -0.013271917 -0.015472473 0.0028890213 0.0012944482 -0.014033995 -0.0115280105 0.0006603187
0.0039783544 -0.015592705 -0.0054235198 0.00012743214 -0.018342849 -0.0012073558 0.01026454 0.00039236096
-0.026174061 0.008814516 -0.01474973 -0.01189373 0.009121594 -0.015459991 0.0030165063 -0.0073268483
-0.021726217 0.009127019 -0.015935075 -0.009687817 -0.015172597 -0.0048727226 0.0015387723 -0.027530603
-0.011616825 0.0044010254 -0.0028866213 -0.0067797336 0.0042828987 0.0025735006 -0.009278643 -0.010037195
-0.009378287 -0.026150275 0.014486796 -0.013927323 -0.011688427 -0.020042405 -0.013400286 0.014679608
-0.0034394653 -0.010341205 -0.013055148 -0.011119021 0.0029458194 0.0049785986 0.010148196 0.008515804
-0.017361127 -0.010904774 -0.0047331955 0.009028341 -0.012326451 -0.007599964 0.0029496253 -0.009992921
00000000: 3e2b 09bc 7472 59bc 4180 7dbc bc55 3d3b
00000010: 79aa a93a d7ee 65bc fbdf 3cbc 3d19 2d3a
00000020: db5c 823b 8c78 7fbc c8b7 b1bb 4e9f 0539
00000030: be43 96bc 2340 9eba 9a2c 283c ccb5 cd39
00000040: fc6a d6bc c26a 103c daa8 71bc ebdd 42bc
00000050: bd72 153c e74b 7dbc 94b0 453b 0f16 f0bb
00000060: 2efb b1bc 7e89 153c 468a 82bc a6b9 1ebc
00000070: 7c96 78bc 5cab 9fbb a1b0 c93a dc87 e1bc
00000080: 7f54 3ebc 7a36 903b 782d 3dbb 8728 debb
00000090: 8f57 8c3b 2da8 283b 7305 18bc 0c73 24bc
000000a0: 63a7 19bc 1a39 d6bc 075a 6d3c 6d2f 64bc
000000b0: d180 3fbc f82f a4bc e08c 5bbc bd82 703c
000000c0: a768 61bb 286e 29bc 42e5 55bc 8e2c 36bc
000000d0: a60e 413b 8323 a33b 9e44 263c df85 0b3c
000000e0: ec38 8ebc f0a9 32bc ec18 9bbb 9beb 133c
000000f0: e2f4 49bc 1e09 f9bb 804e 413b 59b9 23bc

sequential/dense_2/BiasAdd/ReadVariableOp f4 [3]
0.0151789775 0.007936405 -0.014080913
00000000: 3fb1 783c b207 023c a1b3 66bc

sequential/dense/BiasAdd/ReadVariableOp f4 [128]
-0.013829551 -0.0069147567 -0.0042645726 -0.0152390925 -0.0060047084 -0.003732334 -0.005989077 0.006117607
-0.017811637 -0.012216605 -0.005206521 -0.011839048 -0.009259964 -0.005993509 -0.0076131006 0.01637925
-0.01953914 -0.013039843 -0.006427425 0.00311813 0.014445735 -0.010851709 0.008435258 -0.006139135
-0.009093028 -0.0034793573 -0.0041086664 -0.0072392556 -0.005326909 -0.0038153054 -0.01000384 -0.0059882347
0.013323772 -0.0016751841 -0.005177168 -0.0052026436 -0.007310805 -0.0046421285 -0.0025166736 0.010423718
-0.005986796 -0.00021744106 0.004065736 -0.008714547 -0.0056958115 -0.01325559 -0.0089174295 -0.00039998125
-0.005759049 -0.007944023 -0.008604937 -3.3019405e-05 -0.008941304 0.008178701 -0.004743042 -0.011911547
0.0028028407 0.003103948 0.006722712 0.00083193835 -0.010635341 -0.00081151724 -0.015980095 0.004253739
-0.01739134 0.0 -0.0050656484 -0.008211832 -0.010180337 -0.0032402878 -0.004430533 -0.006523526
-0.0059868526 -0.0019372789 -0.005511287 -0.0021856178 -0.006028144 0.010304668 -0.017484458 -0.015634963
-0.0059891585 -0.01140364 -0.00718814 -0.010952392 -0.008321247 0.012942253 -0.008046773 0.0
-0.01580205 -0.007824203 0.0036541452 -0.008614061 -0.009049409 -0.006866161 -0.008950398 -0.015638305
-0.00250148 -0.008052956 -0.005132917 -0.0059785913 0.010316358 0.0011191482 -0.0075034923 -0.0098765
-0.0020968516 -0.0051408582 -0.0115705915 -0.003727862 0.00791668 -0.013438054 -0.00744243 -0.0133168185
0.0 -0.008445322 0.0033177063 0.0066009625 0.0062963534 -0.0059507447 -0.0022232293 0.0056332857
-0.0029037264 -0.0076999995 -0.007690417 0.00015723596 -0.0053256745 -0.007538061 -0.011056738 -0.005150836
00000000: 5795 62bc 2f95 e2bb d4bd 8bbb 63ad 79bc
00000010: 25c3 c4bb 2c9a 74bb 0540 c4bb 3576 c83b
00000020: b6e9 91bc 2828 48bc 779b aabb 91f8 41bc
00000030: 1bb7 17bc 3365 c4bb 5177 f9bb c72d 863c
00000040: 8c10 a0bc 11a5 55bc 269d d2bb 8a59 4c3b
00000050: cead 6c3c 5ecb 31bc 0934 0a3c cc2a c9bb
00000060: ecfa 14bc ee05 64bb fea1 86bb 4737 edbb
00000070: 5a8d aebb 340a 7abb 25e7 23bc f438 c4bb
00000080: f34b 5a3c da91 dbba 3ca5 a9bb f07a aabb
00000090: 7a8f efbb ff1c 98bb c7ee 24bb 3ec8 2a3c
000000a0: e32c c4bb e400 64b9 de39 853b 76c7 0ebc
000000b0: eea3 babb f92d 59bc 691a 12bc 93b4 d1b9
000000c0: 68b6 bcbb a627 02bc b9fb 0cbc 517e 0ab8
000000d0: 8c7e 12bc f5ff 053c 856b 9bbb a628 43bc
000000e0: ddaf 373b 9b6b 4b3b 324a dc3b 7016 5a3a
000000f0: da3f 2ebc 00bc 54ba b0e8 82bc f362 8b3b
00000100: 4978 8ebc 0000 0000 bdfd a5bb eb8a 06bc
00000110: 6ecb 26bc 025b 54bb 012e 91bb 4dc3 d5bb
00000120: 5c2d c4bb 4bec fdba 0798 b4bb 953c 0fbb
00000130: bd87 c5bb e9d4 283c 913b 8fbc e514 80bc
00000140: b440 c4bb 55d6 3abc 7d8a ebbb a971 33bc
00000150: d755 08bc be0b 543c 9dd6 03bc 0000 0000
00000160: 4d73 81bc 1631 00bc 627a 6f3b fe21 0dbc
00000170: f943 14bc 88fd e0bb b1a4 12bc e71b 80bc
00000180: dfef 23bb 8cf0 03bc 0732 a8bb 0fe8 c3bb
00000190: f105 293c 62b0 923a dbdf f5bb 0bd1 21bc
000001a0: 556b 09bb a574 a8bb 9492 3dbc 254f 74bb
000001b0: f6b4 013c 492b 5cbc a1df f3bb c92e 5abc
000001c0: 0000 0000 3f5e 0abc e06d 593b e34c d83b
000001d0: a451 ce3b 77fe c2bb 99b3 11bb 6d97 b83b
000001e0: 724c 3ebb 4750 fcbb e5ff fbbb b5df 2439
000001f0: ff82 aebb d701 f7bb 5227 35bc 58c8 a8bb

sequential/dense/MatMul f4 [128, 510]
-0.09053761 -0.06993813 0.08265572 0.09147308 -0.0039247368 -0.026394324 -0.022693645 -0.039802033
0.073051594 -0.0042879223 0.061012074 -0.03464132 0.014640104 -0.100475185 -0.1085292 -0.054745864
0.07667342 -0.1032336 0.019839786 -0.07901095 -0.08419868 0.08408807 -0.04780707 -0.08898603
-0.08420608 -0.04912552 -0.097273275 -0.096068725 -0.024862334 0.044459287 -0.030002082 0.021779682
0.022766601 -0.10884169 -0.103476435 0.009396102 -0.030602084 0.02549117 -0.10544689 -0.07743208
-0.027973099 -0.07945695 0.05550383 0.054162223 0.031607226 -0.02821839 -0.07131416 0.0379586
-0.10600005 0.06951791 -0.05450282 -0.055507045 0.011907361 -0.027164312 0.043248724 0.07959666
0.0866235 -0.0005627219 -0.10597304 0.0767604 -0.10555143 0.012055926 0.019887425 -0.059501275
-0.084814385 0.05783096 -0.09041478 -0.09140803 0.033749685 0.008265929 -0.0761822 -0.10228531
-0.01746775 0.082826294 -0.015340076 -0.029593376 -0.02583122 -0.0661637 0.038369283 -0.093597375
-0.09093267 0.052830994 -0.021569077 0.07697429 -0.082117595 0.09447832 -0.012200305 0.026958626
-0.037511148 -0.06981082 -0.02086251 -0.024089504 -0.07418082 -0.001402469 -0.07490406 -0.10800246
0.06928094 0.06531527 -0.026719026 0.03818649 0.0224921 -0.095928885 0.057437953 -0.0921667
0.038110062 -0.09037833 -0.063999616 -0.015049986 -0.1019917 -0.10006204 0.041961025 -0.018924803
0.07255467 0.07922646 -0.07547669 -0.04317129 0.01034009 -0.07640791 0.07211033 0.0042068986
0.014908888 0.013168114 0.009269852 -0.010564504 -0.025606183 -0.007728497 0.03757779 0.05260373
-0.037784275 -0.03198302 -0.053623144 0.04721655 -0.059528425 -0.09056804 0.0423726 -0.05044911
0.06590013 0.025799578 0.06958246 -0.004391178 0.038361646 0.07680901 -0.07194294 -0.059991088
-0.071152054 -0.032839913 -0.06884028 -0.076857224 0.0136106275 -0.09056505 0.0059320033 0.056116242
-0.08763187 -0.038531203 0.035156153 -0.074150495 0.04200386 -0.010883825 -0.07343671 -0.003598245
-0.09703658 0.018691085 -0.073384 0.06361357 -0.065078035 -0.05453962 -0.07690542 -0.045493748
0.022133846 -0.037182543 -0.0256219 0.01607775 0.025681678 0.009291931 0.0038445515 0.075232014
-0.042759217 0.04990651 -0.011641619 0.06777019 -0.050129868 -0.02269667 0.061883762 -0.099812694
-0.08274273 0.074424595 -0.06319888 -0.006835331 0.035876434 0.029281037 -0.07121078 0.024782995
0.050294492 -0.10446885 -0.018031359 0.007002632 -0.043647494 -0.0294452 -0.03922317 -0.08557654
0.013305143 -0.036815852 0.018003898 -0.10765115 -0.048468716 0.055300295 0.004746815 0.014442765
-0.004232935 0.008444434 -0.06858922 -0.087989114 -0.038720816 0.044340774 -0.04722905 -0.09524858
0.0087175295 0.05423837 -0.0028615063 -0.058338393 -0.10440793 -0.010626493 -0.095287055 -0.045397427
-0.06720159 0.030323906 0.06005023 -0.04313443 0.068875834 -0.10094349 -0.031060865 0.04464021
0.03723346 0.087775186 -0.028701765 -0.038130533 0.03476495 -0.02070213 -0.023749817 0.047080353
-0.08069941 0.030133061 0.041972842 0.041977398 -0.039576925 -0.075361796 0.008277512 0.06671777
-0.059540574 0.033793043 0.006867697 -0.0025395523 0.02670071 0.07558355 -0.09655269 0.03936563
00000000: c86b b9bd b93b 8fbd 6747 a93d 3d56 bb3d
00000010: 149b 80bb e938 d8bc 06e8 b9bc 7507 23bd
00000020: 139c 953d b381 8cbb cce7 793d 0fe4 0dbd
00000030: 0cdd 6f3c efc5 cdbd 8f44 debd 333d 60bd
00000040: f406 9d3d 236c d3bd 0c87 a23c 7ed0 a1bd
00000050: 5c70 acbd 5e36 ac3d 59d1 43bd 4f3e b6bd
00000060: 3d74 acbd d737 49bd 3637 c7bd aebf c4bd
00000070: 18ac cbbc f11a 363d edc6 f5bc 4e6b b23c
00000080: 0681 ba3c 64e8 debd 74eb d3bd 1cf2 193c
00000090: 39b1 fabc dcd2 d03c 8af4 d7bd b694 9ebd
000000a0: d727 e5bc 53ba a2bd fc57 633d 35d9 5d3d
000000b0: 9476 013d 412a e7bc 290d 92bd 7a7a 1b3d
000000c0: 8e16 d9bd 685f 8e3d 593e 5fbd 5b5b 63bd
000000d0: 1817 433c b187 debc 9325 313d 9303 a33d
000000e0: a967 b13d a183 13ba 6508 d9bd 8e34 9d3d
000000f0: 592b d8bd 3886 453c f4ea a23c 9cb7 73bd
00000100: 2ab3 adbd 28e0 6c3d 622b b9bd 2234 bbbd
00000110: 1c3d 0a3d d26d 073c 6a05 9cbd f67a d1bd
00000120: 8718 8fbc d5a0 a93d f154 7bbc cf6d f2bc
00000130: ff9b d3bc d580 87bd 1c29 1d3d fbaf bfbd
00000140: e83a babd 5065 583d a2b1 b0bc b2a4 9d3d
00000150: 452d a8bd d97d c13d cae3 47bc 56d8 dc3c
00000160: 4aa5 19bd faf8 8ebd dbe7 aabc 5a57 c5bc
00000170: 1dec 97bd 0dd3 b7ba 4d67 99bd 6530 ddbd
00000180: 2ae3 8d3d 03c4 853d dce1 dabc 7069 1c3d
00000190: 5a41 b83c 5d76 c4bd 0f44 6b3d e5c1 bcbd
000001a0: 4c19 1c3d 4618 b9bd 3b12 83bd 3794 76bc
000001b0: 06e1 d0bd 54ed ccbd 53df 2b3d 3008 9bbc
000001c0: 8b97 943d 7b41 a23d 8693 9abd 61d4 30bd
000001d0: 7b69 293c c07b 9cbd 95ae 933d 06da 893b
000001e0: 6944 743c 13bf 573c 94e0 173c be16 2dbc
000001f0: 0fc4 d1bc 553f fdbb 2beb 193d 0277 573d
00000200: afc3 1abd a100 03bd f1a3 5bbd 2466 413d
00000210: 14d4 73bd bd7b b9bd e48e 2d3d baa3 4ebd
00000220: a6f6 863d a359 d33c 4081 8e3d dfe3 8fbb
00000230: 1a21 1d3d 0b4e 9d3d d256 93bd 37b9 75bd
00000240: 2bb8 91bd 2583 06bd 22fc 8cbd 5267 9dbd
00000250: 1cff 5e3c 2b7a b9bd 4061 c23b 25da 653d
00000260: 5678 b3bd e5d2 1dbd e6ff 0f3d 37dc 97bd
00000270: 3d0c 2c3d 1252 32bc fc65 96bd 89d0 6bbb
00000280: 1dbb c6bd 0c1e 993c 5a4a 96bd d547 823d
00000290: a247 85bd f064 5fbd 9780 9dbd a757 3abd
000002a0: 0a52 b53c b94c 18bd 05e5 d1bc 7cb5 833c
000002b0: 6262 d23c 2f3d 183c dff4 7b3b 3e13 9a3d
000002c0: 4a24 2fbd c56a 4c3d 7dbc 3ebc 19cb 8a3d
000002d0: fa54 4dbd 5eee b9bc d479 7d3d 996a ccbd
000002e0: 0575 a9bd ec6b 983d 6a6e 81bd eafa dfbb
000002f0: 2bf3 123d c9de ef3c f5d6 91bd b505 cb3c
00000300: 9901 4e3d c4f3 d5bd 80b6 93bc 5676 e53b
00000310: b7c7 32bd 0f37 f1bc 7aa8 20bd c142 afbd
00000320: d1fd 593c 38cc 16bd e97c 933c 3578 dcbd
00000330: 2287 46bd 9082 623d 2c8b 9b3b 59a1 6c3c
00000340: 6fb4 8abb 865a 0a3c 8178 8cbd a333 b4bd
00000350: b899 1ebd ac9e 353d 4073 41bd b011 c3bd
00000360: f8d3 0e3c 0e29 5e3d 1c88 3bbb 3df4 6ebd
00000370: d3d3 d5bd be1a 2ebc dc25 c3bd a7f2 39bd
00000380: fda0 89bd d769 f83c 3bf7 753d baad 30bd
00000390: c60e 8d3d 76bb cebd 5b73 febc a7d8 363d
000003a0: 1d82 183d 7ac3 b33d f71f ebbc c32e 1cbd
000003b0: b165 0e3d 8397 a9bc fa8e c2bc 54d7 403d
000003c0: bb45 a5bd 9cd9 f63c b7eb 2b3d 7ef0 2b3d
000003d0: 6a1b 22bd 4957 9abd 679e 073c 54a3 883d
000003e0: d1e0 73bd 936a 0a3d 6b0a e13b 9e6e 26bb
000003f0: 73bb da3c 8ccb 9a3d 6bbd c5bd db3d 213d

sequential/dense_1/MatMul f4 [64, 128]
0.091150425 0.041538756 -0.14680901 0.08915656 0.12928572 -0.080978386 -0.101145186 0.11372706
0.11733715 -0.18043703 0.12593625 0.14478661 -0.04007474 -0.16250509 0.102995045 0.14231284
-0.07479945 -0.16350773 -0.087342955 0.034946423 0.015285371 0.05520604 -0.057426192 0.061469585
0.15405087 -0.11542053 -0.04604159 -0.053721085 0.008138686 -0.16387603 -0.12158616 0.10694386
0.004475476 -0.14211613 0.04935456 -0.034411475 0.0101286955 -0.1334562 0.060188957 -0.09279993
0.07074799 -0.15591618 -0.05443174 -0.028948413 -0.02538854 -0.17667805 0.16041861 0.0684607
-0.06409538 0.14661331 0.0017172154 0.061125543 -0.043916672 -0.097125344 0.12386206 0.10073119
-0.008431275 -0.096026115 0.03117453 0.03532952 -0.035668027 0.004972991 0.0029283068 -0.14984863
0.13502532 0.15927808 0.15434073 -0.06831475 -0.09483026 -0.045908265 -0.13877954 0.03939622
0.040474042 0.11448622 0.067493655 0.025101885 0.0555676 0.003656427 -0.17720939 0.02697302
-0.040067654 -0.11084657 -0.0011251328 0.038520448 0.09832405 -0.029940462 0.020137904 0.14578281
-0.020822166 -0.022766689 0.15311183 0.10509337 0.059438165 -0.059603084 0.12917209 0.064663075
0.12142586 0.031447794 0.16387343 -0.07087347 -0.031815637 -0.12516968 0.07735504 -0.11693714
-0.06392089 0.16014965 0.09072791 -0.044673085 0.015975654 -0.09541679 0.17778325 -0.029122278
-0.16260578 0.15453237 -0.049365435 0.100711256 -0.025637059 -0.17815606 0.032985542 -0.108924024
0.05519017 -0.0071579814 0.15047972 -0.12761803 0.05901279 -0.07450932 0.07235041 0.08984455
0.08507642 0.034264516 -0.12415071 -0.033243615 -0.13536151 -0.13608594 0.16325036 -0.12978469
0.0535921 0.07155715 -0.048033744 -0.09467017 -0.008705421 0.05436341 0.033719014 0.07931085
-0.09562964 0.181321 0.07646199 -0.13442996 0.019568149 -0.13453618 -0.05659261 -0.059905726
-0.050656185 -0.112198286 -0.15670794 -0.13732976 -0.07558308 0.093728654 -0.061970465 0.10053675
-0.096677974 -0.0006702127 -0.10711124 -0.014943376 0.14315246 -0.10813197 -0.15886368 0.0030153596
0.04871227 -0.085116744 -0.09695404 -0.007548935 0.1707434 -0.118307225 0.13805032 0.11611172
0.026494326 -0.09451413 0.14349213 0.0927691 0.050069485 -0.08767051 0.124615304 -0.05401234
0.13974363 -0.0763603 -0.053869102 -0.17613484 0.13131084 -0.18014568 -0.12231847 -0.10195348
0.024323117 -0.17062755 0.12378909 -0.11354921 0.14801775 -0.08556876 -0.071185224 -0.1610378
0.039778456 -0.03798829 0.00015832546 -0.001935205 0.14125948 -0.15609446 0.021137651 0.12131063
-0.16819793 -0.12474584 0.1381176 -0.0857352 -0.112762585 -0.06578437 -0.032417238 -0.111513056
-0.09911393 0.11861786 -0.13938627 0.026103035 0.14328927 -0.045247447 -0.009952382 -0.070147015
-0.08218511 0.105238475 0.16373785 0.11605363 0.17521101 -0.0569269 0.07338629 -0.11994413
0.12422732 0.053198513 0.038127646 0.07584399 0.082583174 0.15381894 -0.08624112 -0.13073999
0.10875888 0.097983874 0.15857293 0.08636276 0.08278318 -0.07567488 -0.1259835 -0.112391315
-0.009482979 0.01351051 -0.052039944 -0.10695453 -0.1603868 -0.024930501 -0.019494483 0.044172987
00000000: 13ad ba3d 8b24 2a3d 1a55 16be b797 b63d
00000010: 7a63 043e ffd7 a5bd 3525 cfbd bce9 e83d
00000020: 764e f03d 7cc4 38be 6ff5 003e f142 143e
00000030: 6925 24bd bc67 26be 11ef d23d 75ba 113e
00000040: 7430 99bd 926e 27be dde0 b2bd fb23 0f3d
00000050: 7e6f 7a3c bb1f 623d ba37 6bbd 88c7 7b3d
00000060: 83bf 1d3e 9961 ecbd 1b96 3cbd a40a 5cbd
00000070: 2058 053c 1ecf 27be 2a02 f9bd 6205 db3d
00000080: 04a7 923b e486 11be 0228 4a3d 0cf3 0cbd
00000090: d4f2 253c bea8 08be b288 763d e40d bebd
000000a0: 52e4 903d 7ea8 1fbe d1f3 5ebd 3925 edbc
000000b0: a1fb cfbc 17eb 34be c744 243e 2035 8c3d
000000c0: 7044 83bd cd21 163e 3014 e13a c75e 7a3d
000000d0: f8e1 33bd a7e9 c6bd 64ab fd3d 274c ce3d
000000e0: 5523 0abc 57a9 c4bd ba61 ff3c b0b5 103d
000000f0: a318 12bd 79f4 a23b d6e8 3f3b eb71 19be
00000100: 1444 0a3e cb19 233e 7f0b 1e3e 9be8 8bbd
00000110: 5e36 c2bd 4e0a 3cbd 391c 0ebe ee5d 213d
00000120: 1cc8 253d c077 ea3d 1d3a 8a3d 78a2 cd3c
00000130: da9a 633d aaa0 6f3b 6176 35be 86f6 dc3c
00000140: fb1d 24bd 8703 e3bd 3179 93ba 9ec7 1d3d
00000150: 1f5e c93d b345 f5bc 3ff8 a43c 1748 153e
00000160: 3f93 aabc 3581 babc 59c9 1c3e 313b d73d
00000170: 6f75 733d 5d22 74bd b045 043e 136e 843d
00000180: 1fae f83d 67cf 003d 70ce 273e 1c26 91bd
00000190: 1d51 02bd 7b2c 00be 526c 9e3d bd7c efbd
000001a0: f5e8 82bd 45fe 233e 8ecf b93d 20fb 36bd
000001b0: 60df 823c e169 c3bd d00c 363e d891 eebc
000001c0: 2182 26be bc3d 1e3e 6933 4abd b441 ce3d
000001d0: cf04 d2bc 8b6e 36be d91b 073d 8f13 dfbd
000001e0: 160f 623d 808d eabb 5b17 1a3e 4dae 02be
000001f0: 65b7 713d 5898 98bd 742c 943d 6b00 b83d
00000200: 8c3c ae3d f358 0c3d ba42 febd 752a 08bd
00000210: 359c 0abe 1d5a 0bbe 1a2b 273e 47e6 04be
00000220: 6483 5b3d 8e8c 923d 08bf 44bd 6fe2 c1bd
00000230: 2fa1 0ebc 2bac 5e3d f31c 0a3d ba6d a23d
00000240: 79d9 c3bd 36ac 393e 1b98 9c3d 02a8 09be
00000250: 624d a03c dac3 09be a7cd 67bd b55f 75bd
00000260: dc7c 4fbd 37c8 e5bd 0c78 20be 2ca0 0cbe
00000270: 4dcb 9abd cff4 bf3d bed4 7dbd 36e6 cd3d
00000280: 1aff c5bd 37b1 2fba 235d dbbd 10d5 74bc
00000290: 8f96 123e 4b74 ddbd 29ad 22be 579d 453b
000002a0: 8486 473d b051 aebd d78f c6bd 0e5d f7bb
000002b0: 5cd7 2e3e 0f4b f2bd 105d 0d3e fbcb ed3d
000002c0: a10a d93c a090 c1bd 9aef 123e bafd bd3d
000002d0: a915 4d3d 998c b3bd 4f36 ff3d 0b3c 5dbd
000002e0: f418 0f3e ca62 9cbd d9a5 5cbd b15c 34be
000002f0: 5976 063e 1c78 38be 1b82 fabd fccc d0bd
00000300: 4641 c73c fdb8 2ebe 2285 fd3d 7d8c e8bd
00000310: f791 173e ad3e afbd 8fc9 91bd 18e7 24be
00000320: bcee 223d 9c99 1bbd 2b04 2639 b4a6 fdba
00000330: 53a6 103e 3ad7 1fbe de28 ad3c b571 f83d
00000340: 143c 2cbe bf7a ffbd b36e 0d3e f095 afbd
00000350: 12f0 e6bd f5b9 86bd f0c7 04bd f560 e4bd
00000360: 3efc cabd eced f23d 46bb 0ebe 08d6 d53c
00000370: 6cba 123e 6355 39bd 510f 23bc 3da9 8fbd
00000380: ab50 a8bd 4587 d73d e5aa 273e 87ad ed3d
00000390: 846a 333e 2e2c 69bd 8d4b 963d 45a5 f5bd
000003a0: e56a fe3d afe6 593d bc2b 1c3d 1854 9b3d
000003b0: 5e21 a93d b682 1d3e 2f9f b0bd b4e0 05be
000003c0: fabc de3d c5ab c83d f160 223e f5de b03d
000003d0: 3a8a a93d 6efb 9abd d201 01be 6b2d e6bd
000003e0: 7f5e 1bbc 305b 5d3c d627 55bd fa0a dbbd
000003f0: 703c 24be 0d3b ccbc e5b2 9fbc bcee 343d

sequential/dense_2/MatMul f4 [3, 64]
-0.1618259 -0.09293597 -0.037376 0.1945078 0.07342608 -0.23812947 0.23124187 -0.11933904
-0.27530316 0.108920574 -0.021801025 0.19850282 0.2533266 -0.24750589 0.19001274 -0.28620574
-0.23306304 -0.27915725 -0.011167054 -0.1673929 -0.15038037 -0.08807276 0.06399917 0.27911946
-0.19986276 0.22034298 0.11922533 0.18744801 0.0023275712 -0.026650779 0.18666601 -0.20652685
0.017490888 -0.08534386 -0.15785736 -0.24432035 -0.133785 -0.18109994 0.28684586 0.01202973
0.0016045772 -0.18731254 0.18686435 0.2860657 0.032283027 -0.28173837 -0.09802785 0.0011344668
-0.1947822 0.24882211 -0.19069643 0.062573396 -0.11798298 -0.05398658 0.11528172 0.059990466
-0.0019405355 -0.28400117 0.06356808 0.021902535 -0.13412628 0.046168514 0.07501233 -0.13627395
-0.26255473 0.08233335 -0.17434412 -0.027889827 -0.10643688 -0.106994905 -0.24876389 -0.15546036
-0.16797103 0.17957242 0.27094996 0.069938734 -0.24171285 0.16306633 0.29881144 0.1844085
0.048387427 0.10776641 -0.1968257 -0.24242926 0.029796604 -0.22446951 -0.13504444 0.05433556
0.015691476 0.25421757 0.10412093 -0.1633115 -0.25096402 -0.24821107 0.19830735 0.23586608
-0.0055209287 0.24019003 0.20674431 0.2839448 -0.017407106 0.14244616 -0.13325752 0.042644996
-0.22343646 -0.08741491 -0.24908485 -0.115561575 -0.075139806 0.2396412 0.24252757 -0.23794957
0.027611095 -0.14173506 -0.21323161 -0.25321475 -0.13305224 0.2985092 0.016353602 0.26451045
0.20361955 0.023553653 -0.2434392 0.08159739 -0.17760037 -0.28261974 0.17227346 0.061420042
-0.08463583 -0.1151137 0.031494636 0.0924257 0.0812933 0.25805506 0.023451306 -0.2871883
-0.20518969 0.2505528 0.23667252 -0.13212682 -0.040048614 -0.21336697 -0.28901652 -0.020720953
0.16737187 -0.20231338 0.2444081 0.18349554 -0.08829507 -0.10044337 -0.0059102247 0.21231316
0.2192939 -0.18921058 0.2554804 0.19736615 0.093214914 0.17005372 -0.21353918 0.18288533
0.07654271 0.034827378 -0.043322314 0.13863213 -0.017178189 -0.17742 0.13251925 0.14432038
-0.014647089 0.26591802 0.041037355 0.23916678 0.15998814 0.028130988 0.27256033 -0.27987403
-0.021332582 0.1869659 0.04070244 0.20322277 -0.2500828 -0.21706563 -0.023836011 -0.09834358
0.22825763 0.25830153 -0.08630456 -0.030880595 -0.058679964 0.17810114 -0.041604593 0.19507967
00000000: b0b5 25be 3755 bebd 9417 19bd 0d2d 473e
00000010: 6a60 963d 36d8 73be abca 6c3e 0768 f4bd
00000020: 89f4 8cbe c011 df3d 1098 b2bc 5344 4b3e
00000030: 06b4 813e 2f72 7dbe b392 423e 8f89 92be
00000040: 14a8 6ebe b3ed 8ebe 05f6 36bc 0b69 2bbe
00000050: 50fd 19be 7e5f b4bd ff11 833d bfe8 8e3e
00000060: d3a8 4cbe 97a1 613e 692c f43d 5ff2 3f3e
00000070: 2a8a 183b bc52 dabc 6025 3f3e c67b 53be
00000080: 0d49 8f3c c3c8 aebd 5ca5 21be 1d2f 7abe
00000090: effe 08be 4372 39be 76dd 923e 5818 453c
000000a0: ad50 d23a dcce 3fbe 5e59 3f3e 3477 923e
000000b0: 353b 043d 0340 90be d3c2 c8bd 64b2 943a
000000c0: fc74 47be 39cb 7e3e ed45 43be 7b26 803d
000000d0: 10a1 f1bd 0821 5dbd d318 ec3d 90b8 753d
000000e0: 9159 feba 9a68 91be fb2f 823d f26c b33c
000000f0: 6658 09be 321b 3d3d 11a0 993d 668b 0bbe
00000100: 936d 86be 639e a83d 4487 32be 3579 e4bc
00000110: 94fb d9bd 2520 dbbd f6bb 7ebe 0031 1fbe
00000120: 9900 2cbe d5e1 373e f4b9 8a3e 0a3c 8f3d
00000130: 9383 77be dcfa 263e d0fd 983e 95d5 3c3e
00000140: e531 463d a3b4 dc3d ad8c 49be 603f 78be
00000150: 0218 f43c 56db 65be 1749 0abe f78e 5e3d
00000160: 698b 803c ce28 823e 5b3d d53d 213b 27be
00000170: 5b7e 80be 0b2b 7ebe 1511 4b3e e186 713e
00000180: e8e8 b4bb 60f4 753e c8b4 533e 3661 913e
00000190: 5999 8ebc 68dd 113e a974 08be 85ac 2e3d
000001a0: 87cc 64be 9706 b3bd 1910 7fbe 8cab ecbd
000001b0: e6e2 99bd 8164 753e 2659 783e 0da9 73be
000001c0: aa30 e23c ff22 11be 6359 5abe 5da5 81be
000001d0: d93e 08be 33d6 983e fdf7 853c ea6d 873e
000001e0: a581 503e 97f3 c03c 2048 79be 881c a73d
000001f0: dfdc 35be 89b3 90be 7468 303e 9593 7b3d
00000200: 8d55 adbd bbc0 ebbd 8500 013d af49 bd3d
00000210: 1a7d a63d cb1f 843e f41c c03c 580a 93be
00000220: 3f1d 52be 7548 803e 485a 723e 414c 07be
00000230: 040a 24bd df7c 5abe f9f9 93be fdbe a9bc
00000240: 8863 2b3e 3d2b 4fbe 1e46 7a3e 41e6 3b3e
00000250: 0cd4 b4bd 41b5 cdbd 8faa c1bb 9f68 593e
00000260: 958e 603e 6bc0 41be 54ce 823e 5a1a 4a3e
00000270: 76e7 be3d 9022 2e3e 04aa 5abe 4b46 3b3e
00000280: 6dc2 9c3d 27a7 0e3d bd72 31bd 95f5 0d3e
00000290: 46b9 8cbc 97ad 35be 20b3 073e b9c8 133e
000002a0: 58fa 6fbc 6826 883e c916 283d 23e8 743e
000002b0: eed3 233e f572 e63c 078d 8b3e a64b 8fbe
000002c0: abc1 aebc fd73 3f3e 9ab7 263d a119 503e
000002d0: da0a 80be 7446 5ebe bd43 c3bc 5c68 c9bd
000002e0: 5ebc 693e 1940 843e 72c0 b0bd 4df9 fcbc
000002f0: 675a 70bd 2560 363e 9469 2abd f7c2 473e
