app/src/main/assets/v3_seizure_prediction_model.tflite (tflite, 49868 bytes, 8 tensors)

sequential/dense_1/BiasAdd/ReadVariableOp f4 [64]
00000000: 9b29 84bd 9549 92bc db98 363e 1ce7 aabd
00000010: 5fa0 223e 95f7 8bbd 4868 273e 3ecc 383e
00000020: 9ec1 993d bc95 b53c 731b a0bd 706c 28bd
00000030: d8b4 19be 8064 063e 5775 0bbe 2bfd b33d
00000040: d94f 9f3d 38df 29bd fa0d 1dbd 61bf 35be
00000050: 688c 02bd 17d2 803c 0433 0f3a 665b 563e
00000060: 660d fe3d 59d0 9a3d d5df babd 93df 0dbe
00000070: 2cf7 5c3e 2229 83bc 96a0 133e 7fcb babd
00000080: e3f1 cdbd ad37 b5bd fd6d 3f3e 8a78 e53d
00000090: e22f 22be a0f0 a13d 51cf 693d ec8b 4e3d
000000a0: 6e68 193c 672c 04bd 5be0 283e 21e5 69bd
000000b0: 654e 05be 2de5 593e e12f 94bd 9dec 593e
000000c0: e7ed 15bc df6c f3bd b79d 333d 2b1c 07bd
000000d0: 321c 713e 700c 2bbe 900c 003e 89ac 333b
000000e0: dd18 e43d e975 01be 6d9b 1f3d 5b64 9fbd
000000f0: 18b7 bd3d 725d 6e3e 1083 bbbd 4d38 023e
-0.06453248 -0.017857352 0.17831747 -0.08344862 0.15881489 -0.06834332 0.16348374 0.18046662
0.07507633 0.022166125 -0.078177355 -0.04111904 -0.15010393 0.13124275 -0.1361898 0.08788522
0.077789016 -0.041472644 -0.038343407 -0.17748787 -0.031872183 0.015725179 0.0005462619 0.20933303
0.12404899 0.075592704 -0.09124724 -0.13854818 0.21578664 -0.016010825 0.14416727 -0.09120845
-0.10055902 -0.0884851 0.18694301 0.112046316 -0.15838578 0.07907224 0.057082478 0.05042641
0.009363277 -0.032268908 0.16491835 -0.05710328 -0.13018186 0.2127883 -0.07235695 0.21281667
-0.009150959 -0.11886 0.04385158 -0.032985847 0.23545912 -0.16703963 0.12504792 0.0027416071
0.11137555 -0.12642635 0.038966585 -0.07782813 0.09263438 0.23277834 -0.091558576 0.1271679

sequential/dense_2/BiasAdd/ReadVariableOp f4 [32]
00000000: c6c3 d4bd f397 613e e98b 4e3e 029c adbd
00000010: e145 cc3d e52d 823d 217b b03c 0e77 3abc
00000020: ba7f 21be d227 0f3e 03c5 c3bb 26a5 f1bb
00000030: 0f16 e4bd ca25 133d c947 40bc ca6a 1ebe
00000040: 0f66 783d 84f1 353d 18c5 f2bd 79fc bd3d
00000050: a544 6a3e e7cd 20be 0e0e d4bb 10da f53c
00000060: 5d6e 993b fc1f dc3d 1e19 0ebc cb51 59bc
00000070: 22e1 ff3b c147 1dbd 3023 bfbc e1b3 383e
-0.10388903 0.2203062 0.20170559 -0.08477022 0.09974266 0.0635641 0.021543087 -0.011380924
-0.1577138 0.13980034 -0.0059744134 -0.0073744236 -0.1113702 0.03592471 -0.011735865 -0.15470424
0.060644206 0.04441978 -0.11853999 0.09276671 0.22877748 -0.15703546 -0.006471402 0.030011207
0.004682346 0.10748288 -0.008672981 -0.01326413 0.0078088203 -0.038398508 -0.023332208 0.18037368

sequential/dense_3/BiasAdd/ReadVariableOp f4 [3]
00000000: 8c0d 443d 7dfd 843d 268a 1bbe
0.04786448 0.064936616 -0.15189418

sequential/dense/BiasAdd/ReadVariableOp f4 [128]
00000000: 631e ec3d 266d 1e3e 2b5c 753c 486a e53d
00000010: 18bd 353e 6e62 3bbd 8594 aabd bc41 74bd
00000020: 1457 6abd 75a6 143e 0ca1 5a3e c010 ebbc
00000030: 0814 4ebd 0d72 f83d 7694 3fbd 8d7e 313e
00000040: 2609 353e b099 1a3e b669 24be 3518 713e
00000050: ceb2 253e 2f22 8c3d f55d 873d e8f3 dfbd
00000060: 7f45 753e 9653 d3bd 4c4a 863e a504 64be
00000070: 7466 eebd 4440 b6bd da39 78bd ccdd 7b3e
00000080: e4f1 cebd 1e61 4ebd 6445 d2bd 133a fabc
00000090: 921e dcbc aeb2 1b3e 9042 aabd 1099 f8bc
000000a0: 0b4f d6bd 6f25 ffbd a075 a3bd 6cb0 e5bd
000000b0: d75f 70bd b12d 85bd 8b54 c9bd 6d11 2e3e
000000c0: adfa 61bc 6e7b d1bc b644 2ebd 2575 2ebd
000000d0: 6510 37be 72dc a9bd 484e 44bd a2c5 1a3e
000000e0: c0ab c7bd 0777 b0bd ba61 f2bd ed59 633c
000000f0: d5b6 18bd dc28 423b 0984 8bbd e032 973e
00000100: 9383 44bd da61 103e 9751 2dbd 9f31 353e
00000110: b60f ee3b 1a88 363e acb4 4c3e 02d8 5e3e
00000120: eb0c ba3d 366c 15be bfe0 65bd f3c6 ffbd
00000130: 6b9f f0bd 0e0b 343e e259 63bd 0919 3cbc
00000140: 2d23 51bd 4232 bd3b cae3 a9bc 82f5 abbd
00000150: 90fe 0f3e f952 4d3e 1488 0c3e a95e 4fbd
00000160: 6091 96bb d0f2 533e 1516 083c 0241 873e
00000170: c074 6abc d322 94bd 0ac2 1f3e 3eb0 22be
00000180: 2513 963d e919 f93d 34b8 493e 561a c4bd
00000190: 2ed7 99bd afc6 08bb d0f6 6f3d 4e12 623e
000001a0: ef0d 9fbc 6d87 823d 4e48 bfbc 1a98 153b
000001b0: f9bb 153d b02a e1bd cc7c 413e d47f 1e3e
000001c0: 6875 dcbc e47a d9bd 7bd1 f7bc 618d abbd
000001d0: b735 0f3e a539 94bd 8d0d d2bd 78e8 69bd
000001e0: ac53 cebd 2d0b 10bc a66b 213e d7a6 c13d
000001f0: 97b0 0d3b 97fb 4fbd cd1f 97bd e5be ccbd
0.11529233 0.15471324 0.014975588 0.11201912 0.17747915 -0.045748167 -0.08329109 -0.059633
-0.05721195 0.14516623 0.21350497 -0.02869451 -0.050312072 0.121311285 -0.046772443 0.17333432
0.17679271 0.1509769 -0.1605595 0.2354439 0.1618149 0.068424575 0.06609718 -0.10935193
0.23952292 -0.10318677 0.2622856 -0.22267397 -0.11640635 -0.088989764 -0.060602047 0.24596328
-0.10104731 -0.050385587 -0.102671415 -0.03054527 -0.026870046 0.1520488 -0.08313477 -0.030346423
-0.10464295 -0.12458312 -0.079814196 -0.112152904 -0.05868515 -0.065028556 -0.098305784 0.16998835
-0.013792676 -0.025571551 -0.042545997 -0.042592186 -0.17877348 -0.08294 -0.047926217 0.15114453
-0.097495556 -0.08616453 -0.11835046 0.01387642 -0.037283737 0.0029626405 -0.06812293 0.29531002
-0.04797704 0.14099827 -0.04231414 0.1769471 0.0072650565 0.17825356 0.19990796 0.21762088
0.09084495 -0.1459206 -0.056122538 -0.124891184 -0.117491566 0.17582342 -0.05550564 -0.011480578
-0.051058937 0.0057738135 -0.020738501 -0.08396436 0.14061952 0.20051183 0.13723785 -0.050627384
-0.004594967 0.20698094 0.008306046 0.26416785 -0.014310062 -0.07233205 0.15601364 -0.15887544
0.0732787 0.12163145 0.19699174 -0.09575336 -0.075117454 -0.0020870378 0.058584988 0.22077295
-0.019415824 0.06373487 -0.023349907 0.0022826255 0.036556218 -0.1099447 0.18895262 0.1547845
-0.026911452 -0.10619143 -0.030251255 -0.08376575 0.13985334 -0.07237557 -0.10256491 -0.057106465
-0.10074553 -0.008791727 0.15763721 0.0945565 0.0021620148 -0.050777044 -0.073791124 -0.09997348

sequential/dense/MatMul f4 [128, 10]
00000000: 770f 1fbd c777 a4bc 571b e83d 7160 0d3e
00000010: de07 d7bd 189a 19be e460 b83d 7938 54be
00000020: 5377 cfbd fc55 3f3e 29c1 1b3c 4f6b f23d
00000030: 5676 4e3e 6098 133c e0dd 903d 68c9 22be
00000040: a6c0 cf3d dc62 243d 6c6a 0f3e 6caa 7bbd
00000050: 0f7f 0ebe 641a 653e 574b d53c d90e 893b
00000060: dbfe 8ebd 0484 1fbe 23c0 e7bd 8cbe 143e
00000070: 16ac 7ebe 14dd 4dbe b917 263d c948 1cbe
00000080: 1286 46be f4a1 55bd 55bf 773e d51d 003e
00000090: 6046 bfbd cfb4 2abe b753 0dbe 19b9 22be
000000a0: 5208 f83d 371d bd3d e51a 45be 9af4 febc
000000b0: 1631 813e 08fa 7a3b 0fed 4d3e 9373 e9bd
000000c0: 7344 f23c de2e 583d aff3 22be ca12 1cbd
000000d0: 1590 24be a511 10be 6d56 0cbe 0e17 3b3e
000000e0: b4aa 72bd 0521 483e afbe 843e d357 653d
000000f0: 28e5 933d dd9d 683e 4d4a 313e f55f 7b3e
00000100: 8c19 cebd 2fd5 5abe dbed 933d 5a03 4b3e
00000110: 954f 52be 8115 9abe 599a c0bc af45 3d3c
00000120: 26ad afbc 3d86 033d 2f26 db3d 3761 ac3d
00000130: c4d3 d13d 3ec1 8a3e e11a 013e a40a c53d
00000140: 2908 263d 23f8 a33d 7442 2ebe 8605 c23c
00000150: 831f efbd 727a 0abe a57b e83d 4a50 1abe
00000160: 1194 cf3c 5921 8c3e 3dc3 4cbe 37ff ad3a
00000170: 5a1d d33c f432 16bd 76ab 18be bc9a 5c3c
00000180: 1f8e c13d c469 01be 50a5 8ebd 6310 2f3d
00000190: ffb0 f13d 9191 753c 9ec0 d63c c490 173e
000001a0: 831e 063e b1e0 e83b b40b a33d cfed 0c3e
000001b0: 56d1 07be 103d ec3d cf63 4fbd f60c 383e
000001c0: 9ba4 f93c 5ea7 74bc ebae 063c c2a1 57be
000001d0: e9d4 fb3d bbb5 5fbe d1fd 5a3e 87c7 47be
000001e0: 4072 893d 7908 883d 4435 65bc 31c3 71be
000001f0: c294 8cbe e78c 6b3e 6a19 8fbe c60b 6f3e
00000200: bda6 03be e1d3 3c3e a8b3 063e c8f1 473e
00000210: 119a 283e d62e 6abd 2e79 3a3e 3ffa 443e
00000220: b764 843d 3d09 1c3d 9368 823e a3d3 4a3e
00000230: 8cad 0bbd 7c46 103e 345e 263e 5b25 b03d
00000240: bf5b d6bd 2bda 64be 3934 01be c528 77be
00000250: 43a0 7e3e ef39 36bd 42a4 04bd 8759 bf3d
00000260: 46e6 3dbe 3cff 5dbc 1831 00bc 07a5 e8bd
00000270: 40ca 32be 9c5b 54bc 4778 353e 7888 0cbd
00000280: 069e 44be 157b 46be 33c0 b13d ff1e f1bc
00000290: b9be f63c abc8 4ebe 2575 7dbd 8bd6 b83d
000002a0: 0dec 00be c829 1e3e 0f72 973d 9d6c dd3d
000002b0: 8138 66be b83e 153e 5168 51be ac6b 3bbd
000002c0: c76a 15be 2fe4 df3d 75e1 1fbe 54af babd
000002d0: 99d5 25be 0dd3 993e 5ce4 d5bd eafc 8cbe
000002e0: 5346 6cbe b755 413e a646 853c d1f6 023e
000002f0: c28f 36bd 025f 0bbd 95e9 bc3d 4623 643d
00000300: afb6 bebd 0896 4cbd 81bc a93d 396e 313e
00000310: e974 5d3e 8698 b93c 8ccb 113e 4f53 76bc
00000320: 870e 39bc 4d83 5dbe 0786 3dbe a002 293d
00000330: 4afe 57bd 32d7 053e f2d9 2ebe ab53 96bd
00000340: 8ff6 063e f259 bebd 3f58 143d e4d6 1c3e
00000350: 5004 0dbd 0d35 a63e a1ee 303e 7b3d c23d
00000360: e6ad d43d 1c86 553d f6cd b03d 5ae3 253e
00000370: 598b 803e 8665 693e 8b75 183e 1dfb 94bd
00000380: fbb0 733e 5523 d13c 588f 06be f4cb 1abe
00000390: 0975 4e3e f3d7 a3bd 4695 c4bd 31c8 033e
000003a0: 131e 8fbe 5ef4 8cbe 3b6c 9ebd 82cb e43b
000003b0: 4e61 22be 44d2 90be ea13 13be 5b8d 10be
000003c0: c430 253c de2c 03bd fdd3 90be 444c 063e
000003d0: 9531 44bd d81f 25be cf93 3fbd fdcf 2bbe
000003e0: 8182 443e 49c3 ebbd 5211 53be 92d4 c5bd
000003f0: 4f73 90be 00c5 8c3d f35e 53be 6222 c1bd
-0.038833108 -0.020076646 0.1133334 0.1380632 -0.104995474 -0.15000188 0.090028554 -0.20724668
-0.10130181 0.18685144 0.009506502 0.11836874 0.20162329 0.009008497 0.07073569 -0.15897143
0.10144167 0.040133342 0.1400544 -0.061441824 -0.13915657 0.22373348 0.026036901 0.004182678
-0.069822036 -0.15577704 -0.11315944 0.14525813 -0.24870333 -0.20103866 0.040549967 -0.1526214
-0.19387081 -0.052156404 0.24194081 0.1251138 -0.09339595 -0.16670536 -0.13801466 -0.15890922
0.12110962 0.09234088 -0.1924854 -0.031122494 0.25232762 0.0038296003 0.20109962 -0.11398997
0.029573655 0.05277907 -0.1591327 -0.038103856 -0.16070588 -0.14069231 -0.13704844 0.18270513
-0.059244826 0.19543846 0.2592673 0.05599196 0.072214425 0.2271647 0.173135 0.24548323
-0.100634664 -0.21370386 0.07223102 0.19825497 -0.2053817 -0.3009453 -0.023511099 0.011552258
-0.021444868 0.03211044 0.10700642 0.0841698 0.10245469 0.27100557 0.1260791 0.0962117
0.040535126 0.08006313 -0.17017537 0.023684274 -0.11675932 -0.13523272 0.11351708 -0.1506969
0.025339158 0.27369192 -0.19996352 0.0013274912 0.025770832 -0.036669686 -0.14909157 0.013464626
0.094509356 -0.12638003 -0.069651246 0.042740237 0.118013375 0.014988319 0.026214894 0.14801317
0.13097577 0.0071068634 0.079612166 0.13762592 -0.13263449 0.11535084 -0.050632294 0.17973694
0.030473998 -0.014932482 0.008220415 -0.210578 0.12296469 -0.21846668 0.21385886 -0.19509707
0.067112446 0.06642241 -0.01398975 -0.23609616 -0.27457243 0.23002969 -0.27949077 0.23344335
-0.12856574 0.184402 0.13154471 0.19525826 0.16465022 -0.057173572 0.18210289 0.19236086
0.06464522 0.038094748 0.2547041 0.19807296 -0.034101054 0.14089388 0.16246873 0.08600875
-0.10466718 -0.2234885 -0.12617578 -0.24136646 0.24865822 -0.044488844 -0.03238321 0.09343248
-0.18544874 -0.013549622 -0.007824205 -0.113596015 -0.17459965 -0.0129612945 0.17721663 -0.034309834
-0.19200906 -0.1938289 0.08679237 -0.029433725 0.03012024 -0.20193736 -0.061879296 0.09025296
-0.12590046 0.15445626 0.07394802 0.10811732 -0.22482492 0.14574707 -0.2044995 -0.04575698
-0.14591514 0.109321944 -0.15613349 -0.091154724 -0.16194762 0.3004383 -0.10443947 -0.27536708
-0.23073702 0.18880354 0.01626904 0.12789465 -0.044570692 -0.034026153 0.0922424 0.055697702
-0.09312188 -0.04994777 0.082879074 0.17327203 0.21626629 0.022655737 0.14237803 -0.015034511
-0.0112949675 -0.21632119 -0.18508159 0.04126227 -0.052732743 0.13070372 -0.17075327 -0.07340177
0.13179992 -0.092944995 0.03621697 0.1531635 -0.03442794 0.3246235 0.1727853 0.09484383
0.10384731 0.05212985 0.08633034 0.16200009 0.25106314 0.22792634 0.14888589 -0.072744586
0.23797981 0.025529543 -0.13140619 -0.15116864 0.20161833 -0.080001734 -0.09598784 0.12869336
-0.27952632 -0.27530187 -0.07735487 0.006982268 -0.15857431 -0.2828542 -0.14363065 -0.14116423
0.010082427 -0.03202521 -0.28286734 0.1311503 -0.047898848 -0.16125429 -0.04677182 -0.1677856
0.19190408 -0.11511857 -0.20612076 -0.09659685 -0.28212973 0.06873512 -0.20641689 -0.09430386

sequential/dense_1/MatMul f4 [64, 128]
00000000: 73a2 14ba ed97 6abd f4ed 203e d452 24bc
00000010: e322 443d fbaa ecbd 6ae2 63bc 91fa 5c3d
00000020: d77e 873d 2151 253c 14e5 8e3d 3240 503e
00000030: 715f 4c3e 2dd7 413e 13a1 a2bd 2072 d9bd
00000040: 3f61 cbbd d115 fe3d a14f 01bd 4aa8 05bc
00000050: ed29 7d3d 8c8a 8d3e bb0e 3f3e 4695 333e
00000060: e7fa d7bc a9b3 5a3e 7493 563c 90a6 963e
00000070: cb1b fe3d c5e2 333e 3ed3 17bd 879f 47bd
00000080: d86d 753e 1d19 ae3d 1db4 213e ad78 debc
00000090: 55ad 50bd 35df 2d3e 658a 223d 3051 f13b
000000a0: 4f7e 86bd 54b5 6a3e 402e 073e caa6 403e
000000b0: 6092 f63d f4ae 03be 661a ba3b 0378 e93d
000000c0: fc57 613e c487 283e 4c7b 2e3e ef13 ba3d
000000d0: 323f 953c 67d0 7b3d b0ed 193e 3dd8 f43d
000000e0: 8dd7 513e bb99 bfbd 6d67 183d 7805 6c3e
000000f0: 8f60 0e3e a534 90bd cb1f d53c 72b1 013e
00000100: 3f82 833d 4e56 e23d 781d 15be f1b2 9cbd
00000110: 33fc 88bc 8dac cc3d c819 87bd ec56 613e
00000120: aee8 a5bd bda0 483e c065 473e 39e0 953d
00000130: cef1 003d 0a0f d63d d5b6 4fbd 2fdd 00bd
00000140: c638 c3bc b0dd d8bd d9f4 223e 1901 143e
00000150: 6e9e 793e 8ebd 083e e9e9 23bd 7745 4e3e
00000160: cd70 b0bd fea5 d439 c056 523e 81b6 9bbd
00000170: c2f1 543e eac2 293e cd10 633c 41a1 5a3e
00000180: 9eb8 de3d dc97 a7bc 7317 73bd d0e3 90bd
00000190: 9e47 5cbd 1701 183e b7c7 b4bc c0d6 323e
000001a0: 855f 703e 71a3 8ebd 6edb 493e 8b45 373e
000001b0: cd6a 533e 1a2f 8a3d 7404 8e3d 7767 eb3d
000001c0: d81f 413e 215b f73d 9ab7 acbc 7fa3 2ebd
000001d0: 36bc 953d b970 90bd dc16 53bd edca 4abd
000001e0: a134 9d3c 004a 85bc a4ec 60bd c81e 1f3e
000001f0: bcc2 d63c be31 713d 1dd5 adbd 6629 db3d
00000200: b4be f0bd 42c0 06be 9c64 84bb ce31 a23d
00000210: 6c31 bdbd 3a0e 85bd c0b9 e7bc 2b49 70be
00000220: f708 373e 22f1 873d aa59 36be 0c42 f93d
00000230: dfc7 1dbe 568a 003e d9a6 d43c fdaa 4cbd
00000240: cb99 7e3c 4671 71bd eebf be3c 7626 cabc
00000250: 7d04 dbbd ad49 103e 7c67 5dbe f468 003e
00000260: e01c 28be fa20 08be 8151 a23d d115 6fbd
00000270: bd38 13be 7249 eabd c476 0bbc 5bae 07be
00000280: c558 953c 0672 76be ea7a 00be 6eec a8bd
00000290: 7536 913d 2e8f fc3d 3b94 f53d afa0 c0bd
000002a0: 9f0c fc3c c106 8c3d 9b0f 69bb 3549 b73d
000002b0: 6d37 d9bd 43c4 af3d e3f0 bc3d de89 b93d
000002c0: 9081 563d 822f d43c cf62 0f3e 44f2 b53c
000002d0: 73e1 f03d 898a 313e efe5 9cbd 5c0c 1f3d
000002e0: 7aac a73d 4da9 0b3e e34c 13be cd5a 2d3e
000002f0: 3687 843d ed4f 6f3d 066c 2abd a616 2ebe
00000300: 9f84 47bd 16ce 2ebd 648f 70bd 99ec 973d
00000310: aeaa a1bd 155e 3fbe f0c1 183e a274 743c
00000320: 86b7 8c3d 4432 bf3c cac1 42be a8be 183e
00000330: d581 e6bd 94f2 b2bc d7e1 a03d 6c32 dd3d
00000340: f2aa a23d 94e0 123e ad13 02be 9b02 a63d
00000350: e138 c0bd 8378 bebd c1e3 2abe 129b a7bd
00000360: b9b8 fb3c 2e3f 023e 1853 273e bf0a 45be
00000370: d3a4 18be a438 423e 6976 eb3c 3489 34be
00000380: e52e adbc 1f44 03be 188c bcbd 8d37 28bd
00000390: b0ed 0f3e 0fdf 993d 345e f3bd 2dc5 ccbb
000003a0: c037 253d 2c9b 02bd 3979 213e b8e5 1e3e
000003b0: 8b3c be3c 55e2 c4bd 0690 853d 91d7 02be
000003c0: dfa1 383e 5366 e83d 3e7c babd 4639 59be
000003d0: 5d9d ff3d 2820 17bc 3257 f0bd 0738 233c
000003e0: f525 99bd 21d5 a63d d937 ad3c a342 e33a
000003f0: 103b 453e e1a7 af3d 84f1 bdbd dfc3 4cbd
-0.0005669959 -0.057273794 0.15715772 -0.010029513 0.047884833 -0.115560494 -0.013908962 0.053949896
0.0661599 0.010090143 0.06977287 0.20336989 0.19958283 0.1892974 -0.07940879 -0.10617471
-0.099306576 0.12406505 -0.03157008 -0.008157799 0.06180756 0.27644765 0.18657963 0.17537412
-0.026364757 0.21357597 0.013096679 0.29423952 0.12407645 0.17566974 -0.03706669 -0.04873612
0.23967683 0.08500884 0.15791364 -0.027157152 -0.050946552 0.16979678 0.039682765 0.0073644146
-0.0656706 0.22920734 0.13201237 0.18813625 0.120396376 -0.12859708 0.0056794165 0.113998435
0.2200622 0.1645804 0.17039222 0.09085833 0.01821861 0.061478045 0.15032077 0.11955307
0.20492382 -0.09355494 0.03720801 0.23048961 0.13904022 -0.07041291 0.026016137 0.12665346
0.06421327 0.110516176 -0.14562023 -0.07651318 -0.01672182 0.09993849 -0.06596714 0.22005814
-0.08101021 0.19592567 0.19472408 0.07318158 0.031480603 0.10452087 -0.05071147 -0.031460937
-0.023830783 -0.105891585 0.15913714 0.14453544 0.24376842 0.1335356 -0.040017996 0.20143686
-0.08615265 0.00040559465 0.20540905 -0.07603169 0.20795348 0.1657826 0.013858986 0.21350576
0.10875057 -0.020458154 -0.059348535 -0.07074702 -0.053779237 0.14844166 -0.022067888 0.17464733
0.23473938 -0.06964768 0.19712612 0.17897622 0.2064621 0.06747265 0.06934443 0.11494344
0.18859804 0.12077928 -0.021083642 -0.04263639 0.07311289 -0.0705275 -0.051535472 -0.04950993
0.019190134 -0.016270638 -0.054913178 0.15539086 0.026215903 0.05888533 -0.08487914 0.107012555
-0.11755124 -0.13159278 -0.004040314 0.07919656 -0.09237942 -0.06496854 -0.028286815 -0.23465411
0.17874514 0.06637789 -0.17807642 0.121708006 -0.15408276 0.12552771 0.025958465 -0.049967755
0.015539597 -0.058945917 0.023284879 -0.024676543 -0.106942154 0.14090605 -0.21621507 0.12540036
-0.16417265 -0.1329383 0.07925702 -0.058370415 -0.14377113 -0.1143979 -0.008512203 -0.13250105
0.018230805 -0.24066934 -0.12546888 -0.082482204 0.07090465 0.12331997 0.11991163 -0.09405648
0.030767737 0.06837226 -0.003556228 0.0894951 -0.10606275 0.08582356 0.09225633 0.09059499
0.052369654 0.02590156 0.14002536 0.022210248 0.11761751 0.17338003 -0.07661044 0.038830146
0.08187194 0.13638802 -0.14384799 0.16929169 0.06471102 0.058425833 -0.041606925 -0.17000827
-0.04871046 -0.042677008 -0.058730498 0.07418174 -0.07893883 -0.18688233 0.14917731 0.014920386
0.06870942 0.023339398 -0.19019237 0.1491648 -0.11255232 -0.021844186 0.078555755 0.10800633
0.079427615 0.14343482 -0.12702818 0.08105966 -0.09385849 -0.093003295 -0.16688444 -0.08183874
0.030727731 0.12719414 0.16340292 -0.1924238 -0.14906625 0.18966919 0.028742986 -0.17630464
-0.021140525 -0.12818955 -0.09206408 -0.041068602 0.14055514 0.07513248 -0.11883202 -0.006249091
0.04033637 -0.031886265 0.15768899 0.15517318 0.023222229 -0.09613482 0.06521611 -0.12777545
0.18030499 0.11347642 -0.091057286 -0.21213254 0.124811865 -0.009223975 -0.11735381 0.009962088
-0.07477943 0.0814612 0.021144794 0.0017338585 0.19260812 0.08576942 -0.09274581 -0.049991485

sequential/dense_2/MatMul f4 [32, 64]
00000000: f7c5 cb3d 63c3 433e 4030 34be 7ace 1e3e
00000010: dd88 8bbe 2c33 3a3e 792e b2bd f550 36be
00000020: 6216 e43d 03fa 223d 4b5b 8e3d e78b aa3e
00000030: 8c53 09bd 3adb 93be 0417 e93d 6603 61bd
00000040: 42d4 1ebe 75c3 093e 3af6 0e3e f839 9a3e
00000050: 6999 513e a9b6 2abe bd18 89be 5f32 1cbe
00000060: a7f9 c1bc 7cdb 263e d080 873e 5bab 703e
00000070: 7429 07be da50 07bd c73e 0bbe fb46 653e
00000080: dafc ce3d 8db5 833e 51f9 a0bd e32b d7bd
00000090: 6fe4 683e 800a 17be f8b2 a2bb 1d5d 6c3e
000000a0: 90f7 173d 73b0 033e bef4 593c bec0 2dbd
000000b0: de62 ab3e a86f 9bbd c2d9 f33b ff57 24be
000000c0: e3d3 903e 41ea b13e 6429 103e abd7 af3c
000000d0: 208a fabd e3a6 463e 1f79 163e 0d22 823e
000000e0: 1032 56be 2a20 873e 4506 55be fd76 443e
000000f0: bc54 3e3e 954f 99bd f8df 96ba ecfe 553d
00000100: 393a e2bd e90d 16be a54c d83e 77cf 00bd
00000110: 48fe 4a3d c291 39be ca8c f43d 64d2 e13e
00000120: 336b 3e3d ab91 933c b7c3 53be b563 5dbe
00000130: 302b b6be 14b6 9d3d 166a 29be 2cf6 4f3e
00000140: 3e26 613e 2996 8c3c 2b0e 8fbe 9d8c a3be
00000150: 1a76 e2bd 8d1a 173e d77f 2b3e a20e 843e
00000160: d804 993e 7e46 a83e 9578 693d a1f5 7dbe
00000170: 0cff 703e 77b7 49be 4bad ab3e 7960 6dbe
00000180: 028a 9bbe de67 91bd 3dc2 b73e 920c d03d
00000190: affb 82be 6a65 873e 8624 423d 81cc 223e
000001a0: 0ecb 843e 6716 0bbe a82b fdbd f61c 313e
000001b0: 0dc9 9fbe 5d58 273e f05e 8f3d 66e3 633e
000001c0: ba74 1bbd 4152 62be 7c42 eebd e55e 5dbd
000001d0: cae2 c83e 48dd 93be 86d8 623e 569c eb3d
000001e0: 77ea 453e f03b b9be 138c 3e3e c0b5 11be
000001f0: 5c03 143e 9b59 ed3e e97f 08be 768c 713e
00000200: fb9c 143e 1f4c d6bd 94d0 ff3d 824e 39bd
00000210: 735a 4c3e 9402 a7bd afbe 883e c9db 873d
00000220: 1e17 8cbe c528 c53c dd17 94be a3b4 85bd
00000230: 99b9 1dbe 30ef 9d3e b73e 74be f0e4 903d
00000240: e5d8 5ebe 37fb 14be 96ef 0abd 8264 1bbe
00000250: a263 5cbe 2542 f43d 08b6 f13d 4bd3 b83d
00000260: c6cc 7c3e a7c0 a03e b0ae a2be 967d 7fbe
00000270: 3690 4b3e a8c3 2d3e 8c7a c53e 57a4 eb3d
00000280: 07e8 6cbe b707 4e3e 39d2 b23e cb59 f73d
00000290: c610 113d 52c2 6a3e 7675 193e 6723 963d
000002a0: 8eb2 e3bd 2639 173e 7e4f fa3c d912 c83d
000002b0: 0983 64be a336 3e3e 50f3 f9bc 4d1c e33e
000002c0: 38e1 bdbe 7c0c 50be 80e2 a43e d454 8fbe
000002d0: e814 ee3e 12aa c2bd f4bc a33e 47e4 543d
000002e0: b1a1 343e 11f9 a6be 44b4 1abd b96e 763d
000002f0: b413 693e 79f4 503a c91e 823c 5c18 33bd
00000300: 4245 513e 5f58 fc3d cdb3 43be b040 7cbc
00000310: eb44 49be 902a 10bb f5d7 17be 9cc0 3dbe
00000320: ba55 703e dcfc 3bbd 3922 7d3e c9a0 acbc
00000330: 08e9 e73d bfa7 24bd f6b2 b83e 6f81 0ebd
00000340: fc3e 28be cffc 733e 679e 73bd fbf4 bc3d
00000350: 942d b2bd 1d7f 113e 4587 60be 52a3 83be
00000360: f3dc edbd 1d66 613e 1dca 92bd 0a7e a33e
00000370: 5cfa 833e 5ac2 d2bd c143 11be 6084 753e
00000380: 69e7 e03d d1be 343e 9083 5f3d 4fdb a5bd
00000390: d247 de3c a4df fb3d f3c3 85bc d1a3 dc3d
000003a0: 837b 25be 92b3 cd3d 556d 9cbe 96e6 813e
000003b0: 23ab ed3d 489f bebe 3f7d 1d3e 0fd9 6fbe
000003c0: 580c 853e afb9 953d 68a3 493e c61d 6f3e
000003d0: 12c9 afbe 7c78 e03b 48e7 78be 808c d43c
000003e0: 7feb bfbe 1f0b 953e dbc3 d03d e11f 1fbe
000003f0: 7622 7a3e 3b30 e0be e238 a1b9 c88f 74be
0.09949868 0.19117503 -0.17596531 0.15508452 -0.27252856 0.18183583 -0.0870027 -0.1780432
0.11137082 0.03978921 0.069510065 0.33309862 -0.033526942 -0.28878194 0.11381343 -0.05493488
-0.15510657 0.13453467 0.13961115 0.30122352 0.20468678 -0.16671242 -0.26776686 -0.1525359
-0.023678614 0.16294664 0.26465464 0.23502867 -0.13199407 -0.03303609 -0.13598166 0.22390358
0.10106821 0.2572445 -0.07860053 -0.105064176 0.2274339 -0.14750099 -0.0049651824 0.23082395
0.03710133 0.12860279 0.01330298 -0.04242014 0.33473867 -0.07589656 0.0074417302 -0.16049193
0.28286657 0.34749034 0.1407829 0.021465143 -0.122333765 0.193996 0.14694642 0.25416604
-0.20917535 0.26391727 -0.20803173 0.19186015 0.18587011 -0.07485882 -0.001151084 0.052245066
-0.11046261 -0.14653744 0.42245975 -0.031447854 0.049558908 -0.18122008 0.11940916 0.44105828
0.046488952 0.018013796 -0.20680128 -0.21620066 -0.35579824 0.07700744 -0.16544375 0.20308751
0.21987244 0.017161446 -0.27940497 -0.31943217 -0.11057682 0.14756222 0.16747986 0.25792414
0.29886508 0.3286628 0.05699976 -0.24800731 0.23534793 -0.19698893 0.3353065 -0.23181333
-0.3037873 -0.07099889 0.3589038 0.101586476 -0.25582644 0.2644456 0.047398113 0.15898325
0.25936168 -0.13582765 -0.123618424 0.17296204 -0.31208077 0.16342302 0.0700053 0.22254714
-0.037953116 -0.2210169 -0.11633775 -0.054045577 0.39235526 -0.28879762 0.2215291 0.11504428
0.19327722 -0.3617854 0.18608122 -0.14229488 0.14454406 0.46357426 -0.13330044 0.23588738
0.14513008 -0.10463738 0.12490955 -0.045240887 0.19956379 -0.081547886 0.2670798 0.066337176
-0.27361387 0.024067292 -0.28924456 -0.06528594 -0.15402831 0.30846548 -0.23852049 0.07074916
-0.21762426 -0.14548956 -0.033919893 -0.1517506 -0.21522382 0.119266786 0.11802298 0.09024676
0.2468749 0.31396982 -0.317739 -0.24950251 0.19879231 0.16969168 0.38570058 0.11505955
-0.23135386 0.2012013 0.34926012 0.120776735 0.035416387 0.2292569 0.14986214 0.07330971
-0.11118041 0.14767894 0.030555483 0.0976922 -0.22315611 0.1857553 -0.030511528 0.4435753
-0.3708589 -0.20317262 0.32204056 -0.27994406 0.46500325 -0.095050946 0.31980097 0.051975515
0.17639805 -0.32611898 -0.03776957 0.060164187 0.22761422 0.00079709996 0.01588382 -0.043724403
0.20436576 0.12321543 -0.19111557 -0.015396282 -0.19655196 -0.0021998025 -0.14828475 -0.18530506
0.23470202 -0.045895442 0.24720086 -0.021072762 0.11323744 -0.040199038 0.36074036 -0.034791406
-0.16430277 0.23826908 -0.059477236 0.09226414 -0.087000996 0.14208646 -0.21926601 -0.2571054
-0.11614408 0.2201161 -0.07167456 0.31932098 0.25776947 -0.10290976 -0.14186002 0.23976278
0.10981638 0.17650916 0.054568827 -0.080984704 0.027133856 0.122985154 -0.016328787 0.10773433
-0.16160397 0.10044016 -0.30552164 0.25371236 0.11604907 -0.37230897 0.15379809 -0.23422645
0.2598598 0.07310807 0.19691241 0.23351201 -0.34333092 0.0068503004 -0.24306977 0.025945902
-0.37484357 0.29110047 0.101936065 -0.15539505 0.24427208 -0.43786797 -0.00030750694 -0.23882973

sequential/dense_3/MatMul f4 [3, 32]
00000000: df53 22be fbdb ec3e 7a37 7d3e 4f9c a93e
00000010: c21f 983d 8d4a 19bf b08a fabe d8f9 a0be
00000020: 4e2d 3fbe dfd9 e53e 10de ca3e 0813 e6be
00000030: ddb1 2c3d d7d4 1f3f 7a00 45be 92fd 23be
00000040: e0d9 013f 4ebd 0d3f ce73 eabd 8689 0bbf
00000050: 61f9 083e c72d 38bc 4ff1 263e f7fc b2be
00000060: fd39 773e fb88 abbe 3396 fc3d 6099 9f3c
00000070: ed28 033f f284 b2be da84 2bbe 13e6 3f3e
00000080: 2cee cdbd 6a66 c83e 5702 b93e 1e0d cebe
00000090: 8b8c 063f a2af cf3e 21f0 ed3c 80a7 a13e
000000a0: 5e0c a3be 6c45 f2bd ce57 85be b8aa 923e
000000b0: 226a 3bbe cd72 1dbf 46ed 473e 491b 73be
000000c0: 5f9e bcbe 1883 04bf 2228 d63d ed04 f4bb
000000d0: bd3d 32be f6f9 b0be 9833 d6bd 872e bd3e
000000e0: c07d b63e 7c83 d03e e5dc a63e 3565 673e
000000f0: a564 d1be 62ec 0e3e 785f 733d ef1b 7f3d
00000100: 72d3 0a3f 884b 37bf 7443 c8be d0ab 123f
00000110: eed4 92be 0246 903d 6251 80bd fe42 c13e
00000120: f160 a53e 9c4d 41bb 53c1 a93b 11de 8f3e
00000130: 5728 143f a989 a63e 2e52 b8be 0d26 023f
00000140: a44d d9be 449d 45be 9058 073f ac88 86be
00000150: 20aa 33bf a448 013f c6d9 c7bd 4e98 7d3e
00000160: 17aa b93d 40d4 bfbe 7e82 d2bd a29f 27be
00000170: 33bc 413e b94d e53e 4cda 50be 60e7 08bf
-0.15852307 0.46261582 0.24728194 0.33127066 0.07427932 -0.5987938 -0.48933935 -0.31440616
-0.18669626 0.44892785 0.39622545 -0.44936395 0.04216181 0.6243414 -0.19238463 -0.16014698
0.50723076 0.5536698 -0.11447869 -0.5450672 0.1337638 -0.011241383 0.1630299 -0.34958622
0.24143215 -0.33502945 0.12333336 0.019482315 0.5123432 -0.34867054 -0.16749898 0.1874011
-0.10055193 0.39140636 0.36134598 -0.40244383 0.525582 0.40563685 0.029045166 0.31573105
-0.31845373 -0.118296474 -0.26043552 0.28645873 -0.18302205 -0.615033 0.19524106 -0.23740877
-0.36839578 -0.51762533 0.104568735 -0.0074468763 -0.17406364 -0.34565705 -0.104590595 0.3694956
0.35642815 0.40725315 0.32590404 0.22597201 -0.40897098 0.1395736 0.059417218 0.0622825
0.5422889 -0.71599627 -0.39113963 0.57293415 -0.28678077 0.07044603 -0.062655225 0.37746423
0.32300523 -0.0029495722 0.0051805167 0.2809911 0.57874054 0.325269 -0.36000198 0.5083931
-0.42442048 -0.19298273 0.5286951 -0.26276147 -0.70181465 0.50501466 -0.09758334 0.24765131
0.09065645 -0.3746662 -0.10278796 -0.16369489 0.18919449 0.4478586 -0.20395774 -0.5347805
