app/src/main/assets/v6_seizure_prediction_model.tflite (tflite, 492476 bytes, 12 tensors)

sequential/lstm/Read_2/ReadVariableOp f4 [512]
0	0xbd028235	-0.031862456
1	0xbd2118c4	-0.03933026
2	0xbcc97007	-0.024589552
3	0x3a679f44	0.0008835683
4	0x3c86eb3d	0.016469592
5	0x3d78addf	0.06071269
6	0xbd2cc48b	-0.042179625
7	0xbc697198	-0.014248274
8	0xbab753f7	-0.0013986815
9	0x3dd3d9b3	0.10344257
10	0xbbfea52a	-0.007771154
11	0xbb0704f7	-0.0020602325
12	0x3b7db78a	0.0038714134
13	0xbc3dde07	-0.01158858
14	0x3ca66b35	0.020314792
15	0x3c6de803	0.014520648
16	0x3cfe84fe	0.031069275
17	0x3ccbf025	0.024894783
18	0x3c6041db	0.013687576
19	0xbd973980	-0.07384014
20	0xbd41e01a	-0.04733286
21	0x3c13a695	0.009011884
22	0x3cbe1d17	0.02320723
23	0x3c072bbf	0.008250176
24	0x3cf6f816	0.030147593
25	0x3b98c8ba	0.0046626003
26	0x3de3a184	0.11114791
27	0x3c362e41	0.011119426
28	0x3d8d94c2	0.06913139
29	0x3cf49e9a	0.029860783
30	0x3ce81952	0.028332386
31	0x3c030e5f	0.007999032
32	0x3ce16474	0.02751372
33	0xbc202092	-0.00977339
34	0x3ce4008e	0.027832296
35	0xbd17fa5c	-0.037103996
36	0xbcfed4d2	-0.03110734
37	0xbcad7819	-0.021175431
38	0xbce15ec1	-0.027511002
39	0xbc97a66f	-0.018511979
40	0xbd2cc6d8	-0.04218182
41	0xbb20966b	-0.0024503719
42	0x3df37613	0.11887755
43	0x3d15e73e	0.036597483
44	0xba2f5dca	-0.0006689696
45	0x3cd95554	0.026529945
46	0x3d945ba8	0.072440445
47	0xbc85097b	-0.016239872
48	0x3cbc8ea5	0.023017237
49	0x3c8f99db	0.017529419
50	0x3aac0e23	0.0013126772
51	0xbd78820c	-0.060670897
52	0x3c2fc159	0.01072725
53	0x3d168dbb	0.03675626
54	0x3b376a73	0.0027987033
55	0x3c5523c0	0.013009012
56	0xbc92103d	-0.017830009
57	0x3db48005	0.0881348
58	0xbab8190e	-0.0014045553
59	0xbc81e635	-0.015856842
60	0x3d2ec844	0.042671457
61	0x3d8a1ca6	0.067437455
62	0xbc04fb79	-0.008116596
63	0x3d25d582	0.04048682
64	0x3d36fbc8	0.04467371
65	0x3d3b440f	0.045719203
66	0x3c4bded6	0.012443265
67	0xbba839e7	-0.0051338556
68	0xbcd708e8	-0.026249364
69	0x3d290392	0.04126317
70	0x3d8aaa16	0.067707226
71	0xbc9764ae	-0.018480625
72	0x3c78afcf	0.015178635
73	0x3d46f039	0.048568938
74	0x3c657fff	0.014007567
75	0x3d8531ec	0.065036625
76	0x3d9ab3ab	0.075538
77	0x3c00da04	0.007864479
78	0x3cc8d98a	0.024517793
79	0xbd16cef7	-0.03681847
80	0x3b090148	0.0020905305
81	0xbadc0567	-0.0016786278
82	0xbc1d7938	-0.00961142
83	0x3d5a1c57	0.053249683
84	0xbb7c1f58	-0.003847083
85	0xbd38330f	-0.04497057
86	0x3c315f84	0.010825995
87	0x3cab5579	0.02091478
88	0x3a227515	0.0006197256
89	0x3cd192e0	0.02558273
90	0xbd1cd5d8	-0.038289875
91	0xbdb5691a	-0.08857937
92	0x3d0ed930	0.034875095
93	0xbc7b6efe	-0.015346287
94	0x3ccef63d	0.0252639
95	0x3ce9acda	0.028524805
96	0x3c1874e9	0.009305217
97	0x3d592d1c	0.053021535
98	0xbd28d271	-0.041216318
99	0x3ba69c03	0.005084516
100	0x3bac455e	0.0052572927
101	0xbb24beaf	-0.002513807
102	0xbc8fcecc	-0.017554663
103	0x3b2451fe	0.0025073285
104	0x3d6e10a6	0.058121346
105	0xbc864919	-0.016392278
106	0x3ac32a56	0.0014889936
107	0x3b030378	0.0019991081
108	0x3dd18f1f	0.10232376
109	0x3d88c819	0.066787906
110	0x3d90ed82	0.07076551
111	0x3c380c4f	0.011233403
112	0x3ad6fad7	0.001640166
113	0xbb41358c	-0.002948138
114	0xbd28ebac	-0.04124038
115	0xbc7f3694	-0.015576977
116	0x3c0747a1	0.008256824
117	0xbcd3aa3d	-0.025838012
118	0x3d16d957	0.036828365
119	0x3d337bd9	0.043819282
120	0x3c974354	0.018464722
121	0xbcacfff2	-0.021118138
122	0xbb837a73	-0.0040124
123	0xbcdd1851	-0.026989134
124	0xbd1a8156	-0.037721
125	0x3d604f60	0.054763198
126	0xbbba60cd	-0.005687809
127	0x3a0c9ef3	0.00053642615
128	0x3f726da0	0.94698524
129	0x3f7acd9a	0.97969973
130	0x3f6d1c3e	0.9262122
131	0x3f7989d6	0.97475946
132	0x3f7788f5	0.96693355
133	0x3f7a010b	0.9765784
134	0x3f7f2e3a	0.9967991
135	0x3f7ea801	0.99475104
136	0x3f78f0b5	0.9724229
137	0x3f717074	0.94312215
138	0x3f805afa	1.0027764
139	0x3f749c67	0.9555115
140	0x3f8176c7	1.0114373
141	0x3f72beba	0.94822276
142	0x3f7f0d63	0.996298
143	0x3f80b15d	1.0054127
144	0x3f759560	0.95931053
145	0x3f876a83	1.057938
146	0x3f81b08b	1.0132002
147	0x3f720bfa	0.94549525
148	0x3f7c435d	0.9854029
149	0x3f7df671	0.99204165
150	0x3f7af96e	0.9803685
151	0x3f7b2ee1	0.98118407
152	0x3f75479b	0.95812386
153	0x3f782d7c	0.96944404
154	0x3f46a38f	0.7759332
155	0x3f7d434e	0.98930824
156	0x3f77a067	0.9672913
157	0x3f75dda0	0.960413
158	0x3f7c72df	0.9861278
159	0x3f79be4c	0.97555995
160	0x3f7d9d8c	0.9906852
161	0x3f7877fd	0.9705809
162	0x3f74773b	0.9549443
163	0x3f74784e	0.9549607
164	0x3f69fa22	0.913973
165	0x3f741f57	0.9536032
166	0x3f763685	0.9617694
167	0x3f7ecb0e	0.99528587
168	0x3f775b5c	0.9662378
169	0x3f6d2a07	0.92642254
170	0x3f6917cf	0.91051954
171	0x3f77a9ea	0.96743643
172	0x3f81bd34	1.0135865
173	0x3f732637	0.94980186
174	0x3f6b869d	0.9200228
175	0x3f80548c	1.0025802
176	0x3f80e63b	1.0070261
177	0x3f76f348	0.9646497
178	0x3f78d541	0.972004
179	0x3f741402	0.9534303
180	0x3f7b25d4	0.98104596
181	0x3f727ae6	0.9471878
182	0x3f81ff5c	1.0156054
183	0x3f7f2687	0.99668163
184	0x3f738eee	0.9513997
185	0x3f6c3f80	0.92284393
186	0x3f7a5ffb	0.97802705
187	0x3f767d55	0.9628499
188	0x3f7feec9	0.9997373
189	0x3f74d414	0.95636106
190	0x3f7e18bd	0.992565
191	0x3f75b984	0.959862
192	0x3f7c3b31	0.9852782
193	0x3f6f58c5	0.93494827
194	0x3f78689c	0.9703462
195	0x3f7cccaa	0.9874979
196	0x3f7be231	0.98392016
197	0x3f7455f1	0.95443636
198	0x3f726264	0.9468138
199	0x3f7c7666	0.9861816
200	0x3f7c67ea	0.9859606
201	0x3f70b468	0.9402528
202	0x3f700134	0.93751836
203	0x3f71a09f	0.94385713
204	0x3f7b4587	0.98152965
205	0x3f7e1e80	0.9926529
206	0x3f703e24	0.9384482
207	0x3f69bfa0	0.9130802
208	0x3f749072	0.95532906
209	0x3f817b98	1.0115843
210	0x3f828e2f	1.0199641
211	0x3f70e109	0.94093376
212	0x3f7cfd36	0.9882387
213	0x3f79f651	0.97641474
214	0x3f8731f5	1.0562121
215	0x3f88ba13	1.0681785
216	0x3f7bd95c	0.9837854
217	0x3f6e9afa	0.93205225
218	0x3f80a091	1.0049001
219	0x3f6cd62f	0.9251432
220	0x3f75930d	0.95927507
221	0x3f7f6681	0.99765784
222	0x3f77f0a3	0.9685156
223	0x3f7938b4	0.9735215
224	0x3f7c5a34	0.9857514
225	0x3f7111b6	0.9416765
226	0x3f73e929	0.9527765
227	0x3f8198b0	1.0124722
228	0x3f7cbabd	0.9872244
229	0x3f75e443	0.96051425
230	0x3f7f3bbc	0.9970052
231	0x3f769667	0.96323246
232	0x3f5e9280	0.8694229
233	0x3f7a26ef	0.9771566
234	0x3f83333d	1.0250012
235	0x3f77a53d	0.9673651
236	0x3f7007b0	0.9376173
237	0x3f6dc3ba	0.9287678
238	0x3f766785	0.9625171
239	0x3f779b98	0.9672179
240	0x3f777d6c	0.96675754
241	0x3f69ff98	0.9140563
242	0x3f76be2a	0.9638392
243	0x3f75d9c7	0.96035427
244	0x3f7919e7	0.9730515
245	0x3f80c811	1.0061055
246	0x3f839f6d	1.0283028
247	0x3f6ef19f	0.93337435
248	0x3f72bd63	0.9482023
249	0x3f6ff27f	0.93729395
250	0x3f8697e6	1.0515106
251	0x3f7a559e	0.9778689
252	0x3f6ba2e4	0.92045426
253	0x3f84ba4f	1.0369357
254	0x3f6e15d8	0.9300208
255	0x3f805832	1.0026915

sequential/lstm_1/Read_2/ReadVariableOp f4 [256]
0	0x3e3ee8eb	0.18643539
1	0x3d5324a0	0.0515486
2	0x3dde5326	0.10855703
3	0x3d9d89eb	0.076923214
4	0x3cb6730f	0.022271661
5	0x3dd58c11	0.10427106
6	0x3d93a999	0.072100826
7	0x3c927bfe	0.01788139
8	0x3db3f32e	0.08786617
9	0x3d35f168	0.044419676
10	0x3d8c618c	0.06854543
11	0xbb8f14f0	-0.0043665096
12	0x3cb7d961	0.022442522
13	0xbc778a5d	-0.015108672
14	0x3e022a08	0.12711346
15	0x3d36efa9	0.04466215
16	0x3bcc6c28	0.006238479
17	0x3d344b59	0.04401717
18	0x3de3290a	0.11091812
19	0x3e15db2b	0.14634387
20	0x3e609eb7	0.21935545
21	0x3d0aae63	0.033857714
22	0x3ccbfa58	0.024899647
23	0xba5ad2d5	-0.00083474565
24	0x3d4e18d6	0.050316654
25	0x3d54547a	0.051838376
26	0x3e11bcca	0.14232174
27	0xbc4e25de	-0.01258227
28	0x3d880831	0.066421874
29	0x3ce2e4a7	0.02769692
30	0x3dbd684c	0.09248409
31	0xbca93536	-0.020655256
32	0xbd1d070e	-0.038336806
33	0x3da8b28c	0.0823718
34	0x3d72730a	0.05919174
35	0x3df484ce	0.11939393
36	0x3d482fc2	0.04887367
37	0x3df25dff	0.118343346
38	0x3e5176af	0.2045543
39	0x3c810e09	0.015753763
40	0x3d199c6c	0.03750269
41	0xbbc8f834	-0.0061331037
42	0x3c1c9a5b	0.009558286
43	0x39161459	0.00014312695
44	0x3e10f8b8	0.14157379
45	0x3de9d9d9	0.11418504
46	0x3d8c67cb	0.068557344
47	0x3dcfcf24	0.10146931
48	0x3d6680cf	0.056275185
49	0x3d26223b	0.04055999
50	0x3df5db8d	0.120047666
51	0xbc2f608d	-0.010704172
52	0x3c8e4cbf	0.01737058
53	0x3e015e14	0.12633544
54	0x3db71037	0.089386396
55	0x3cbda653	0.023150599
56	0x3d91751f	0.07102417
57	0x3dd03627	0.10166579
58	0x3d97aebd	0.074063756
59	0x3b8f98d2	0.0043822313
60	0x3b1cfaba	0.0023953156
61	0x3d344bac	0.04401748
62	0x3dc61ea1	0.09673811
63	0x3dc98008	0.09838873
64	0x3f970720	1.1799049
65	0x3f818754	1.0119424
66	0x3f82be06	1.021424
67	0x3f86b39e	1.0523565
68	0x3f7e1f1f	0.9926624
69	0x3f86643d	1.049934
70	0x3f7ce22e	0.9878262
71	0x3f802d77	1.0013875
72	0x3f813cb3	1.0096649
73	0x3f81063d	1.0080029
74	0x3f78b9e3	0.9715864
75	0x3f7f3522	0.9969045
76	0x3f7762f8	0.9663539
77	0x3f701d1a	0.93794405
78	0x3f93b805	1.1540533
79	0x3f8d4fd2	1.1039984
80	0x3f74be43	0.95602816
81	0x3f79bb10	0.9755106
82	0x3f87ebed	1.0618874
83	0x3f9034bd	1.1266094
84	0x3f8c1037	1.0942448
85	0x3f7f658a	0.9976431
86	0x3f80fd40	1.0077286
87	0x3f7df8c6	0.99207723
88	0x3f7dd85e	0.99158275
89	0x3f7d037a	0.9883343
90	0x3f82eebe	1.0229108
91	0x3f7a3e1c	0.9775102
92	0x3f6e6144	0.93117166
93	0x3f7de82d	0.991824
94	0x3f88c6d6	1.068568
95	0x3f68496f	0.9073705
96	0x3f706b29	0.93913513
97	0x3f8cc197	1.0996579
98	0x3f85d223	1.0454754
99	0x3f83d90b	1.0300611
100	0x3f82182d	1.0163628
101	0x3f71b3e9	0.94415146
102	0x3f88e8fa	1.0696099
103	0x3f711310	0.9416971
104	0x3f7a5ccf	0.97797865
105	0x3f78f90e	0.9725503
106	0x3f7fd408	0.9993291
107	0x3f6e6141	0.9311715
108	0x3f89b499	1.0758239
109	0x3f86b46a	1.0523808
110	0x3f81221e	1.0088537
111	0x3f801d32	1.000891
112	0x3f8810e6	1.0630157
113	0x3f802331	1.001074
114	0x3f91692d	1.1360222
115	0x3f7173a7	0.94317096
116	0x3f72fe2a	0.94919074
117	0x3f8eee31	1.116644
118	0x3f82431a	1.0176728
119	0x3f7ccc37	0.9874911
120	0x3f7af318	0.9802718
121	0x3f83c3ae	1.0294092
122	0x3f73bd67	0.9521088
123	0x3f834439	1.0255195
124	0x3f75bcfd	0.959915
125	0x3f803bd5	1.0018259
126	0x3f81ac7e	1.0130765
127	0x3f8ae9a4	1.0852551
128	0xbe2c90ab	-0.16852061
129	0xbd85108b	-0.06497296
130	0x3cf79d74	0.030226447
131	0x3cbdd139	0.023171054
132	0x3da6cdaf	0.081447
133	0x3c160f6e	0.009158952
134	0x3ba039ac	0.0048896875
135	0xbd88aecb	-0.06673964
136	0x3b9c8f06	0.004777792
137	0xbd8a294f	-0.0674616
138	0xbd6adb77	-0.057338204
139	0x3d8d1da5	0.0689042
140	0x3b6c547e	0.0036061103
141	0x3d3c0870	0.045906484
142	0x3e08f8bb	0.13376133
143	0xbd9e4057	-0.077271156
144	0xbc1c544b	-0.009541581
145	0xbb3db06f	-0.0028944274
146	0xbc29545c	-0.010335054
147	0x3dd165d5	0.10224501
148	0xbb61de3a	-0.0034464733
149	0xbc58815f	-0.013214438
150	0x3cc152bf	0.023599027
151	0x3d51275e	0.051062934
152	0xbd0fe205	-0.03512766
153	0xbd1b0fd9	-0.03785691
154	0x3c090998	0.008364104
155	0xbd99a45d	-0.07502053
156	0xbd6148c5	-0.05500104
157	0xbdb5bbd3	-0.08873715
158	0x3de172ed	0.110082485
159	0xbd25dd28	-0.040494114
160	0x3d02e56a	0.031957068
161	0xbde79bd0	-0.11309016
162	0x3c8fef63	0.017570203
163	0x3d843d58	0.06457013
164	0xbd77d90f	-0.060509738
165	0xbbf44b54	-0.007455269
166	0x3d339bf3	0.043849897
167	0xbc1ffa28	-0.009764232
168	0xbd23a46d	-0.03995173
169	0xbd640c71	-0.055675928
170	0xbd1fb5ab	-0.03899161
171	0xbc88365c	-0.016627483
172	0x3d6f5fe5	0.05844106
173	0xbd32bdd0	-0.04363805
174	0x3b90128a	0.0043967413
175	0x3d08309d	0.033249486
176	0xbdb36d4c	-0.08761081
177	0x3cbfce7c	0.02341389
178	0x3df4dd27	0.11956244
179	0x3d9870e9	0.07443411
180	0x3c1f28bf	0.0097143045
181	0x3bbe59ac	0.0058090296
182	0x3d469673	0.048483323
183	0xbccf0ccd	-0.025274659
184	0x3d352a17	0.044229593
185	0xbccdee1c	-0.025137953
186	0x3d058f52	0.032607384
187	0x3c31ad30	0.010844514
188	0xbd491d14	-0.049099997
189	0x3caa88a1	0.020817103
190	0x3d2bf25d	0.041979183
191	0x3d059638	0.032613963
192	0x3e26ea20	0.16300249
193	0x3d84bd0b	0.064813696
194	0x3dbbd7b3	0.09172001
195	0x3d33d9b8	0.043908805
196	0x3cbb1a22	0.02283961
197	0x3d8b576a	0.06803782
198	0x3d90ce67	0.07070618
199	0x3c72c3f1	0.014817224
200	0x3d58e7e4	0.052955523
201	0x3d90842c	0.0705646
202	0x3d913430	0.07090032
203	0x3b28890c	0.0025716452
204	0x3d91470f	0.070936315
205	0x3c971def	0.01844689
206	0x3de83eac	0.11340079
207	0x3d891168	0.06692773
208	0x3dda4eda	0.10659571
209	0x3d6995a9	0.057027493
210	0x3de52433	0.11188545
211	0x3dd414be	0.10355519
212	0x3e0820e8	0.13293803
213	0x3de0087d	0.10939119
214	0xbc12c98d	-0.008959186
215	0x3c706bb1	0.014674113
216	0x3c9a66fc	0.018847935
217	0x3da58318	0.08081645
218	0x3ddc4d14	0.10756889
219	0x3cd91410	0.026498824
220	0x3d527795	0.051383574
221	0x3dac5a20	0.084156275
222	0x3dada06d	0.084778644
223	0x3c3a2806	0.011362081
224	0xbd1241c8	-0.035707265
225	0x3d7cabc7	0.061687257
226	0x3d021d32	0.031766124
227	0x3e0bdebb	0.13659184
228	0x3daa1178	0.08304113
229	0x3e194b1d	0.1497006
230	0x3e6683d7	0.2251123
231	0xbce5dd01	-0.028059484
232	0x3d0861a7	0.033296254
233	0xbb25a61d	-0.0025276013
234	0x3ab3177a	0.0013663613
235	0x3b870c3c	0.0041213315
236	0x3de0ba1a	0.10972996
237	0x3d835755	0.06413142
238	0x3d39eaf8	0.0453901
239	0x3df11f6e	0.11773573
240	0x3d3a6b77	0.045512643
241	0x3d18fac4	0.037348524
242	0x3dec3bfa	0.11534877
243	0x3d521e5b	0.05129848
244	0x3d113157	0.035447445
245	0x3deae7bb	0.1146998
246	0x3db83562	0.08994557
247	0x3d337cf0	0.04382032
248	0x3d8fadda	0.070155814
249	0x3e0266f7	0.1273459
250	0x3e266a17	0.16251408
251	0xbc5ceee7	-0.013484693
252	0x3d189cac	0.03725879
253	0x3ca95e57	0.020674868
254	0x3dd061fb	0.10174938
255	0x3d9e0e31	0.077175505

sequential/dense/BiasAdd/ReadVariableOp f4 [32]
0	0x3d678047	0.05651882
1	0xbd71b284	-0.059008136
2	0xbd3107b4	-0.043220237
3	0x3ddffeac	0.10937247
4	0x3bb9b3c5	0.005667182
5	0xbd1bf990	-0.0380798
6	0x3d2e652f	0.042576965
7	0x3d8654e8	0.06559163
8	0xbcd10672	-0.025515769
9	0x3d3d2fb8	0.046188086
10	0xbc47375b	-0.012159194
11	0x3d39c05e	0.04534947
12	0x3a4ebb9b	0.0007886232
13	0xbce03e75	-0.027373532
14	0x3dbb1d12	0.09136404
15	0xbd355a3b	-0.044275504
16	0x3c7701fc	0.015076157
17	0xbc9c6892	-0.019092832
18	0x3d066d52	0.0328191
19	0x3dc2ac98	0.09505576
20	0x3c46578f	0.0121058365
21	0x3dce94d1	0.10086978
22	0xbcee06f4	-0.02905605
23	0x3dd781ff	0.10522842
24	0x3d7d59a3	0.061853062
25	0x3dbc537c	0.09195611
26	0xbcc72ca6	-0.024313282
27	0xbbb48ffd	-0.005510329
28	0x3dfc6b87	0.12325197
29	0x3e0da574	0.13832647
30	0x3d7f3de8	0.062314898
31	0xbd24c287	-0.04022458

sequential/dense_1/BiasAdd/ReadVariableOp f4 [3]
0	0xbabd07d1	-0.0014421885
1	0x3d299ecf	0.041411217
2	0xbd5402ec	-0.0517606

sequential/dense/MatMul f4 [32, 64]
0	0xbd00283e	-0.031288378
1	0xbe1c2434	-0.15248185
2	0xbdb1892d	-0.08668742
3	0xbce0a02d	-0.027420128
4	0xbd6b2342	-0.05740667
5	0x3e7db586	0.24776277
6	0xbe2227e2	-0.15835527
7	0x3c17d0c2	0.00926608
8	0xbd7da79d	-0.061927427
9	0xbd77d41b	-0.060505014
10	0xbe8a3892	-0.26996285
11	0x3dee8aac	0.11647543
12	0x3c78c891	0.0151845375
13	0xbe3ae617	-0.18251835
14	0x3e4c4228	0.19947112
15	0xbe820ab9	-0.25398806
16	0xbec28538	-0.37992263
17	0xbeabeeb4	-0.33580554
18	0xbdb291b3	-0.08719196
19	0xbca31424	-0.019907065
20	0xbeaa95d1	-0.33317426
21	0x3eb290d1	0.3487611
22	0xbd36148f	-0.0444532
23	0xbcb42be4	-0.021993585
24	0xbe91c8ea	-0.28473598
25	0xbd086ca6	-0.03330674
26	0x3ea361a8	0.31910443
27	0x3d07f50d	0.033192683
28	0x3dc05a73	0.09392252
29	0x3dd04d3a	0.1017098
30	0x3d8c7a87	0.06859308
31	0xbe4c6ccb	-0.19963376
32	0x3e037641	0.12838079
33	0xbe2b0009	-0.16699232
34	0x3ebf0e53	0.37315616
35	0x3c254150	0.0100863725
36	0x3e61f28a	0.22065178
37	0x3c14dc06	0.009085661
38	0x3e9afc7c	0.30270755
39	0xbdb09481	-0.08622075
40	0xbe44c11c	-0.1921429
41	0xbcc40ae6	-0.023930978
42	0xbda136b1	-0.0787176
43	0xbe333769	-0.17501606
44	0x3e847f31	0.2587829
45	0x3d685a37	0.05672666
46	0xbdfea21f	-0.12433266
47	0xbe5b5a0b	-0.21421067
48	0xbdea0557	-0.114268
49	0x3e063183	0.13104825
50	0x3e051ab8	0.12998474
51	0xbe1a0ac4	-0.1504317
52	0x3e3a0e38	0.18169487
53	0xbd74d12e	-0.0597698
54	0xbd70ed1d	-0.05881988
55	0x3e940fc5	0.2891828
56	0x3e0e4448	0.13893235
57	0x3e5344a6	0.20631656
58	0xbe6514d8	-0.22371233
59	0xbc3f9fd5	-0.011695822
60	0x3e2c895f	0.16849278
61	0x3e3eda63	0.18637995
62	0x3e4ee476	0.20204338
63	0xbbae523b	-0.005319861
64	0x3e26ec39	0.1630105
65	0x3e267f0a	0.16259399
66	0xbe5ad05b	-0.21368544
67	0x3ddc5b03	0.107595466
68	0xbe277d1c	-0.16356319
69	0x3e3a1ce4	0.18175083
70	0x3c85c348	0.016328469
71	0xbe2ad893	-0.16684179
72	0x3e4d5717	0.20052753
73	0xbe048291	-0.12940432
74	0x3e95362c	0.29142892
75	0x3cb7965b	0.022410562
76	0xbdaf6c43	-0.08565571
77	0xbd1cd02f	-0.038284477
78	0xbe3520ae	-0.17688248
79	0x3d15a767	0.0365366
80	0x3e4877ed	0.19576998
81	0x3e1c97f4	0.1529234
82	0xbd39f8e0	-0.04540336
83	0xbdcd2129	-0.100160904
84	0x3cc293e5	0.023752162
85	0xbe52fe83	-0.20604901
86	0xbd138be9	-0.0360221
87	0xbd80da71	-0.062916644
88	0x3e9054b3	0.2818962
89	0x3d88c46f	0.06678092
90	0xbdaa5c11	-0.083183415
91	0xbabde080	-0.0014486462
92	0x3e053f42	0.13012412
93	0x3e52ae03	0.20574193
94	0xbe89ae8f	-0.2689099
95	0x3e147870	0.14499068
96	0x3e79a5ac	0.24379605
97	0x3ea0463e	0.3130359
98	0x3dbbbd46	0.091669604
99	0xbe4fd166	-0.20294723
100	0x3dcc51e1	0.09976555
101	0xbe2d8be7	-0.169479
102	0x3d915ad6	0.07097404
103	0xbdb0b007	-0.086273246
104	0x3e7fab8f	0.24967788
105	0x3e2456c0	0.16048717
106	0xbe6c3140	-0.23065662
107	0x3e4d0c96	0.20024332
108	0xbd2beae5	-0.04197206
109	0x3da8077b	0.08204552
110	0xbe69e7f1	-0.22842385
111	0x3d41569a	0.04720173
112	0x3dcd4614	0.10023132
113	0xbcef481a	-0.029209185
114	0x3d84a3a7	0.06476527
115	0x3e2a02bf	0.1660261
116	0xbe5d2ee4	-0.21599919
117	0xbe028a04	-0.12747961
118	0xbe8258d9	-0.2545841
119	0x3c8bae69	0.017050939
120	0xbdf8a8a1	-0.121415384
121	0x3e4a9c44	0.19786173
122	0x3e131f4f	0.14367412
123	0x3d73cb51	0.05952007
124	0x3c4952bf	0.012287795
125	0x3d7616a2	0.060080178
126	0xbd8f4742	-0.06996013
127	0x3aa57441	0.0012623147
128	0x3e44906e	0.1919572
129	0x3e15f0fa	0.14642707
130	0x3dfc5ed0	0.123227715
131	0x3de7d52d	0.11319957
132	0xbd031b4a	-0.032008447
133	0x3dfe88cd	0.124284364
134	0x3e395f02	0.18102649
135	0xbdf2e19f	-0.1185944
136	0xbaf69628	-0.0018813061
137	0x3dc67956	0.09691112
138	0xbe0dd8a2	-0.1385217
139	0x3cda0ad5	0.026616493
140	0x3db4e814	0.08833328
141	0xbe668872	-0.22512987
142	0x3d4b0988	0.049569637
143	0x3e7d23b3	0.2472065
144	0xbea962bb	-0.33083138
145	0x3d5c552c	0.053792164
146	0x3d17ad9e	0.03703081
147	0x3e1489dd	0.14505716
148	0x3e29591e	0.16537902
149	0x3e6383ff	0.22218321
150	0x3d833edf	0.06408476
151	0xbd37e278	-0.04489371
152	0xbd9b4696	-0.075818226
153	0xbd5e2109	-0.054230724
154	0xbe0d5b32	-0.1380432
155	0x3df82926	0.121172234
156	0x3ec29f8d	0.38012353
157	0x3c22bca7	0.009932674
158	0xbdde5b75	-0.10857288
159	0xbd7522e0	-0.059847713
160	0xbe958c05	-0.2920839
161	0x3db1530a	0.086584166
162	0x3eac2230	0.33619833
163	0xbd1aef63	-0.037825953
164	0x3d0cd575	0.034383256
165	0x3eb69ed3	0.35668048
166	0xbe059e2b	-0.13048618
167	0xbdb7c3e4	-0.0897291
168	0xbe28681d	-0.16445966
169	0x3e8394a0	0.2569933
170	0x3d1521cb	0.03640918
171	0xbe424a23	-0.18973593
172	0x3e2072db	0.15668814
173	0x3c4bda17	0.012442133
174	0xbda7ff60	-0.08203006
175	0xbd95a3d0	-0.073066354
176	0xbe3036d8	-0.17208421
177	0x3e82853b	0.25492272
178	0xbdb2803d	-0.08715866
179	0xbe8cee89	-0.27525738
180	0x3e1276c6	0.14303121
181	0x3e4ed900	0.20199966
182	0xbd692617	-0.05692109
183	0xbdc0c942	-0.09413387
184	0xbb16c2b4	-0.0023004236
185	0x3e54f417	0.20796238
186	0xbdfa254e	-0.122141466
187	0xbbdc5b4b	-0.00672475
188	0x3cca6fc8	0.024711505
189	0x3d57cc12	0.05268485
190	0x3e101aaf	0.14072679
191	0xbe4587c3	-0.1929007
192	0xbe923ef3	-0.2856365
193	0xbe721ec2	-0.23644546
194	0x3e5bb957	0.2145742
195	0x3e8ff962	0.2811995
196	0xbe734774	-0.23757726
197	0x3e9850fd	0.2974929
198	0xbe9e8cfa	-0.30966932
199	0xbcde1b91	-0.027112754
200	0xbec6115b	-0.38685116
201	0x3da2bf92	0.079466954
202	0xbeab68b4	-0.3347832
203	0xbe0a719b	-0.135199
204	0xbe3c1372	-0.18366793
205	0xbcdd2354	-0.026994385
206	0x3dbf6e6a	0.09347232
207	0xbe4f211c	-0.20227474
208	0xbe220403	-0.15821843
209	0x3e275937	0.16342627
210	0xbe5fe15b	-0.2186331
211	0x3e054c19	0.1301731
212	0xbb117101	-0.00221926
213	0x3db19add	0.08672116
214	0x3d3bc2d0	0.045840085
215	0xbe7e0e96	-0.24810252
216	0xbe0225b8	-0.12709701
217	0xbcd00495	-0.02539281
218	0x3e774f35	0.24151309
219	0x3cc266a3	0.023730582
220	0xbeaa99d1	-0.33320478
221	0xbe6ebc18	-0.2331394
222	0xbdcd5e79	-0.10027785
223	0xbda1fbb7	-0.07909339
224	0xbe45212e	-0.19250938
225	0xbe9246a7	-0.28569528
226	0x3e43a314	0.19105178
227	0xbdd18a63	-0.10231473
228	0xbe4c43cb	-0.19947736
229	0x3e077a29	0.13230194
230	0x3ec4fcc7	0.38474104
231	0xbe1d938b	-0.15388314
232	0xbe919b30	-0.2843871
233	0xbd922425	-0.071358
234	0x3e866b39	0.2625368
235	0x3c15368f	0.009107246
236	0x3e82c2e0	0.25539303
237	0xbe9fec91	-0.31235173
238	0x3e16365f	0.14669178
239	0xbdfa16c7	-0.12211376
240	0x3e11e4e8	0.14247477
241	0x3e330348	0.1748172
242	0x3da5308f	0.080659024
243	0x3e010e54	0.12603122
244	0x3d419c76	0.047268353
245	0x3c927e18	0.017882392
246	0x3ea6cfa7	0.325803
247	0xbd643f0c	-0.05572419
248	0x3e6eb073	0.23309498
249	0xbdfeaa1a	-0.12434788
250	0x3eba8a8d	0.3643383
251	0x3e824a84	0.25447476
252	0xbbe48106	-0.0069733886
253	0x3e2af665	0.16695555
254	0xbc646b26	-0.013941562
255	0x3e92c9bf	0.28669545

sequential/dense_1/MatMul f4 [3, 32]
0	0xbf0a43ca	-0.5400969
1	0x3ebd717d	0.37000647
2	0xbed30c24	-0.412202
3	0xbf1d99a9	-0.6156259
4	0x3ed40a0d	0.41413918
5	0xbe8e9a56	-0.27852124
6	0x3ed36a1a	0.41291887
7	0xbd9b140e	-0.075721845
8	0x3dba30d4	0.090913445
9	0xbf1059e0	-0.5638714
10	0x3c8324b6	0.016008716
11	0x3efb2dd5	0.49058405
12	0x3cb1a6e1	0.02168602
13	0xbe71998c	-0.2359373
14	0xbed81c89	-0.4220927
15	0x3e94d1eb	0.29066405
16	0x3ef28c19	0.4737251
17	0xbe65b8eb	-0.22433822
18	0xbedd43b3	-0.43215713
19	0xbe8a3d5e	-0.26999944
20	0x3edc9670	0.43083525
21	0x3e54210f	0.20715736
22	0x3eac1e78	0.33616996
23	0xbecba926	-0.39777488
24	0x3e8bc5f8	0.27299476
25	0xbe813497	-0.25235435
26	0x3ec12d0b	0.37729678
27	0xbf132679	-0.5748058
28	0xbf36a7d6	-0.7134985
29	0x3edca346	0.43093318
30	0xbeda466a	-0.42631847
31	0x3e48d780	0.19613457
32	0x3d57eae9	0.052714262
33	0x3e92397f	0.2855949
34	0xbe61336c	-0.21992272
35	0x3eeb09b6	0.45905846
36	0xbea5a645	-0.32353416
37	0xbe7dc6ae	-0.24782822
38	0xbe622785	-0.22085388
39	0xbe565a50	-0.20932889
40	0xbe71cf02	-0.23614123
41	0xbe715a66	-0.2356964
42	0x3c628aa6	0.013827002
43	0x3e1bf1e4	0.15228993
44	0xbe83ff9d	-0.25780955
45	0xbf0e81b8	-0.55666685
46	0x3ed15463	0.40884694
47	0xbe54a87f	-0.20767401
48	0xbee3b56e	-0.44474357
49	0xbe66dfd1	-0.22546317
50	0x3e256b0b	0.16154115
51	0x3e872ec2	0.2640286
52	0xbea31a17	-0.31855842
53	0x3eb20e2e	0.34776443
54	0xbdb2cc02	-0.08730318
55	0x3ec76da9	0.38950852
56	0xbe1de877	-0.1542071
57	0x3ebf4a9d	0.37361613
58	0x3e2e5036	0.17022786
59	0xbe8d4eb3	-0.27599105
60	0x3ec1dd38	0.3786409
61	0x3e99ceb8	0.30040526
62	0x3de5ad4a	0.11214693
63	0x3e0cc3de	0.13746592
64	0x3e60abb9	0.21940507
65	0xbea667b0	-0.32500982
66	0x3d8b81ed	0.06811891
67	0x3d62265b	0.05521236
68	0xbc38aee1	-0.011272163
69	0x3ebb866e	0.36626
70	0xbe39fa6c	-0.18161935
71	0xbeec3f6c	-0.46142137
72	0x3ea75ad4	0.32686484
73	0x3f066c3b	0.52508897
74	0x3efabb6f	0.48971125
75	0x3dd1ee98	0.10250586
76	0x3ecbf69a	0.3983658
77	0xbea224b4	-0.31668627
78	0x3e85c0f2	0.26123768
79	0x3e6510f8	0.22369754
80	0x3e7a23be	0.24427697
81	0x3d455c1d	0.04818355
82	0x3ed95dd2	0.42454392
83	0xbede1de4	-0.4338218
84	0x3d0e53ca	0.034747876
85	0x3c20fbe0	0.009825677
86	0xbd8e04c1	-0.069345005
87	0x3e58c8ca	0.21170345
88	0xbebb87fc	-0.36627185
89	0xbedb1ba1	-0.42794517
90	0x3d6c6ba6	0.05771985
91	0x3dd02bac	0.1016458
92	0xbc24ccb4	-0.010058571
93	0xbe973236	-0.29530495
94	0xbe4e33ea	-0.20136991
95	0xbd90cd1f	-0.07070374

sequential/lstm/Read_2/ReadVariableOp1 f4 [512]
0	0xbd028235	-0.031862456
1	0xbd2118c4	-0.03933026
2	0xbcc97007	-0.024589552
3	0x3a679f44	0.0008835683
4	0x3c86eb3d	0.016469592
5	0x3d78addf	0.06071269
6	0xbd2cc48b	-0.042179625
7	0xbc697198	-0.014248274
8	0xbab753f7	-0.0013986815
9	0x3dd3d9b3	0.10344257
10	0xbbfea52a	-0.007771154
11	0xbb0704f7	-0.0020602325
12	0x3b7db78a	0.0038714134
13	0xbc3dde07	-0.01158858
14	0x3ca66b35	0.020314792
15	0x3c6de803	0.014520648
16	0x3cfe84fe	0.031069275
17	0x3ccbf025	0.024894783
18	0x3c6041db	0.013687576
19	0xbd973980	-0.07384014
20	0xbd41e01a	-0.04733286
21	0x3c13a695	0.009011884
22	0x3cbe1d17	0.02320723
23	0x3c072bbf	0.008250176
24	0x3cf6f816	0.030147593
25	0x3b98c8ba	0.0046626003
26	0x3de3a184	0.11114791
27	0x3c362e41	0.011119426
28	0x3d8d94c2	0.06913139
29	0x3cf49e9a	0.029860783
30	0x3ce81952	0.028332386
31	0x3c030e5f	0.007999032
32	0x3ce16474	0.02751372
33	0xbc202092	-0.00977339
34	0x3ce4008e	0.027832296
35	0xbd17fa5c	-0.037103996
36	0xbcfed4d2	-0.03110734
37	0xbcad7819	-0.021175431
38	0xbce15ec1	-0.027511002
39	0xbc97a66f	-0.018511979
40	0xbd2cc6d8	-0.04218182
41	0xbb20966b	-0.0024503719
42	0x3df37613	0.11887755
43	0x3d15e73e	0.036597483
44	0xba2f5dca	-0.0006689696
45	0x3cd95554	0.026529945
46	0x3d945ba8	0.072440445
47	0xbc85097b	-0.016239872
48	0x3cbc8ea5	0.023017237
49	0x3c8f99db	0.017529419
50	0x3aac0e23	0.0013126772
51	0xbd78820c	-0.060670897
52	0x3c2fc159	0.01072725
53	0x3d168dbb	0.03675626
54	0x3b376a73	0.0027987033
55	0x3c5523c0	0.013009012
56	0xbc92103d	-0.017830009
57	0x3db48005	0.0881348
58	0xbab8190e	-0.0014045553
59	0xbc81e635	-0.015856842
60	0x3d2ec844	0.042671457
61	0x3d8a1ca6	0.067437455
62	0xbc04fb79	-0.008116596
63	0x3d25d582	0.04048682
64	0x3d36fbc8	0.04467371
65	0x3d3b440f	0.045719203
66	0x3c4bded6	0.012443265
67	0xbba839e7	-0.0051338556
68	0xbcd708e8	-0.026249364
69	0x3d290392	0.04126317
70	0x3d8aaa16	0.067707226
71	0xbc9764ae	-0.018480625
72	0x3c78afcf	0.015178635
73	0x3d46f039	0.048568938
74	0x3c657fff	0.014007567
75	0x3d8531ec	0.065036625
76	0x3d9ab3ab	0.075538
77	0x3c00da04	0.007864479
78	0x3cc8d98a	0.024517793
79	0xbd16cef7	-0.03681847
80	0x3b090148	0.0020905305
81	0xbadc0567	-0.0016786278
82	0xbc1d7938	-0.00961142
83	0x3d5a1c57	0.053249683
84	0xbb7c1f58	-0.003847083
85	0xbd38330f	-0.04497057
86	0x3c315f84	0.010825995
87	0x3cab5579	0.02091478
88	0x3a227515	0.0006197256
89	0x3cd192e0	0.02558273
90	0xbd1cd5d8	-0.038289875
91	0xbdb5691a	-0.08857937
92	0x3d0ed930	0.034875095
93	0xbc7b6efe	-0.015346287
94	0x3ccef63d	0.0252639
95	0x3ce9acda	0.028524805
96	0x3c1874e9	0.009305217
97	0x3d592d1c	0.053021535
98	0xbd28d271	-0.041216318
99	0x3ba69c03	0.005084516
100	0x3bac455e	0.0052572927
101	0xbb24beaf	-0.002513807
102	0xbc8fcecc	-0.017554663
103	0x3b2451fe	0.0025073285
104	0x3d6e10a6	0.058121346
105	0xbc864919	-0.016392278
106	0x3ac32a56	0.0014889936
107	0x3b030378	0.0019991081
108	0x3dd18f1f	0.10232376
109	0x3d88c819	0.066787906
110	0x3d90ed82	0.07076551
111	0x3c380c4f	0.011233403
112	0x3ad6fad7	0.001640166
113	0xbb41358c	-0.002948138
114	0xbd28ebac	-0.04124038
115	0xbc7f3694	-0.015576977
116	0x3c0747a1	0.008256824
117	0xbcd3aa3d	-0.025838012
118	0x3d16d957	0.036828365
119	0x3d337bd9	0.043819282
120	0x3c974354	0.018464722
121	0xbcacfff2	-0.021118138
122	0xbb837a73	-0.0040124
123	0xbcdd1851	-0.026989134
124	0xbd1a8156	-0.037721
125	0x3d604f60	0.054763198
126	0xbbba60cd	-0.005687809
127	0x3a0c9ef3	0.00053642615
128	0x3f726da0	0.94698524
129	0x3f7acd9a	0.97969973
130	0x3f6d1c3e	0.9262122
131	0x3f7989d6	0.97475946
132	0x3f7788f5	0.96693355
133	0x3f7a010b	0.9765784
134	0x3f7f2e3a	0.9967991
135	0x3f7ea801	0.99475104
136	0x3f78f0b5	0.9724229
137	0x3f717074	0.94312215
138	0x3f805afa	1.0027764
139	0x3f749c67	0.9555115
140	0x3f8176c7	1.0114373
141	0x3f72beba	0.94822276
142	0x3f7f0d63	0.996298
143	0x3f80b15d	1.0054127
144	0x3f759560	0.95931053
145	0x3f876a83	1.057938
146	0x3f81b08b	1.0132002
147	0x3f720bfa	0.94549525
148	0x3f7c435d	0.9854029
149	0x3f7df671	0.99204165
150	0x3f7af96e	0.9803685
151	0x3f7b2ee1	0.98118407
152	0x3f75479b	0.95812386
153	0x3f782d7c	0.96944404
154	0x3f46a38f	0.7759332
155	0x3f7d434e	0.98930824
156	0x3f77a067	0.9672913
157	0x3f75dda0	0.960413
158	0x3f7c72df	0.9861278
159	0x3f79be4c	0.97555995
160	0x3f7d9d8c	0.9906852
161	0x3f7877fd	0.9705809
162	0x3f74773b	0.9549443
163	0x3f74784e	0.9549607
164	0x3f69fa22	0.913973
165	0x3f741f57	0.9536032
166	0x3f763685	0.9617694
167	0x3f7ecb0e	0.99528587
168	0x3f775b5c	0.9662378
169	0x3f6d2a07	0.92642254
170	0x3f6917cf	0.91051954
171	0x3f77a9ea	0.96743643
172	0x3f81bd34	1.0135865
173	0x3f732637	0.94980186
174	0x3f6b869d	0.9200228
175	0x3f80548c	1.0025802
176	0x3f80e63b	1.0070261
177	0x3f76f348	0.9646497
178	0x3f78d541	0.972004
179	0x3f741402	0.9534303
180	0x3f7b25d4	0.98104596
181	0x3f727ae6	0.9471878
182	0x3f81ff5c	1.0156054
183	0x3f7f2687	0.99668163
184	0x3f738eee	0.9513997
185	0x3f6c3f80	0.92284393
186	0x3f7a5ffb	0.97802705
187	0x3f767d55	0.9628499
188	0x3f7feec9	0.9997373
189	0x3f74d414	0.95636106
190	0x3f7e18bd	0.992565
191	0x3f75b984	0.959862
192	0x3f7c3b31	0.9852782
193	0x3f6f58c5	0.93494827
194	0x3f78689c	0.9703462
195	0x3f7cccaa	0.9874979
196	0x3f7be231	0.98392016
197	0x3f7455f1	0.95443636
198	0x3f726264	0.9468138
199	0x3f7c7666	0.9861816
200	0x3f7c67ea	0.9859606
201	0x3f70b468	0.9402528
202	0x3f700134	0.93751836
203	0x3f71a09f	0.94385713
204	0x3f7b4587	0.98152965
205	0x3f7e1e80	0.9926529
206	0x3f703e24	0.9384482
207	0x3f69bfa0	0.9130802
208	0x3f749072	0.95532906
209	0x3f817b98	1.0115843
210	0x3f828e2f	1.0199641
211	0x3f70e109	0.94093376
212	0x3f7cfd36	0.9882387
213	0x3f79f651	0.97641474
214	0x3f8731f5	1.0562121
215	0x3f88ba13	1.0681785
216	0x3f7bd95c	0.9837854
217	0x3f6e9afa	0.93205225
218	0x3f80a091	1.0049001
219	0x3f6cd62f	0.9251432
220	0x3f75930d	0.95927507
221	0x3f7f6681	0.99765784
222	0x3f77f0a3	0.9685156
223	0x3f7938b4	0.9735215
224	0x3f7c5a34	0.9857514
225	0x3f7111b6	0.9416765
226	0x3f73e929	0.9527765
227	0x3f8198b0	1.0124722
228	0x3f7cbabd	0.9872244
229	0x3f75e443	0.96051425
230	0x3f7f3bbc	0.9970052
231	0x3f769667	0.96323246
232	0x3f5e9280	0.8694229
233	0x3f7a26ef	0.9771566
234	0x3f83333d	1.0250012
235	0x3f77a53d	0.9673651
236	0x3f7007b0	0.9376173
237	0x3f6dc3ba	0.9287678
238	0x3f766785	0.9625171
239	0x3f779b98	0.9672179
240	0x3f777d6c	0.96675754
241	0x3f69ff98	0.9140563
242	0x3f76be2a	0.9638392
243	0x3f75d9c7	0.96035427
244	0x3f7919e7	0.9730515
245	0x3f80c811	1.0061055
246	0x3f839f6d	1.0283028
247	0x3f6ef19f	0.93337435
248	0x3f72bd63	0.9482023
249	0x3f6ff27f	0.93729395
250	0x3f8697e6	1.0515106
251	0x3f7a559e	0.9778689
252	0x3f6ba2e4	0.92045426
253	0x3f84ba4f	1.0369357
254	0x3f6e15d8	0.9300208
255	0x3f805832	1.0026915

while/MatMul_11 f4 [512, 128]
0	0x3c0dfa54	0.00866564
1	0x3be082f3	0.006851548
2	0xbd89b7e9	-0.06724531
3	0x3e239b21	0.15977146
4	0x3e53037e	0.20606801
5	0x3dacf446	0.08445029
6	0x3cdbab21	0.026814999
7	0x3e2ba609	0.16762556
8	0x3e3e315d	0.18573518
9	0x3e388874	0.18020803
10	0xbdd83388	-0.10556704
11	0xbd59e703	-0.053198826
12	0x3e513ac4	0.20432574
13	0xbd4cbbf0	-0.04998392
14	0x3d0f5ce2	0.03500069
15	0x3d5656b6	0.052328788
16	0xbd839201	-0.064243324
17	0x3e2227a7	0.15835439
18	0xbd5e7f0c	-0.05432038
19	0x3d0fc8d2	0.035103627
20	0x3db2fa83	0.087391876
21	0x3d242969	0.040078554
22	0xbd8574dc	-0.0651643
23	0xbe2fbf2d	-0.17162772
24	0xbdfe715d	-0.12423966
25	0xbdb5719e	-0.088595614
26	0x3cae208a	0.02125575
27	0xbd96268c	-0.07331571
28	0x3db505ad	0.08838973
29	0xbdecc32f	-0.11560666
30	0xbd856a17	-0.06514376
31	0x3daf4a8b	0.0855914
32	0x3d817b07	0.06322294
33	0xbd84ebb1	-0.06490267
34	0x3df9a144	0.12188962
35	0x3d492420	0.049106717
36	0xbda453bb	-0.08023783
37	0xbd22e1d2	-0.03976614
38	0x3bfcf2ff	0.007719397
39	0xbdce287e	-0.10066317
40	0xbd660928	-0.056161076
41	0xbd63a3bf	-0.055576082
42	0x3e983806	0.29730242
43	0x3d797b5f	0.06090867
44	0x3bc820b5	0.0061074146
45	0x3d64045d	0.055668224
46	0x3de0e0a5	0.109803475
47	0xbd1330d0	-0.035935223
48	0xbd9c996b	-0.0764645
49	0xbdbc31e1	-0.09189201
50	0x3db33719	0.087507434
51	0xbd32319f	-0.043504354
52	0x3c8e3601	0.017359735
53	0xbe4d8079	-0.2006854
54	0xbcb1bd71	-0.021696778
55	0xbd588312	-0.052859373
56	0xbe3a387f	-0.18185614
57	0xbda15d6d	-0.07879148
58	0x3d73263a	0.059362628
59	0x3cf2774e	0.029597905
60	0x3e5caf85	0.2155133
61	0x3e15340c	0.14570636
62	0xbdd6f61e	-0.10496162
63	0x3cfb262c	0.03065785
64	0x3dfb5e1a	0.12273808
65	0x3e0c7029	0.1371466
66	0xbdb579b8	-0.08861107
67	0xbd03972a	-0.032126583
68	0x3dab9e0d	0.08379755
69	0x3d742aa8	0.059610993
70	0x3e8b7ce5	0.27243724
71	0xbe0d9bec	-0.1382901
72	0x3e22fcf7	0.15916811
73	0xbbfcb82a	-0.0077123838
74	0x3c01b678	0.007917039
75	0x3e1f4709	0.15554442
76	0x3d389607	0.045064952
77	0x3c2338cb	0.009962271
78	0xbdcc33c1	-0.09970809
79	0x3e0d13c2	0.13777068
80	0xbd7d3a42	-0.061823137
81	0xbd2e001b	-0.04248057
82	0x3e199ca5	0.15001161
83	0xbdb21718	-0.08695811
84	0x3d777575	0.06041475
85	0x3d66368f	0.056204375
86	0x3e2827a8	0.16421378
87	0x3e07937e	0.13239858
88	0x3d3c85a1	0.046025876
89	0x3e328f7c	0.17437547
90	0x3c8f1d5b	0.017470052
91	0x3c061091	0.008182661
92	0x3dbc3a4f	0.09190809
93	0x3da903f5	0.08252708
94	0x3cdd0e4a	0.026984353
95	0x3d9ee15a	0.07757826
96	0x3d92386b	0.07139667
97	0xbe6af4d2	-0.22944954
98	0x3d80f202	0.06296159
99	0x3db8d1f0	0.090244174
100	0x3d3888d8	0.04505238
101	0xbd048ef4	-0.032362893
102	0xbcff41ee	-0.031159367
103	0xbbadf412	-0.0053086365
104	0xbdd6292b	-0.10457071
105	0x3d8180e3	0.06323411
106	0x3e2c4e30	0.16826701
107	0xbd109a84	-0.035303608
108	0xbde05f5d	-0.10955689
109	0x3dbba6ea	0.09162696
110	0x3e947927	0.28998682
111	0x3d899046	0.06716971
112	0x3dd3cff6	0.103424
113	0x3db3bac4	0.08775857
114	0x3c36c35f	0.011154979
115	0xbe1614b2	-0.14656332
116	0xbdc984f9	-0.09839816
117	0x3e0dc330	0.1384399
118	0x3e14a114	0.14514571
119	0xbdb8a48c	-0.0901576
120	0xbb6c300d	-0.0036039383
121	0x3d696123	0.056977402
122	0x3e226543	0.15858941
123	0xbbb27a56	-0.0054467125
124	0x3d7b0291	0.061281744
125	0x3e85c4e4	0.26126778
126	0xbde1026e	-0.109867916
127	0xbd90c614	-0.070690304
128	0xbc976f5c	-0.018485717
129	0xbd9263fd	-0.071479775
130	0x3b778fdd	0.0037774958
131	0xbbc4455c	-0.0059897136
132	0xbb2d24ab	-0.002641956
133	0xbd1839eb	-0.03716461
134	0xbcf16ab2	-0.029469822
135	0x3c545d27	0.012961662
136	0xbd0d47d6	-0.034492336
137	0x3d5b268a	0.05350355
138	0xbd82fcab	-0.06395849
139	0x3d2c984a	0.04213742
140	0xbc356a92	-0.011072772
141	0x3c5ff3d5	0.013668974
142	0xbd617781	-0.05504561
143	0xbb4ef5dd	-0.0031579651
144	0xbb5a24aa	-0.0033286014
145	0x3c407611	0.011746899
146	0x3c169c43	0.009192529
147	0xbd348b00	-0.044077873
148	0x3dc0c926	0.09413366
149	0xbd3ab9a4	-0.045587197
150	0x3bcd9a55	0.0062745013
151	0xbcc7a5d2	-0.024371061
152	0xbb6f1c1b	-0.0036485258
153	0xbd60230c	-0.054720923
154	0xba17dafb	-0.00057928235
155	0x3ca82a2e	0.020527925
156	0xbbf180de	-0.0073700985
157	0x3bd29dbc	0.006427495
158	0x3c1ab79b	0.009443189
159	0xbceb898d	-0.028752113
160	0xbcfb5e03	-0.030684477
161	0xbcc6c114	-0.024261989
162	0x3c508f59	0.012729489
163	0xbd6b2cdb	-0.057415824
164	0x3dd98e77	0.10622876
165	0x3c86bafd	0.016446585
166	0xbd0bce8c	-0.034132525
167	0x3e014e8b	0.12627618
168	0x3d302f4c	0.043013856
169	0xbcb957fb	-0.02262496
170	0xbd84f218	-0.06491488
171	0xbb832a16	-0.00400282
172	0xbd1dd4b0	-0.038532913
173	0xbcbf785a	-0.023372818
174	0x3cd677cc	0.02618017
175	0xbc0559ff	-0.0081391325
176	0x3ab8c96d	0.0014098115
177	0x3dc04996	0.093890354
178	0x3c93b583	0.018030887
179	0xbc8c77f6	-0.017147046
180	0xbd6c3432	-0.057666965
181	0x3d926ef1	0.07150067
182	0x3c9046ba	0.01761185
183	0x3d9ab413	0.07553878
184	0x3d6ae800	0.05735016
185	0x3d3f3f69	0.046691332
186	0x3d5bc1c2	0.05365158
187	0xbe0d9f52	-0.13830307
188	0xbd0912f8	-0.033465356
189	0x3d1abf5e	0.03778016
190	0x3d028576	0.03186556
191	0xb9aea683	-0.00033311927
192	0xbd3a5773	-0.045493554
193	0xbe196454	-0.14979678
194	0xbc858a3e	-0.01630127
195	0x3d7d9b35	0.061915595
196	0xbd42e71e	-0.04758369
197	0x3bd68acb	0.006547307
198	0x3cb94ab5	0.02261863
199	0xbd9c650a	-0.07636459
200	0xbc439679	-0.011937731
201	0x3dd76dce	0.105189905
202	0xbc092b6f	-0.008372172
203	0xbd48b5fc	-0.04900168
204	0xbd081803	-0.033226024
205	0xbb4fe8ad	-0.003172438
206	0x3d614799	0.05499992
207	0x3cc859f6	0.02445696
208	0xbd2dfec1	-0.04247928
209	0xbcf1f1a2	-0.029534165
210	0x3c98ee1b	0.018668225
211	0xbd7479a4	-0.059686318
212	0xbd8040d4	-0.06262365
213	0xbd08c3ec	-0.03338997
214	0x3cf638a6	0.030056309
215	0xbd3f14c6	-0.04665067
216	0x3b87f64f	0.0041492353
217	0x3b81e10e	0.003963596
218	0x3bd9f6ec	0.00665175
219	0x3c8d76da	0.017268587
220	0x3b81d789	0.0039624614
221	0x3cf1e143	0.029526358
222	0xbd849e3c	-0.06475493
223	0x3d8340cf	0.06408846
224	0xbdd07582	-0.10178663
225	0xbba5bae8	-0.0050576814
226	0x3dbc4ad3	0.09193959
227	0xbd214982	-0.039376743
228	0x3c9b3270	0.018944949
229	0xbc72db8f	-0.014822855
230	0x3bb769ff	0.0055973525
231	0xbd904a48	-0.07045418
232	0xba950daf	-0.0011371876
233	0xbd459b72	-0.048243947
234	0x3cb68819	0.022281693
235	0xbd8b0580	-0.067881584
236	0xbc09072d	-0.008363527
237	0x3bb394db	0.0054803914
238	0xbd659196	-0.056047045
239	0xbd997fdd	-0.07495091
240	0xbacd98c6	-0.0015685789
241	0x3c149c1b	0.009070422
242	0x3ca09ac2	0.019605044
243	0x3d81f637	0.0634579
244	0xbd9a8de3	-0.07546594
245	0xbd9e0d93	-0.07717433
246	0x3ce09cc1	0.027418496
247	0x3d27be76	0.040953122
248	0xbd1dc880	-0.03852129
249	0x3c81b7e8	0.015834764
250	0x3d5838e2	0.052788623
251	0xbdc79539	-0.09745259
252	0xbe05fce2	-0.13084748
253	0xbd9b41f1	-0.07580937
254	0xbcfd09e6	-0.030888509
255	0x3d3e50b2	0.046463676

while/MatMul f4 [512, 1]
0	0xbec02141	-0.3752537
1	0xbc9556fc	-0.018229954
2	0xbe51c158	-0.20483911
3	0xbe1c11c2	-0.15241149
4	0xbe980862	-0.29693896
5	0x3e8d36e6	0.27580947
6	0x3d954de1	0.07290245
7	0xbe9b956b	-0.30387434
8	0x3e7eac59	0.24870433
9	0x3e7e8eef	0.24859212
10	0xbd861706	-0.0654736
11	0x3e0c858b	0.13722818
12	0x3ec2dc69	0.38058785
13	0x39d17627	0.00039951617
14	0xbe7bdd09	-0.24596037
15	0xbdca68d0	-0.09883273
16	0x3e0ceb67	0.13761674
17	0xbec6cd5d	-0.38828555
18	0xbd7da3fd	-0.06192397
19	0x3d493316	0.049120985
20	0xbefacfeb	-0.48986754
21	0x3e297a21	0.16550495
22	0xbe82879d	-0.2549409
23	0x3c4d6ab9	0.012537652
24	0x3e4635c2	0.19356444
25	0x3e43f6df	0.19137143
26	0xbdeeba3a	-0.11656614
27	0x3e361661	0.17781974
28	0xbe23b92d	-0.15988608
29	0x3e4cf985	0.20017059
30	0x3d59febf	0.05322146
31	0x3e8f8d1a	0.2803734
32	0xbe5ad601	-0.21370699
33	0xbdb77df3	-0.0895957
34	0xbddfca32	-0.109272376
35	0x3dff21fb	0.12457653
36	0xbdc68706	-0.096937224
37	0xbdc0ed4b	-0.0942026
38	0x3e03ea64	0.12882382
39	0x3ed26378	0.41091514
40	0xbe4c3988	-0.19943821
41	0x3cbedec3	0.02329958
42	0x3d93f19d	0.072238185
43	0xbd6a306b	-0.05717508
44	0x3e3ed1fc	0.1863479
45	0x3e2877bb	0.16451924
46	0x3da3c7a5	0.079970635
47	0xbc51df65	-0.012809609
48	0xbe8c8edd	-0.27452746
49	0x3e676190	0.22595811
50	0x3c6dd9ea	0.014517287
51	0x3da078f1	0.07835568
52	0x3e573338	0.21015632
53	0x3eb62b99	0.35580137
54	0xbe664d46	-0.22490415
55	0xbe7aa919	-0.24478568
56	0x3e4477ce	0.19186327
57	0xbe5b13b4	-0.21394235
58	0xbd70a4fb	-0.058751088
59	0x3dad143f	0.08451127
60	0xbe312344	-0.17298609
61	0xbe938af2	-0.28816944
62	0x3eb56a37	0.35432598
63	0xbe202160	-0.15637732
64	0x3dc862e7	0.09784489
65	0xbd78e68a	-0.060766734
66	0xbe3ac85f	-0.18240498
67	0xbe00316e	-0.12518856
68	0x3ec2d625	0.38054004
69	0xbe521637	-0.20516287
70	0xbe19d8b1	-0.15024067
71	0xbe6b58c8	-0.22983086
72	0x3ddfb2bc	0.10922763
73	0x3e4eacbe	0.20183083
74	0x3e70018a	0.23438087
75	0x3e90f915	0.28315035
76	0xbe9d2dfe	-0.30699152
77	0x3dcf7272	0.101292506
78	0x3e4b3307	0.19843684
79	0xbe3972a2	-0.18110135
80	0x3e83ca65	0.25740352
81	0x3ecb4958	0.39704394
82	0xbecfb377	-0.40566608
83	0xbd8455fa	-0.06461711
84	0x3e833d3c	0.25632656
85	0xbe4fd1ad	-0.20294829
86	0xbef30001	-0.4746094
87	0x3ee28575	0.44242445
88	0xbe1e3ca4	-0.1545282
89	0xbe69ded5	-0.2283891
90	0x3de55c2f	0.11199223
91	0xbd7c0447	-0.061527517
92	0xbe719d1c	-0.23595089
93	0xbedd1683	-0.43181238
94	0x3dbbeef8	0.09176439
95	0xbe96ffc5	-0.29492012
96	0x3c027d71	0.007964478
97	0x3ddc9ec8	0.107724726
98	0x3e332736	0.17495427
99	0xbec18553	-0.3779703
100	0x3e309312	0.17243603
101	0xbdc3e67d	-0.095654465
102	0x3d3fed3f	0.046857115
103	0xbd1258f4	-0.035729364
104	0x3cd13f38	0.02554284
105	0x3d87ed00	0.06637001
106	0xbeaebae2	-0.34126955
107	0xbdfc9b39	-0.12334294
108	0xbe37122d	-0.17878027
109	0xbd85017c	-0.06494424
110	0x3e9960a6	0.2995655
111	0x3e18084b	0.14846914
112	0xbe4e1303	-0.2012444
113	0x3d74f3ba	0.05980275
114	0xbe052dc6	-0.13005742
115	0x3e810677	0.25200245
116	0xbd433931	-0.047661964
117	0x3eccc34a	0.39992744
118	0xbeb9163d	-0.3614978
119	0xbe265e5d	-0.16246934
120	0x3e32b0a0	0.1745019
121	0xbcdd6486	-0.027025472
122	0xbf10e30f	-0.56596464
123	0xbd84377c	-0.06455895
124	0x3e6d1f19	0.23156394
125	0x3eb53255	0.35389963
126	0x3e5796a1	0.21053554
127	0x3e91782d	0.28412
128	0xbdaeff78	-0.085448205
129	0x3d5d45cf	0.054021653
130	0x3e4ce08d	0.20007534
131	0x3e8dee15	0.27720705
132	0x3dbc21f4	0.091861635
133	0x3e0793fc	0.13240045
134	0x3d4b3baa	0.049617447
135	0x3e9a9b1a	0.30196458
136	0xbe420002	-0.18945315
137	0xbe207b97	-0.15672146
138	0x3e3d78d9	0.18503131
139	0xbe889dce	-0.26682895
140	0xbd869beb	-0.06572708
141	0x3ea4ed79	0.32212427
142	0xbc8ec04d	-0.01742568
143	0xbced1341	-0.028939845
144	0xbe038b1f	-0.12846039
145	0x3e1b763f	0.15181826
146	0xbe7cbd6e	-0.24681637
147	0xbdcb9026	-0.099396035
148	0xbe0ce96d	-0.1376092
149	0xbe5d6e8e	-0.21624205
150	0x3d56345f	0.05229604
151	0xbe9b75d0	-0.3036332
152	0xbe5ed29e	-0.21760032
153	0x3d330f05	0.043715496
154	0x3ce3b298	0.027795121
155	0x3d9a0123	0.07519748
156	0x3e5983dd	0.21241708
157	0xbd904a8b	-0.07045468
158	0xbe911fbc	-0.28344524
159	0xbb89f14e	-0.004209674
160	0x3d5d431d	0.054019082
161	0xbe902939	-0.2815645
162	0xbdd587ce	-0.10426293
163	0x3dc6ae7a	0.097012475
164	0x3e84f3bc	0.25967205
165	0xbe834d72	-0.25645024
166	0x3be90f8c	0.007112449
167	0x3e89968f	0.2687268
168	0xbce50f31	-0.027961345
169	0xbd09bc5d	-0.033626903
170	0x3eb3b9d5	0.35102716
171	0x3d46e8dd	0.04856192
172	0x3ec7caf1	0.3902202
173	0xbb7ec1aa	-0.0038872757
174	0x3e840427	0.25784418
175	0x3e275e42	0.1634455
176	0x3df27b97	0.11839979
177	0x3e199b2b	0.15000598
178	0x3e1a0bc3	0.15043549
179	0x3d16bb43	0.03679968
180	0xbe86baad	-0.26314297
181	0x3dd0a7c3	0.10188248
182	0x3c0b7468	0.00851164
183	0x3e1beae2	0.1522632
184	0x3dff5907	0.124681525
185	0x3d4d1ff8	0.050079316
186	0x3e37a7f0	0.17935157
187	0xbcdcaa91	-0.026936801
188	0x3e4c5426	0.19953975
189	0x3e5b6482	0.2142506
190	0xbe8557ac	-0.2604345
191	0x3e142745	0.14468105
192	0xbe36829f	-0.17823265
193	0xbe03e576	-0.12880501
194	0x3e94795f	0.2899885
195	0x3c065601	0.008199216
196	0x3d51aff3	0.05119319
197	0xbe6a9d91	-0.2291167
198	0x3e940518	0.28910136
199	0x3df6a3fa	0.12042995
200	0xbca9c1f6	-0.02072237
201	0xbdc43373	-0.09580126
202	0xbe1149ea	-0.14188352
203	0xbcfaa49a	-0.030596066
204	0x3d019221	0.0316335
205	0xbe3e1952	-0.18564346
206	0x3eb78a96	0.3584792
207	0x3e0461d7	0.12927948
208	0xbddb0ba0	-0.10695577
209	0x3ea029b1	0.31281808
210	0x3d8199de	0.06328176
211	0xbcd0f999	-0.025509642
212	0xbddc7594	-0.10764614
213	0xbdbb47cb	-0.09144553
214	0x3da6da3e	0.08147095
215	0xbe604edd	-0.21905084
216	0xbd109c93	-0.03530557
217	0xbd105264	-0.035234824
218	0xbcc706af	-0.02429518
219	0xbda9c3fa	-0.08289333
220	0xbda1e46d	-0.07904897
221	0xbe5a028b	-0.21290033
222	0xbe8a22f0	-0.2697978
223	0x3d31a2ab	0.043368023
224	0xbe2426e5	-0.16030462
225	0x3c81c6eb	0.015841922
226	0x3d52060f	0.05127531
227	0x3d83df01	0.06439019
228	0xbe39aa07	-0.18131267
229	0x3e38afd2	0.1803582
230	0x3e054eda	0.1301836
231	0xbe251d01	-0.16124345
232	0x3d447fa1	0.04797328
233	0x3cbe56e2	0.023234788
234	0x3e0bc334	0.13648683
235	0x3dadd166	0.08487205
236	0x3b3aeae4	0.0028521353
237	0xbd26c60d	-0.04071622
238	0xbd8aa189	-0.06769092
239	0xbd3176bd	-0.04332613
240	0xbd6fb067	-0.05851784
241	0x3e58ba1e	0.21164748
242	0xbe4ea28b	-0.20179193
243	0xbd422f10	-0.047408164
244	0xbe45a71a	-0.19302025
245	0x3b5f19c7	0.0034042464
246	0x3e2b783d	0.16745086
247	0x3e1970ca	0.14984432
248	0xbe85a658	-0.26103473
249	0x3d0f7e3d	0.0350325
250	0xbdf56c99	-0.11983604
251	0x3d229d0b	0.03970055
252	0xbd894792	-0.06703104
253	0xbdea407c	-0.11438081
254	0x3d4e49e6	0.050363444
255	0xbe90e955	-0.28303018
