app/src/main/assets/v7_seizure_prediction_model.tflite (tflite, 492564 bytes, 12 tensors)

sequential_2/lstm_5/Read_2/ReadVariableOp f4 [256]
00000000: 6943 913d 4b55 363d 9d58 163d cd53 023d
00000010: 6186 0e3d bfc5 ea3c 88e4 b03d 1001 cc3b
00000020: 9135 873d b796 34bd 69bd 6bbc ea93 793d
00000030: 33f5 113e ff02 3b3d 5d14 503d 4c69 243d
00000040: 0235 023e 9e1e b73d 9d8a 1f3a 4094 0e3d
00000050: f654 003e 0751 9d3d 7fc4 5a3c 231f fb3d
00000060: fb8b 313e 7bc5 863c d4fc 2b3d 3456 d03d
00000070: 6937 143d 22b7 4a3e 0c93 4a3d f781 8e3d
00000080: ad51 e33d 5fba 623d b2be a53d ec65 e6bc
00000090: f430 123e cc0c ef3d 48bb e83c 8972 0c3e
000000a0: 7a73 ad3d c7c5 593d 912f 0f3e e519 ee3d
000000b0: 1cb4 723d 0b13 293d 83f8 2d3e 25e6 df3d
000000c0: 99fd 0abd 07bf cf3c 7191 acbc 9304 39bd
000000d0: 808e f5bc f21c 893d 52db 4d3d ac4b f33d
000000e0: 7558 163e 372a 1fbd 6923 2f3e 5878 f1bc
000000f0: 5280 f23c 32ce 7a3b 0376 b13d 1875 713d
00000100: 3ef6 863f 3802 7c3f 5e77 793f 4586 7c3f
00000110: 820a 773f 0a7d 743f 8f57 813f e926 753f
00000120: 0837 8a3f 49c1 6e3f df88 753f 23ce 803f
00000130: fc25 9a3f e6cd 7a3f 1141 833f 8135 813f
00000140: 6476 903f b801 8c3f bc35 7e3f 4e29 863f
00000150: b426 803f 5e09 8f3f ea5d 7d3f cb58 803f
00000160: fcd2 8e3f fd42 813f e679 743f 86a4 843f
00000170: 7b0d 743f ee06 873f 2df4 7b3f 6eae 823f
00000180: 6232 853f faaf 7a3f aec9 823f e0b5 6d3f
00000190: c310 863f bd08 7a3f 2afb 783f bc80 833f
000001a0: c0c2 753f 229f 793f 4e97 833f 077e 803f
000001b0: 2384 703f 0a64 743f dd21 8d3f 3554 833f
000001c0: 756d 733f a9ed 7c3f da7a 733f a480 783f
000001d0: 6b55 773f ae21 873f 6d6e 783f d59f 8d3f
000001e0: 816c 813f 1f6d 663f 20b6 963f 4195 683f
000001f0: 9a0a 6d3f fcdf 853f 0639 793f 8435 773f
00000200: f6f9 b1bd 45cb b0bc 6885 883c 3ecc ffbb
00000210: 3a7a f8bc fc35 d4bc e454 303c 2c95 6a3c
00000220: d931 a9bd 53e6 79bc 52e8 44bc a8f8 973c
00000230: e835 1e3e abcb 4c3d dce7 43bd 1213 b0bd
00000240: 4229 09be c0b2 b2bd 6449 3abd 4f27 aabd
00000250: 2633 233d 4a24 f5bd a48a 063d 3f0b 2f3c
00000260: fe69 6f3d 5480 9c3c 700d 003c e4a0 733d
00000270: b27f 353b 0a1a 133d 6706 623c 4ab3 493d
00000280: 7d88 63bd 1bde 5ebd adfc a3bc cfc8 59bb
00000290: 9789 0abd 3827 f93c af2c 4bbd 3ba5 a3bb
000002a0: 079c 073c 8aaf 603c 8b16 713c 9a32 afbc
000002b0: a8fb 17ba fbf7 4e3d 160c 34bd 1e64 333c
000002c0: a2d1 f23c 91bb 013c e8f7 7fbd c1ae 7fbd
000002d0: 3167 3ebd cff7 e73d 57f4 25bd 54a9 b13d
000002e0: 21ba 0d3d aded 933c f5a5 ac3d 8182 2c3d
000002f0: 36cd 46bd 3485 babd ec42 e0bc 268b 05bd
00000300: 1609 993d 0128 8c3d 106f 773d 4e4a 9e3c
00000310: f3f5 803d d7ee 423d 0d5b 2e3d 0421 013c
00000320: f031 923d db86 84bc 7f86 6b3c 9eed 583d
00000330: a341 163e cf19 8e3d c2af c83c c4e0 f93d
00000340: 1c8d db3d 342a ac3d f08a 6f3c c17a 163d
00000350: 3a32 b83d 3fa1 a23d 7ca4 3e3b e4c7 e43d
00000360: 0a16 093e 7956 de3c 3649 fc3c 93fc 953d
00000370: 2484 253d aa66 2d3e ce88 473c fcca a33d
00000380: 455b b93d 9878 8a3d ed43 b43c 356a a1bb
00000390: 8752 b93d a555 d73d aef7 983d 8678 d43d
000003a0: 0083 c83d e01f a43d 8516 c83d df7c 063e
000003b0: 6c3f d73d e9b7 533d 54b3 c53d 36fa 9c3d
000003c0: ef79 ba3b e55a b33d 7efd 58bc f9af 06bd
000003d0: 2e4f bbbc 3c79 9c3d 9967 3e3d 9193 9d3d
000003e0: 9124 063e fd74 753d 39f0 313e 55c3 933c
000003f0: e28c b03d faa9 1f3b f0b6 dc3d cf28 4b3d
0.070929356 0.044514935 0.036705602 0.0318182 0.034796122 0.028658746 0.08637339 0.0062257126
0.06602014 -0.044089045 -0.014388421 0.060932077 0.14253692 0.045657154 0.05080067 0.04013948
0.12715533 0.08941387 0.00060860236 0.03480935 0.1253241 0.0768147 0.013352512 0.12261798
0.17338555 0.016451588 0.041989163 0.10172692 0.036185656 0.19796422 0.04945664 0.069583826
0.11099563 0.05535352 0.08093013 -0.028124772 0.14276487 0.11672363 0.028409615 0.13715567
0.08469291 0.05316713 0.13982989 0.11626033 0.059253797 0.041277926 0.16989331 0.109325685
-0.033933256 0.025359644 -0.021065446 -0.045170378 -0.029975176 0.06694974 0.05025799 0.11879668
0.14682181 -0.03885862 0.17103352 -0.02947633 0.029602204 0.0038269875 0.08665087 0.05894956
1.0543897 0.98440886 0.97447765 0.9864238 0.9650041 0.95503294 1.0104846 0.957625
1.0798044 0.9326368 0.95911974 1.0062908 1.2042842 0.97970426 1.0254232 1.0094453
1.128613 1.0938025 0.9930074 1.0481355 1.0011811 1.1174734 0.98971426 1.0027097
1.1158137 1.0098568 0.954985 1.0362709 0.9533307 1.054899 0.9841946 1.0209482
1.0406001 0.9792477 1.0217798 0.92855644 1.0473865 0.97669584 0.97258246 1.0273662
0.9600029 0.9750844 1.028055 1.003846 0.93951625 0.9546515 1.1025959 1.0260073
0.95088893 0.9880014 0.9510933 0.9707129 0.9661471 1.0557153 0.97043496 1.1064402
1.0111238 0.90010256 1.177433 0.90852743 0.925943 1.045898 0.97352636 0.96566033
-0.086902544 -0.021581301 0.016665176 -0.00780633 -0.03033172 -0.025904648 0.010762427 0.014317792
-0.08261461 -0.0152526675 -0.01201828 0.018551186 0.15450251 0.04999892 -0.04782854 -0.085973874
-0.13394645 -0.087255 -0.045480147 -0.08308279 0.0398437 -0.11969812 0.03284706 0.010683834
0.05845069 0.01910416 0.007815704 0.05947961 0.002769452 0.035913505 0.013795472 0.04924325
-0.055550087 -0.054411035 -0.020017946 -0.0033231264 -0.033822622 0.030414209 -0.04960316 -0.0049940622
0.008276946 0.013713727 0.014714847 -0.021386433 -0.00057976926 0.05052946 -0.04395684 0.010949163
0.029640976 0.0079182545 -0.06249228 -0.062422518 -0.04648513 0.113265626 -0.040516224 0.08674875
0.034601334 0.018057669 0.08430091 0.042116646 -0.04853555 -0.09107438 -0.02737566 -0.032603405
0.07472436 0.06843568 0.06040865 0.01932254 0.06296911 0.047591057 0.0425673 0.007881407
0.07138431 -0.016177585 0.014375328 0.052960984 0.14673476 0.06938516 0.02449787 0.12201074
0.10720274 0.08406487 0.014620528 0.03673816 0.08993955 0.079409115 0.002908974 0.111709386
0.13387313 0.027140843 0.030796628 0.07323565 0.040409222 0.16933694 0.012178613 0.079977006
0.090506114 0.06761283 0.022005046 -0.004925991 0.09048944 0.10514382 0.07469116 0.103745505
0.09790611 0.08013892 0.0976992 0.13133572 0.10510144 0.051689062 0.09653345 0.076649114
0.005690805 0.08757571 -0.013244031 -0.032882664 -0.022864904 0.07640311 0.046485517 0.07694162
0.13099886 0.05992602 0.17376794 0.018037478 0.08620621 0.0024362789 0.1077708 0.049599465

sequential_2/lstm_4/Read_2/ReadVariableOp f4 [512]
00000000: f104 153d 0f5e d8bb eef1 c23b 1f7c f7bc
00000010: 184e e63c e95a d8bc b55f 4f3d 98b6 f33b
00000020: f35d bbbb d833 163d 0a32 55bc 23fa e33d
00000030: df1c 7e3d 6f75 ed3b 47e6 dc3d 5ae7 7aba
00000040: c426 a13d 238e 1c3c 28bc 61b9 a1dd b139
00000050: baaf 0abc 51b6 bc3b 71ed fabc 9089 5c3c
00000060: cc03 083c 4197 763d 1dde 6ebd 6f3b 34bc
00000070: 404c 3b3d 6a74 41b9 c3bd 963d 24ea abbc
00000080: 75a7 173d 8ef8 b13c 0424 34bb 3118 9abb
00000090: 4eb9 21bc 2043 823c 6ef1 68bd 0171 d0bb
000000a0: 52b7 213d ab9a e9bc 34d0 6fbb bb28 ab3c
000000b0: c72f de3d c567 3ab9 05b6 2e3d 0442 2a3d
000000c0: 48ed 8ebd c1e8 66bb 3314 65bb 42ad 3abc
000000d0: adcd d33c 3d82 603e 2baf 7e3d df6d 2e3d
000000e0: a23a e3bc a6a0 84bc 4249 053b 64c0 853c
000000f0: dbe2 5b3d a9e1 8cbc 8ae8 893c 9e8e 8abc
00000100: b79f 003c 56c4 d03b 9da2 683c d85c 27bb
00000110: 36ee 17bd 59e5 1a3d 0a5a 623c 2f78 a43b
00000120: 98ba aa3c 4880 3bbd 3fa3 ab3d 3c52 8db9
00000130: 5437 853d f5fd 583d ae88 bc3a 344a 9cbb
00000140: 8c51 bbbd c908 863d d28b ebba 2c27 633c
00000150: c884 dbbc cffc a33c 85df c43c 62fd acba
00000160: 5587 a53c cb15 22bd 302b 313c 6397 b73d
00000170: db6f 333e 3a33 ed3b 1b3f 813c 3af1 a53b
00000180: 6927 e63b d0e8 8a3a 6805 d8ba bec6 a5bb
00000190: 0d95 c13d f745 863d a00a 363d 988a 00bd
000001a0: 6662 973d 4c99 4e3d b5c4 2cbd 2463 17bd
000001b0: f7e1 193d dc64 64bc cc10 58bb aad0 323c
000001c0: 72c7 1d3d a849 013a c267 273e 4340 51bc
000001d0: 0384 293c 9e66 0ebd 8c3c 023d 0a09 503c
000001e0: fae5 443d b4de aab9 d3ae b23b 1ef7 07bc
000001f0: e54f 08be ab8c d53c c6a3 5b3d c53f b23d
00000200: 8771 753f aa8a 7d3f 1471 793f bcfb 6e3f
00000210: d51a 6b3f 940d 783f 7fa4 7e3f c01e 803f
00000220: a5ba 783f dc0e 723f 0406 7e3f 8f83 6c3f
00000230: 1a16 793f 210c 7f3f 11ba 753f d0b0 7a3f
00000240: cf8a 743f a7f1 803f 991a 7c3f 6627 823f
00000250: c2a8 733f 6416 703f e336 793f 0857 823f
00000260: 97fe 773f f2a9 803f 9502 823f 809f 7b3f
00000270: 185b 6c3f 259f 7b3f a632 713f c2df 5f3f
00000280: 209b 793f f682 7c3f 6f08 7c3f ca47 7e3f
00000290: b142 7b3f 5d6d 753f 61fe 7d3f 7521 813f
000002a0: a2aa 603f cfc5 703f fc2b 7f3f 79c4 713f
000002b0: 97a6 763f b280 5e3f dbba 713f 19e2 733f
000002c0: 9d9f 763f b586 7c3f e4ff 763f db15 7b3f
000002d0: 0d99 7a3f 3c0b 633f 026f 6d3f ae17 673f
000002e0: 1c5d 7b3f 4d99 753f ddd2 7f3f a5bb 7e3f
000002f0: 40a2 653f 36ca 803f 92c8 763f 7d7a 7a3f
00000300: dc95 873f 97bd 793f a079 733f 4905 7b3f
00000310: 71f9 793f a145 7a3f 354f 7d3f 4c56 7c3f
00000320: 7d6e 7a3f 4612 793f 0d7e 743f ab34 7b3f
00000330: 0502 7a3f dcad 653f 6145 7e3f ed63 803f
00000340: 5174 6c3f 800c 773f 3c3f 833f 8284 7e3f
00000350: 9cb1 813f 6d06 783f 084b 753f 175b 683f
00000360: 39c2 5c3f cae4 773f 5d11 7e3f f9c9 663f
00000370: cc95 713f dcd6 773f 0fe5 723f db35 793f
00000380: 133c 7b3f 0a00 753f 9e78 733f 94d8 7c3f
00000390: c2a3 703f 4eee 743f 2367 6c3f 8608 7b3f
000003a0: 3f26 753f 1a68 743f d1d3 6f3f 6581 653f
000003b0: bfe0 763f fce7 813f b269 713f a436 783f
000003c0: 51c1 773f c2d6 7a3f bd16 6e3f a950 863f
000003d0: d7f6 733f eb2d 6f3f c547 723f 071e 783f
000003e0: 27f9 773f 601b 833f 1596 623f 8df3 7b3f
000003f0: ae09 593f e2e4 733f be10 783f 83ba 723f
0.036381666 -0.0066030095 0.0059492504 -0.030210553 0.02811341 -0.026410537 0.050628383 0.0074375384
-0.0057179867 0.036670536 -0.0130124185 0.11131694 0.062039252 0.007246665 0.107861094 -0.0009571217
0.07868722 0.009555372 -0.00021527766 0.00033925197 -0.008464748 0.0057590385 -0.030630799 0.013460532
0.0083016865 0.06020284 -0.058317292 -0.011000498 0.045727015 -0.00018449282 0.07360413 -0.02098567
0.037024934 0.021724965 -0.0027487287 -0.004702591 -0.00987084 0.015901148 -0.05687087 -0.0063611274
0.03948147 -0.028516134 -0.0036592605 0.020893445 0.108489566 -0.00017777 0.042654056 0.041566864
-0.069788516 -0.0035233947 -0.0034954667 -0.011393847 0.02585491 0.21924682 0.062178772 0.04258525
-0.02773792 -0.016189884 0.0020337855 0.01632709 0.053683143 -0.017197447 0.016834516 -0.016913708
0.007850579 0.0063710613 0.014198926 -0.0025537517 -0.03709241 0.03781638 0.013815412 0.00501921
0.020840928 -0.045776635 0.08380746 -0.00026954885 0.065046936 0.052976567 0.0014383995 -0.004769588
-0.09146413 0.065446444 -0.0017970747 0.01386432 -0.026796713 0.02001801 0.024032364 -0.0013198073
0.020206133 -0.039571565 0.010813519 0.089644216 0.17523138 0.0072387727 0.015777161 0.005064157
0.007023741 0.0010597948 -0.0016481103 -0.0050590923 0.09452257 0.065563135 0.044443727 -0.031382173
0.07391815 0.050439164 -0.042179782 -0.036959782 0.037569012 -0.013940062 -0.0032968996 0.010914007
0.038520284 0.0004931935 0.16348174 -0.012771669 0.010346415 -0.034765832 0.031796023 0.012697468
0.048070885 -0.00032590854 0.0054529696 -0.008298663 -0.13311727 0.026068052 0.053622983 0.08703569
0.95876354 0.9903971 0.9743817 0.93352866 0.9183782 0.9689572 0.9946975 1.0009384
0.97159797 0.94553924 0.9922793 0.9238824 0.9729935 0.9962788 0.9598704 0.97926044
0.95524305 1.0073746 0.98478085 1.0168273 0.9517938 0.93784165 0.97349375 1.018281
0.9687285 1.0051863 1.0157038 0.9829025 0.923265 0.9828971 0.9421791 0.874508
0.97502327 0.9863733 0.9845037 0.9932829 0.9814864 0.9587 0.99216276 1.0088335
0.87760365 0.9405183 0.9967649 0.9444042 0.96347946 0.86915123 0.94425744 0.9526687
0.963373 0.98643047 0.9648421 0.98080224 0.97889787 0.8868902 0.9274751 0.9027051
0.9818895 0.95937043 0.99931127 0.9950507 0.897007 1.006171 0.96399796 0.9784315
1.0592608 0.97554916 0.9510746 0.9805494 0.9764624 0.97762495 0.98948985 0.9856918
0.9782484 0.9729351 0.9550484 0.9812724 0.9765933 0.89718413 0.99324614 1.0030495
0.92364985 0.9650345 1.0253673 0.9942094 1.0132327 0.96884805 0.95817614 0.9076399
0.8623386 0.9683348 0.99245244 0.90151936 0.94369197 0.96812224 0.94880766 0.973478
0.9813854 0.95703185 0.9510592 0.9876797 0.93999875 0.95676124 0.92344874 0.9805988
0.95761484 0.95471346 0.9368258 0.89650565 0.96436685 1.0148921 0.94301903 0.96958375
0.9677935 0.97983944 0.93003446 1.0493366 0.9529852 0.9342944 0.9464076 0.9692082
0.9686455 1.0242729 0.88510257 0.98418504 0.84780395 0.9527112 0.96900547 0.94815844

sequential_2/dense_5/BiasAdd/ReadVariableOp f4 [3]
00000000: e484 9abc 9fa9 a53d d12c 6abd
-0.018862195 0.08088993 -0.057171647

sequential_2/dense_4/BiasAdd/ReadVariableOp f4 [32]
00000000: 8aff edbc 953e d83b 3620 a43d 69c8 12bc
00000010: 4b21 083d 2ac0 b43c e491 ac3c 79c8 8cbc
00000020: 4237 463d 7bba 1a3e 0fce 173c 0ea7 a13a
00000030: 7371 1a3d 4694 703c 061f 1f3e 5115 233d
00000040: 5465 2e3e 191f 173e 7673 823d ba71 683d
00000050: fa1d 043d a055 113d b915 e9bb 291e 54bc
00000060: 72e1 f53d c420 01bd c650 a43d 3703 84bd
00000070: 3f5f c43d 9728 8e3b b4b0 6ebd 9531 4b3e
-0.029052515 0.0065992572 0.08013956 -0.008958914 0.033234876 0.022064287 0.02106566 -0.017185437
0.04839254 0.15110199 0.009265437 0.0012333111 0.03770585 0.014683789 0.15539178 0.03981525
0.17030841 0.14757957 0.06369679 0.056749083 0.03225515 0.03548205 -0.0071131852 -0.012946644
0.12005891 -0.03152539 0.08023219 -0.06445926 0.09588479 0.004338335 -0.058273986 0.19843133

sequential_2/dense_4/MatMul f4 [32, 64]
00000000: 7216 b3bd 6772 03bd c814 9abe 4776 2dbd
00000010: a84a 34be 3416 65bd ba9d 903e a9c0 6ebe
00000020: 8bef 883e b1b3 163d a66d 7a3e ae08 a73e
00000030: fcb5 253e 8a11 60be be7d 8d3d fd98 c73e
00000040: 9a1b b63d fc57 4d3e 002d 39be c389 dc3d
00000050: 4b54 943e 37af 16be a51d 5f3e e2c9 26bc
00000060: f8ef 2abe 6590 9fbe 4573 6fbe 9dc3 4b3e
00000070: 024f 923e 33b2 993e a0e0 b53e b5f5 88be
00000080: 1469 9f3e 4f6b 6ebd 52c1 86be d921 0d3e
00000090: 64e3 413d 27f0 acbd 6f1d c83d b5b6 403e
000000a0: a030 80be d080 84bd cd8d e83b 2167 623e
000000b0: c3d3 3e3e 9a6b 79be e2d7 e0bc a4d7 19bd
000000c0: 6c8a 0c3e f8df 843e a0fc 0bbd 05a3 50be
000000d0: 5deb aebd 5d01 50be 16b9 f2bd db7d 753e
000000e0: 37b3 2dbe eeca 5ebe 2953 49be c849 d4bd
000000f0: 7509 db3e ee2d 61bd 48a7 8e3e ca9c e6bd
00000100: 9aaf ba3c d6cf 773e c11a 5bbe 852d 3d3e
00000110: c68f d83d 53ae 17be db58 963e 601e f73d
00000120: e1a4 45be ce08 753e 5150 543d ddb5 66bd
00000130: 1293 903e 0358 2a3e b29f 563d b4fc 30bd
00000140: a735 113e 3f50 8f3d d47b 083e cc80 fdbc
00000150: 900d 133e 5941 793d e7e6 5f3e b613 71bd
00000160: 6418 8f3e e905 323e 38c7 2abe d4db a13e
00000170: 338b d6bb 5d76 213e 9ffd 043e 70b2 b23d
00000180: 11e2 bb3d 18ec 1e3d bb06 823d dc8d ae3d
00000190: 8d9c 5abe a09e a63d 1770 6f3e fb10 573e
000001a0: f31a d3bd 6b8d b5bd 9d80 093e 3fa0 003e
000001b0: 1506 3e3e ce3d e83d df30 83bd 94df 013e
000001c0: 63a0 003e d6ce 9e3d aefb 9abd 0bbe efbd
000001d0: 29a2 79bc af55 13be fd61 e9bd 90f5 bf3c
000001e0: f300 303e 16bf ffbd ab7e b9bc babc 2c3e
000001f0: 033f 893e e82a c03d 00cc 353d dd76 43be
00000200: 8b4b a6bc 5164 5abe 5bc2 923b 9ddb 343d
00000210: bdf8 693e 118e cb3d bb1c ad3c f481 773e
00000220: 5225 1ebe 783d 5b3e 4c25 3e3e 8640 c0bd
00000230: adaa fd3d 4e10 853e e2be 55be 665b e9bb
00000240: 8d50 93be c653 d1bd 1030 02be 4858 be3d
00000250: 8bbf fcbc 9d26 923d 4bf3 32bd ae38 8e3e
00000260: 6a84 37be a609 0a3e 99d0 35be aa7c 08be
00000270: 2b68 44be b8fc 4b3d c3d6 20be 7b2a 733e
00000280: b428 1abe 4bdf bebe eb00 483d 260e 21bd
00000290: 6cdf d23d 9263 cc3a 99e4 afbe 546d b0be
000002a0: bfc6 113d f0ad 813e fe94 0abe cb6f ff3d
000002b0: 0a31 fcbd c085 a5bd 149d 50be e5bd 80bd
000002c0: 2244 58be 1048 96be ed32 b73d f676 e33b
000002d0: 86cc 523e e7c4 123e 5697 8dbe 4f27 493d
000002e0: 01d7 43be bbdd 683e 3550 fe3d 82df 16bd
000002f0: 4d9d c13d 35d6 113c c0b8 afbe 798d 1cbd
00000300: 02a4 bf3e 8ded 393e 8cf0 81be eb5e 283e
00000310: 9fd1 113e 7064 803e 1645 983c f1e4 84be
00000320: 5d58 66bc e700 7e3e b3cd 3d3d 03aa c8bc
00000330: f965 d8bd 7a09 d2bd c867 883e 0aa7 d53e
00000340: 3095 febd 07f2 76bd 6bc2 20be 89a5 6bbe
00000350: e7e1 613d 41a8 24be 2b1f ad3e cf5d 4ebe
00000360: 72d6 b13d fc67 1b3e b39f 41be 76ce 0b3d
00000370: a4c0 38bc 44d2 babd 6c9e de3d b3cd 1f3e
00000380: 8f8b 6ebe 1fce 833e dc58 8ebe 7f5e 553e
00000390: 3b81 863d 75ed 183d 2282 9e3c 504c 2d3d
000003a0: 6478 20be 4e2f c13e 06e1 51be 221a 85be
000003b0: 6025 9e3e 01fe 8bbe 983b 323e 582e 493e
000003c0: 1327 2c3e 3e87 8ebd 79fb c4bc 6619 50bd
000003d0: edd8 17be d9be 733e 8a18 9c3d b2de 4b3e
000003e0: 030b 4abe 6f8e 12be b4fa 96be ebfb 56be
000003f0: ef9c 863e 82b4 593e f1f7 58bd e432 63bc
-0.087445155 -0.032091524 -0.3009398 -0.042349126 -0.17606604 -0.055929378 0.28245336 -0.23315682
0.26745257 0.03679246 0.2445589 0.3262381 0.16182703 -0.2188169 0.06908749 0.38983908
0.08891983 0.20053095 -0.18083572 0.107684635 0.2897056 -0.14715277 0.21788652 -0.010179969
-0.16693103 -0.31164852 -0.23383816 0.1989884 0.28575903 0.30018768 0.35522938 -0.2674996
0.31134856 -0.058207806 -0.26319367 0.13782443 0.047335997 -0.08444243 0.09771239 0.18819697
-0.25037098 -0.064698815 0.007096982 0.22109653 0.18635468 -0.24357453 -0.027446691 -0.037559167
0.13724679 0.25952125 -0.03417647 -0.20374687 -0.08540986 -0.2031302 -0.118517086 0.23973791
-0.16962896 -0.21757099 -0.1966063 -0.10365635 0.42780653 -0.054975443 0.27862 -0.11260374
0.022788811 0.24200377 -0.21396925 0.18474396 0.105742976 -0.14812593 0.29364666 0.120663404
-0.19301178 0.2392914 0.05183441 -0.056325782 0.28237206 0.16635136 0.05239839 -0.043209746
0.14180623 0.069977276 0.13328487 -0.030945204 0.14360642 0.060853336 0.21865426 -0.05885669
0.27948296 0.17385067 -0.16677558 0.31613028 -0.0065473556 0.15767808 0.12987374 0.087254405
0.09173978 0.038799375 0.0634894 0.08523151 -0.21348782 0.08135724 0.23382603 0.21002571
-0.103078745 -0.08864864 0.13427968 0.12561129 0.18557008 0.11339913 -0.06405806 0.12682945
0.12561183 0.077542946 -0.07567535 -0.1170617 -0.015236416 -0.14388154 -0.11395643 0.023432523
0.17187862 -0.124876186 -0.022643408 0.16868868 0.26805887 0.09383184 0.044384003 -0.19088311
-0.020299694 -0.2132733 0.0044787354 0.044154752 0.22848792 0.099392064 0.021131864 0.24170667
-0.15443924 0.21410167 0.18568915 -0.09387307 0.123860694 0.25989002 -0.20873597 -0.0071214912
-0.28772393 -0.10221057 -0.12713647 0.09294182 -0.030853054 0.07136271 -0.043689054 0.27777618
-0.17921606 0.13480243 -0.17755355 -0.13328806 -0.19180362 0.04980156 -0.15706925 0.23746674
-0.1505459 -0.37279734 0.048829 -0.039320134 0.102965206 0.0015593639 -0.34354094 -0.3445841
0.03558993 0.25328016 -0.13533399 0.12472495 -0.12314041 -0.080821514 -0.2037242 -0.062862195
-0.2111974 -0.29351854 0.0894526 0.0069416715 0.20585832 0.14332925 -0.27654523 0.049109753
-0.19124986 0.22740833 0.12417642 -0.036834247 0.09453831 0.008901169 -0.3432064 -0.038220856
0.37429816 0.18157025 -0.25378835 0.16442458 0.1424012 0.25076628 0.01858763 -0.25955918
-0.014059153 0.24805032 0.04633875 -0.02449513 -0.10566325 -0.10255714 0.2664168 0.41729003
-0.12430799 -0.06028941 -0.15699165 -0.23012365 0.055147078 -0.16079809 0.33812842 -0.20152973
0.0868348 0.15176386 -0.18908577 0.034132443 -0.011276398 -0.09122136 0.1087006 0.15605812
-0.23295425 0.25743195 -0.2780217 0.20836829 0.065676175 0.03733583 0.019349162 0.042309105
-0.15670925 0.37731403 -0.20495996 -0.259965 0.3088789 -0.27342227 0.17405546 0.19646585
0.1681178 -0.06959389 -0.024045693 -0.05080547 -0.14828844 0.23803271 0.07621868 0.1990917
-0.19730763 -0.14312147 -0.29488146 -0.20994537 0.26291606 0.21260265 -0.05297083 -0.013867114

sequential_2/dense_5/MatMul f4 [3, 32]
00000000: 43cf 2fbe 2bb8 4a3d 9702 3d3e 081a 76be
00000010: 9795 28bf a4a0 f93e 202c d33d 9500 9e3e
00000020: b388 643e f39e d23e 7e66 ac3e c1c4 f7bc
00000030: 6717 ec3e 34b8 1bbf 77c2 d93d abfd 243e
00000040: 7049 ddbe 7553 8abe f33b 78bd 0ec8 dd3e
00000050: ce73 e93e dc44 2b3e fac1 6fbd 9d7d b33e
00000060: 9287 01bf 7c2e 91bd 9c65 b23e 75a1 c6be
00000070: d6d2 463e 5c0d 933e 878f 1bbe bea0 94be
00000080: 8acd bebe 1b1d 483e 95d3 87bd 02b5 fabe
00000090: 2477 a8bc 6658 36be 8c38 febe f34d 8bbe
000000a0: 9510 35be 1e37 db3e 9d62 19bd 0b9e 00be
000000b0: 55b5 fabc 79ec 04bd c241 853e c480 e13d
000000c0: 53a8 ad3e 5b8a 013e b866 d93e 3d1a 2bbd
000000d0: 36b7 cbbe 2b18 a7be 9d6c a4be 920e aa3e
000000e0: 8a7e b23e 6b8f dc3e 866e a63e d4e6 74be
000000f0: 6829 863d 36dc dfbe be7c d3be 2263 c93e
00000100: 0afa a33e 4f67 803e b903 0bbf d16c fb3d
00000110: 812a 80be 9035 a03d a470 f2be 56f6 bc3e
00000120: 8382 8fbe 752d 90bd 5dd0 e23c aa9f b1be
00000130: fa7f babd 3f16 cd3e 4f15 03be a0b5 9abe
00000140: 9082 693c 9c41 003d ad39 493e 9023 2ebe
00000150: c844 213d 7d1b b2bd 5755 b23e 6bb6 87be
00000160: 3ddf a03e 0567 aabe d3f8 febd 1ea7 d13e
00000170: b0eb 02bf 0e54 c13c 08d5 f73d eea4 cb3e
-0.17168908 0.049492043 0.18458019 -0.24033368 -0.65853256 0.48755372 0.103111506 0.3085982
0.22317772 0.41136894 0.33671945 -0.030245187 0.46111605 -0.60827947 0.10632794 0.16112392
-0.4322009 -0.27016798 -0.060604047 0.43316692 0.45596164 0.16725487 -0.0585346 0.35056773
-0.5059749 -0.07088944 0.34843147 -0.38795057 0.19416365 0.2872113 -0.1519147 -0.29028887
-0.3726619 0.19542353 -0.06632153 -0.48966223 -0.020564623 -0.17807159 -0.49652517 -0.27207908
-0.17682107 0.4281549 -0.03744756 -0.12560289 -0.030604044 -0.03245208 0.26026732 0.11010888
0.33917484 0.12650435 0.4246118 -0.04177307 -0.39788216 -0.32635626 -0.32114115 0.3321424
0.34862167 0.4307817 0.32506198 -0.23916179 0.06550866 -0.43722695 -0.41306108 0.39333445
0.32026702 0.25078818 -0.54302555 0.122766145 -0.25032428 0.07822716 -0.47351563 0.3690669
-0.2802926 -0.0703992 0.027687246 -0.34692127 -0.09106441 0.40056035 -0.12801097 -0.30216694
0.01425232 0.03131257 0.19650908 -0.17005754 0.039372236 -0.08696649 0.34830734 -0.2650636
0.31420317 -0.33281723 -0.12449803 0.40947813 -0.5114088 0.02359965 0.12101179 0.3977427

sequential_2/lstm_4/Read_2/ReadVariableOp1 f4 [512]
00000000: f104 153d 0f5e d8bb eef1 c23b 1f7c f7bc
00000010: 184e e63c e95a d8bc b55f 4f3d 98b6 f33b
00000020: f35d bbbb d833 163d 0a32 55bc 23fa e33d
00000030: df1c 7e3d 6f75 ed3b 47e6 dc3d 5ae7 7aba
00000040: c426 a13d 238e 1c3c 28bc 61b9 a1dd b139
00000050: baaf 0abc 51b6 bc3b 71ed fabc 9089 5c3c
00000060: cc03 083c 4197 763d 1dde 6ebd 6f3b 34bc
00000070: 404c 3b3d 6a74 41b9 c3bd 963d 24ea abbc
00000080: 75a7 173d 8ef8 b13c 0424 34bb 3118 9abb
00000090: 4eb9 21bc 2043 823c 6ef1 68bd 0171 d0bb
000000a0: 52b7 213d ab9a e9bc 34d0 6fbb bb28 ab3c
000000b0: c72f de3d c567 3ab9 05b6 2e3d 0442 2a3d
000000c0: 48ed 8ebd c1e8 66bb 3314 65bb 42ad 3abc
000000d0: adcd d33c 3d82 603e 2baf 7e3d df6d 2e3d
000000e0: a23a e3bc a6a0 84bc 4249 053b 64c0 853c
000000f0: dbe2 5b3d a9e1 8cbc 8ae8 893c 9e8e 8abc
00000100: b79f 003c 56c4 d03b 9da2 683c d85c 27bb
00000110: 36ee 17bd 59e5 1a3d 0a5a 623c 2f78 a43b
00000120: 98ba aa3c 4880 3bbd 3fa3 ab3d 3c52 8db9
00000130: 5437 853d f5fd 583d ae88 bc3a 344a 9cbb
00000140: 8c51 bbbd c908 863d d28b ebba 2c27 633c
00000150: c884 dbbc cffc a33c 85df c43c 62fd acba
00000160: 5587 a53c cb15 22bd 302b 313c 6397 b73d
00000170: db6f 333e 3a33 ed3b 1b3f 813c 3af1 a53b
00000180: 6927 e63b d0e8 8a3a 6805 d8ba bec6 a5bb
00000190: 0d95 c13d f745 863d a00a 363d 988a 00bd
000001a0: 6662 973d 4c99 4e3d b5c4 2cbd 2463 17bd
000001b0: f7e1 193d dc64 64bc cc10 58bb aad0 323c
000001c0: 72c7 1d3d a849 013a c267 273e 4340 51bc
000001d0: 0384 293c 9e66 0ebd 8c3c 023d 0a09 503c
000001e0: fae5 443d b4de aab9 d3ae b23b 1ef7 07bc
000001f0: e54f 08be ab8c d53c c6a3 5b3d c53f b23d
00000200: 8771 753f aa8a 7d3f 1471 793f bcfb 6e3f
00000210: d51a 6b3f 940d 783f 7fa4 7e3f c01e 803f
00000220: a5ba 783f dc0e 723f 0406 7e3f 8f83 6c3f
00000230: 1a16 793f 210c 7f3f 11ba 753f d0b0 7a3f
00000240: cf8a 743f a7f1 803f 991a 7c3f 6627 823f
00000250: c2a8 733f 6416 703f e336 793f 0857 823f
00000260: 97fe 773f f2a9 803f 9502 823f 809f 7b3f
00000270: 185b 6c3f 259f 7b3f a632 713f c2df 5f3f
00000280: 209b 793f f682 7c3f 6f08 7c3f ca47 7e3f
00000290: b142 7b3f 5d6d 753f 61fe 7d3f 7521 813f
000002a0: a2aa 603f cfc5 703f fc2b 7f3f 79c4 713f
000002b0: 97a6 763f b280 5e3f dbba 713f 19e2 733f
000002c0: 9d9f 763f b586 7c3f e4ff 763f db15 7b3f
000002d0: 0d99 7a3f 3c0b 633f 026f 6d3f ae17 673f
000002e0: 1c5d 7b3f 4d99 753f ddd2 7f3f a5bb 7e3f
000002f0: 40a2 653f 36ca 803f 92c8 763f 7d7a 7a3f
00000300: dc95 873f 97bd 793f a079 733f 4905 7b3f
00000310: 71f9 793f a145 7a3f 354f 7d3f 4c56 7c3f
00000320: 7d6e 7a3f 4612 793f 0d7e 743f ab34 7b3f
00000330: 0502 7a3f dcad 653f 6145 7e3f ed63 803f
00000340: 5174 6c3f 800c 773f 3c3f 833f 8284 7e3f
00000350: 9cb1 813f 6d06 783f 084b 753f 175b 683f
00000360: 39c2 5c3f cae4 773f 5d11 7e3f f9c9 663f
00000370: cc95 713f dcd6 773f 0fe5 723f db35 793f
00000380: 133c 7b3f 0a00 753f 9e78 733f 94d8 7c3f
00000390: c2a3 703f 4eee 743f 2367 6c3f 8608 7b3f
000003a0: 3f26 753f 1a68 743f d1d3 6f3f 6581 653f
000003b0: bfe0 763f fce7 813f b269 713f a436 783f
000003c0: 51c1 773f c2d6 7a3f bd16 6e3f a950 863f
000003d0: d7f6 733f eb2d 6f3f c547 723f 071e 783f
000003e0: 27f9 773f 601b 833f 1596 623f 8df3 7b3f
000003f0: ae09 593f e2e4 733f be10 783f 83ba 723f
0.036381666 -0.0066030095 0.0059492504 -0.030210553 0.02811341 -0.026410537 0.050628383 0.0074375384
-0.0057179867 0.036670536 -0.0130124185 0.11131694 0.062039252 0.007246665 0.107861094 -0.0009571217
0.07868722 0.009555372 -0.00021527766 0.00033925197 -0.008464748 0.0057590385 -0.030630799 0.013460532
0.0083016865 0.06020284 -0.058317292 -0.011000498 0.045727015 -0.00018449282 0.07360413 -0.02098567
0.037024934 0.021724965 -0.0027487287 -0.004702591 -0.00987084 0.015901148 -0.05687087 -0.0063611274
0.03948147 -0.028516134 -0.0036592605 0.020893445 0.108489566 -0.00017777 0.042654056 0.041566864
-0.069788516 -0.0035233947 -0.0034954667 -0.011393847 0.02585491 0.21924682 0.062178772 0.04258525
-0.02773792 -0.016189884 0.0020337855 0.01632709 0.053683143 -0.017197447 0.016834516 -0.016913708
0.007850579 0.0063710613 0.014198926 -0.0025537517 -0.03709241 0.03781638 0.013815412 0.00501921
0.020840928 -0.045776635 0.08380746 -0.00026954885 0.065046936 0.052976567 0.0014383995 -0.004769588
-0.09146413 0.065446444 -0.0017970747 0.01386432 -0.026796713 0.02001801 0.024032364 -0.0013198073
0.020206133 -0.039571565 0.010813519 0.089644216 0.17523138 0.0072387727 0.015777161 0.005064157
0.007023741 0.0010597948 -0.0016481103 -0.0050590923 0.09452257 0.065563135 0.044443727 -0.031382173
0.07391815 0.050439164 -0.042179782 -0.036959782 0.037569012 -0.013940062 -0.0032968996 0.010914007
0.038520284 0.0004931935 0.16348174 -0.012771669 0.010346415 -0.034765832 0.031796023 0.012697468
0.048070885 -0.00032590854 0.0054529696 -0.008298663 -0.13311727 0.026068052 0.053622983 0.08703569
0.95876354 0.9903971 0.9743817 0.93352866 0.9183782 0.9689572 0.9946975 1.0009384
0.97159797 0.94553924 0.9922793 0.9238824 0.9729935 0.9962788 0.9598704 0.97926044
0.95524305 1.0073746 0.98478085 1.0168273 0.9517938 0.93784165 0.97349375 1.018281
0.9687285 1.0051863 1.0157038 0.9829025 0.923265 0.9828971 0.9421791 0.874508
0.97502327 0.9863733 0.9845037 0.9932829 0.9814864 0.9587 0.99216276 1.0088335
0.87760365 0.9405183 0.9967649 0.9444042 0.96347946 0.86915123 0.94425744 0.9526687
0.963373 0.98643047 0.9648421 0.98080224 0.97889787 0.8868902 0.9274751 0.9027051
0.9818895 0.95937043 0.99931127 0.9950507 0.897007 1.006171 0.96399796 0.9784315
1.0592608 0.97554916 0.9510746 0.9805494 0.9764624 0.97762495 0.98948985 0.9856918
0.9782484 0.9729351 0.9550484 0.9812724 0.9765933 0.89718413 0.99324614 1.0030495
0.92364985 0.9650345 1.0253673 0.9942094 1.0132327 0.96884805 0.95817614 0.9076399
0.8623386 0.9683348 0.99245244 0.90151936 0.94369197 0.96812224 0.94880766 0.973478
0.9813854 0.95703185 0.9510592 0.9876797 0.93999875 0.95676124 0.92344874 0.9805988
0.95761484 0.95471346 0.9368258 0.89650565 0.96436685 1.0148921 0.94301903 0.96958375
0.9677935 0.97983944 0.93003446 1.0493366 0.9529852 0.9342944 0.9464076 0.9692082
0.9686455 1.0242729 0.88510257 0.98418504 0.84780395 0.9527112 0.96900547 0.94815844

while/MatMul_11 f4 [512, 128]
00000000: de1c 113c ea21 a83d 825d 003e c64d 18bd
00000010: 54ca a1ba eb57 1abd 3db5 533c 58a0 5cbb
00000020: 8630 3bbd 58d5 83bd c949 d13c 2294 55bd
00000030: a498 183d 058c 6dbb ed93 2a3d 13ca dfbc
00000040: 5239 983d 17af 193c 3036 d23b 142a 913c
00000050: ad39 86bc c637 2c3c 3ed2 e2bd a03b a2bd
00000060: a739 093d eee8 fbbc 4f45 e4bb 0e95 75bc
00000070: 5928 4f3c 1509 1f3e 5688 c1bc 973c dc3d
00000080: 4ddd 50bd e6a0 8fbd 80e8 14be a8fa fa3d
00000090: cc70 f43c 0505 cd3c 4cd1 89bd 7392 a43c
000000a0: 2174 543d d8a0 3e3d 5e47 69bc d8d2 b6bd
000000b0: 97b8 ab3d 6197 0abe c401 06bb fa12 38bd
000000c0: ed8d d83b 2c38 a63d a432 743c 9c88 02bd
000000d0: a48b bb3d 01c2 893d c74d 7ebd 477a 28be
000000e0: 1936 98bc d8d2 163d cbb4 b7bd 0e53 c4bd
000000f0: 2c95 da3d d9b7 d53d d74d 4dbd 5bc1 80bc
00000100: f3d5 85bd bea8 bdbd 0503 37bd 5a58 e23b
00000110: b5f6 1ebd a5b3 943d a0c9 95bb dc5d 10bc
00000120: fa75 8e3c 2fe2 c53d b08a 873b 9eac 12bd
00000130: 8889 ddbd 390b 6e3d 2965 0dbc a1fb 20be
00000140: 4258 35bb 7814 a0bc 8fb0 a33d fe12 fc3c
00000150: 6255 1c3c 112d 11bd 94c9 edbd 2172 68bd
00000160: 2f4b adbd a5bf 20bc 4801 493c 4e46 b43d
00000170: 293a bcbc 4e4d c2bd cd14 e63c 2a15 f03c
00000180: e457 5f3d f702 c83c 428f 3bbc d69f 8f3b
00000190: 40fc 883d 9660 353d 67c5 293c d0ed 183c
000001a0: eae7 80bd ce29 093e d76e d63c e48e 233e
000001b0: 0cda 9bbd 1c85 48bd eaa6 dbbd 7aec 4b3d
000001c0: 9c18 28be b206 b93c 4108 3b3c c6f2 bb3b
000001d0: 543a 693d 17c1 a8bd 37d0 403d dc9e 153e
000001e0: 4cc1 c7bd 09f5 023d 2e42 1fbd 1872 46bd
000001f0: a312 a1bd 4bc3 6b3d 698a 6ebd d2ba f8bb
00000200: 2a71 78bd a6a1 153e 49fc e53c 0b16 70bd
00000210: e875 d1bd fb3e 92bd 6285 533e 37a3 16be
00000220: a63d 4f3e ac5d cdbc 8edc 413d 2380 ffbd
00000230: 9f63 fa3d 78f4 283e 6608 4b3e 0424 17be
00000240: 67df 393d 00f1 debd 4c7f 5f3e 7cf1 d03d
00000250: f542 0a3e ca70 9cbd 814c fbbd b2ee 28be
00000260: 6689 28be a1c6 8dbd a5e9 04be bc6b 0fbe
00000270: 8bd1 633d 8239 673d db8f eabd 4165 103e
00000280: 65e4 03be 20a9 1abe 81c4 f6bd e991 1d3e
00000290: 3a4c bcbd f630 1fbe ff69 dd3d 5558 e83d
000002a0: f922 2e3e f3f5 943d 4907 8abc 3483 31be
000002b0: 3f30 503e f28f febd 8696 0dbe a9aa 04be
000002c0: 4de8 09be e4e2 003e 93bd 17bd 957c d0bd
000002d0: e8b2 113e 6661 683e 527c 47be 17c5 2fbe
000002e0: 7fab 7a3c 5e51 2d3e fb2d 23be f75e 453c
000002f0: c969 453e 36ff 28be 0a94 d8bd a116 11be
00000300: e757 2a3d df22 0ebe 02eb 3d3e 9028 1d3e
00000310: c613 453d 8b60 463e ffaa aa3d 6165 2f3e
00000320: 7b77 8a3d e5d7 7bbd efd9 133e fca3 53be
00000330: 9e8a a0bd f0a5 343e 386d a53d b088 24bd
00000340: 77a3 c6bd 13e5 5e3d 531a 0a3d 4287 0dbe
00000350: 02ed 143b 2145 0cbe 2e27 3dbe eb25 59be
00000360: cdb2 c8bd 3274 22be 5bda 033e 3f3d e83d
00000370: 2d75 a6be 6528 19be f82c 113e e5d7 7c3c
00000380: e0d3 02bc 4782 82be 97a7 043e 948a e43d
00000390: 67f8 033e 94b1 583d 0553 6e3d 945a a7bd
000003a0: 32e8 78be ad47 743d 790b 813d fc32 4c3e
000003b0: 0f81 09be 57e8 853e 9672 05be 6ed6 3d3e
000003c0: 4d6a febd bfda a2be 841e 2abe c22b 6fbe
000003d0: 4ae7 3b3e 80cc fbbc 0e2c 1d3e 2c7c 16be
000003e0: 9f74 b6bd 5143 1e3e 5a7a 09be bd21 19be
000003f0: ec5c f5bc a62b 2bbc 5135 eabd 6599 46be
0.00885698 0.082095936 0.1253567 -0.037183546 -0.0012343624 -0.0376815 0.012921629 -0.0033664908
-0.045700572 -0.064371765 0.025547879 -0.052143224 0.037254944 -0.0036246788 0.04164498 -0.027318036
0.07432808 0.009380124 0.006415151 0.01772026 -0.016384924 0.010511344 -0.11075257 -0.07921529
0.033502247 -0.030750718 -0.00696627 -0.014989151 0.012643897 0.15530808 -0.02362458 0.10753744
-0.0509923 -0.07013111 -0.14541817 0.1225484 0.029838942 0.025026808 -0.06729373 0.020089364
0.05186856 0.04654011 -0.014238207 -0.08926934 0.08384817 -0.13534309 -0.002044783 -0.044939972
0.0066087157 0.08116183 0.014904652 -0.031868562 0.09157494 0.067264564 -0.062085893 -0.16452895
-0.018580483 0.03682217 -0.089700304 -0.09586154 0.106729835 0.10435457 -0.050123062 -0.0157172
-0.06534948 -0.09260701 -0.044680614 0.006907505 -0.038809497 0.07260827 -0.0045711547 -0.00881144
0.01739024 0.09662282 0.004136406 -0.03580915 -0.10817248 0.05811617 -0.0086300755 -0.15720989
-0.0027671014 -0.01954101 0.0799266 0.030770775 0.009541841 -0.03544337 -0.116107136 -0.056749467
-0.08461606 -0.009811317 0.012268372 0.08802472 -0.022976952 -0.09487401 0.02808609 0.029306967
0.05452718 0.024415476 -0.01144773 0.0043830676 0.06688738 0.044281565 0.010362006 0.009334043
-0.06294234 0.13394853 0.0261759 0.15972477 -0.076099485 -0.048955068 -0.10725196 0.04978607
-0.16415638 0.0225862 0.011415542 0.005735728 0.05694039 -0.08239954 0.04707357 0.14611381
-0.09753665 0.031971965 -0.038881473 -0.048448652 -0.07864883 0.057559293 -0.058237467 -0.00759063
-0.060654797 0.14612445 0.0280744 -0.05861477 -0.10227567 -0.07140919 0.2065635 -0.14710699
0.20238361 -0.02506908 0.047329478 -0.12475612 0.122260325 0.16499507 0.19827422 -0.14759833
0.04537907 -0.10885811 0.21825904 0.102023095 0.13502105 -0.076387 -0.12270451 -0.16497305
-0.16458663 -0.06922651 -0.12979753 -0.14005941 0.055619758 0.056451328 -0.114532195 0.14101125
-0.12880094 -0.15103579 -0.12049199 0.15387692 -0.091942266 -0.15546021 0.10811233 0.11344973
0.17005529 0.072734736 -0.016849177 -0.17335206 0.20330904 -0.12429799 -0.13826951 -0.12955727
-0.13467522 0.12586552 -0.037046026 -0.10180012 0.14228404 0.22693405 -0.19481018 -0.17165028
0.015299677 0.1692557 -0.15935509 0.012046567 0.19278635 -0.16503605 -0.10575111 -0.14168788
0.041587736 -0.1388049 0.1854668 0.15347505 0.04811456 0.19372766 0.08333396 0.17128517
0.0676107 -0.06148519 0.14438604 -0.20668024 -0.07838939 0.17641425 0.080774724 -0.040169418
-0.09699147 0.05441768 0.03371651 -0.13821128 0.0022724275 -0.13698246 -0.18471977 -0.21205871
-0.097997285 -0.15864637 0.12876265 0.11339807 -0.32511273 -0.14956816 0.1417731 0.015432333
-0.007985085 -0.2549002 0.12954555 0.11159244 0.12887727 0.052903727 0.058184642 -0.08171573
-0.24307325 0.059638668 0.06301016 0.19941324 -0.13428138 0.26153824 -0.13031992 0.1853883
-0.12422619 -0.31807515 -0.16613203 -0.23356536 0.18349949 -0.030737162 0.15348837 -0.14695805
-0.089089625 0.15455367 -0.1342558 -0.14954276 -0.029951535 -0.010447418 -0.114359505 -0.19394453

while/MatMul f4 [512, 1]
00000000: 685d 01be ce86 55be 147b adbe 0d33 29bb
00000010: 2410 94bd b728 973d b674 86be 5691 793e
00000020: d740 15be fbbe 7b3e 171e aebd a71d 863c
00000030: b435 afbe dfdc 87be 33a7 a7be fdff 1f3e
00000040: edef 6e3c 8e30 c1be 1bb4 a63d b622 b93e
00000050: 70d5 983e 1013 953e d5ba 0a3e 5518 d5be
00000060: 6bab 17be 62be 8c3e 89b2 113f 5981 16bd
00000070: 64f9 0dbb 5469 9abe f60c 64bc 8b3e 7d3d
00000080: 0818 02be f426 91be f09e 57be 37bf b43e
00000090: 71c6 7dbd 8af0 91be de3d df3e 2e98 93ba
000000a0: d432 133e e172 d23d 4189 f23c 5c3b 833d
000000b0: c893 8cbe a26f b53c 1d17 073d 3a9f dc3c
000000c0: f168 1fbe 6257 ad3e f6ed 853d 9069 523d
000000d0: 22b5 9a3c 0c89 b3bc c429 043e 8ae7 f43c
000000e0: 2a9b 053e 0ad3 313b ee25 b93e 4ee0 89be
000000f0: 9af4 11be eee3 6b3e 4c68 a83e 7079 04be
00000100: 784e 1fbf ca12 a73e 0364 acbe 16df 52be
00000110: 95f0 fa3c ba3e 803e 4870 863e ba9e 753e
00000120: 83c4 a1be 4588 593e 51df b6bd f611 73be
00000130: 6498 a8be 3304 8fbd a544 af3e 83e9 c53e
00000140: f35e 863e caca 20bd 5782 c13e 7788 f3bd
00000150: 452b e13e ee69 25be 90a5 8f3e a0b5 813e
00000160: 2db6 233e af0c 56be 5cce 1fbe fbd1 c83e
00000170: 3ab2 bfbe a805 9abe 7e65 ba3e d3bc c43e
00000180: 5eba ac3d bba6 a1be 2758 b8be d9fe 6abe
00000190: f489 cdbc 6371 49be 7551 203c 53e6 d53d
000001a0: 7884 073e 3d52 2b3e ae21 673c b312 113d
000001b0: fe48 3cbd e1f8 e3be 38fd 433e da3d 98be
000001c0: cfaf 783e da8a 99be 420e 033b 066e fcbe
000001d0: 4ea3 42be 5c52 aa3d 3714 343e e5ad e0be
000001e0: acf5 89be 45f5 df3e 2afa 933c f0ea 863e
000001f0: 98c8 953d 3280 653e 0f91 75be 3759 86be
00000200: efce b73d 726b 413e 3ce3 61be fc77 8ebe
00000210: afe7 a9bd bc32 4fbe 3664 623d 3a1d c0bb
00000220: ae92 823d 777d 91bc 56e2 4a3e 340e 943e
00000230: 1ac6 453e d908 3a3e 6337 9c3d ac3d 50be
00000240: 4bde 113e 78d1 983d 8c4a 8abe 1f88 65be
00000250: bdb4 80be 0ec4 91bd 473a 64bd db62 c83c
00000260: 6ee6 78be eba3 b23e a2d3 763d e594 3a3e
00000270: 734f 8d3e 178a 803e d510 e13d 644b 183a
00000280: e4cc c03d 58c4 973d 3f5a 8e3e 43cd 1bbe
00000290: 9452 b4be cba0 533e 49dd 923d f22d 03be
000002a0: 8dfe 113e f1e8 9cbd 63c8 aa3d 1d56 e2bd
000002b0: 0a7a a83d ecaa d3bd cbab 9fbd 5f48 ce3d
000002c0: 8350 c3bd 5a27 39be 5bf0 1c3e a4ea 64be
000002d0: a3aa 25bd c684 c6bd c002 eb3b e1ab 0b3e
000002e0: e45c 11be ddb6 c1bc b9da c93c dbb8 d7bd
000002f0: cca0 413e a666 943e 2bb8 8abc 2a9f a3be
00000300: 6fa7 07be e5c1 ba3d 1793 7a3d e822 77be
00000310: 5c4b 5b3d 485a f3bd 8994 72be cb66 82be
00000320: ffbc 1d3e e7b0 f03d e0ec 85bc d9a5 513e
00000330: 3f8f bcbc e75a 3c3e 47d7 1cbd f055 c13e
00000340: d9b5 3a3d ad25 46be 1410 07be 1f32 19be
00000350: 300a 853d 4752 ee3d b6ab a23d 93a7 b23c
00000360: e5fc 1a3e 4c98 36be d6b0 a23b e002 d3bc
00000370: cdce 30be 80a8 433e f0d3 e93d 9426 193e
00000380: a833 893e e3d1 543d d38f 023e 15dd 253d
00000390: bc8f a4bd b8a4 efbd f5ce e73c c08a 99bd
000003a0: 9025 ba3c dfb4 333e 5efe c03d 7e76 80be
000003b0: 7434 0b3e abf9 313e ebd2 f93c eb47 523e
000003c0: 965b 87bd 8769 4c3d 3414 8bbe ed34 0abc
000003d0: 0257 1fbe 80ef 59bd 4df3 95bd f2c8 95bd
000003e0: d9e8 f23d a820 d23e 59a3 143e a706 82be
000003f0: 52f1 80bc e987 95bd c9a8 4cbb fd75 663e
-0.12633288 -0.20852205 -0.33882964 -0.0025817782 -0.07229641 0.073808126 -0.26260918 0.24371848
-0.14575516 0.24584572 -0.08501833 0.016371561 -0.3422066 -0.265357 -0.3274475 0.15624996
0.01458357 -0.37732357 0.08139821 0.36159295 0.2985034 0.29116106 0.13547833 -0.41620126
-0.14811485 0.27489 0.5691305 -0.03674445 -0.002166354 -0.30158484 -0.013919106 0.061827224
-0.1270448 -0.2835003 -0.21056724 0.35302135 -0.061956827 -0.2850383 0.43601888 -0.0011260563
0.14374858 0.10275818 0.029606463 0.06407806 -0.27456498 0.022147957 0.032981027 0.026931394
-0.15567376 0.3385573 0.06539528 0.051370203 0.018885199 -0.021915935 0.12906557 0.029895563
0.13047472 0.0027133846 0.3616175 -0.26928943 -0.14253464 0.23036167 0.32892072 -0.1293695
-0.6222911 0.32631522 -0.33670053 -0.20592913 0.030632297 0.25047857 0.2625754 0.2398633
-0.3159524 0.21243389 -0.08929313 -0.2373732 -0.32928765 -0.06983223 0.3423206 0.38654718
0.26244316 -0.039255895 0.37794754 -0.11891263 0.43978325 -0.1615369 0.28056002 0.2533388
0.15987463 -0.20903276 -0.15606064 0.39222702 -0.37440664 -0.3008244 0.36405557 0.3842531
0.08433984 -0.31572518 -0.36004755 -0.22948779 -0.025090195 -0.1967216 0.009785046 0.104443215
0.13234127 0.1673059 0.014107151 0.035418224 -0.04596805 -0.44525817 0.19139564 -0.2973469
0.24285816 -0.29988748 0.0019997512 -0.4930269 -0.19007608 0.0831649 0.17585836 -0.4388267
-0.26945245 0.43741813 0.018063623 0.26351118 0.07313651 0.22412184 -0.23981117 -0.2623994
0.08975016 0.18888643 -0.2205934 -0.27825916 -0.08296143 -0.20234197 0.05527135 -0.005862859
0.06375633 -0.017760022 0.19812903 0.28917086 0.19313851 0.18167438 0.07627752 -0.20336026
0.14244954 0.07461828 -0.2701 -0.22415207 -0.25137892 -0.071174726 -0.05571964 0.0244612
-0.24306652 0.34890684 0.060260423 0.18220861 0.27599677 0.25105354 0.109895386 0.0005809574
0.0941408 0.074104965 0.27803227 -0.1521502 -0.35219252 0.20666806 0.07171113 -0.12810495
0.1425726 -0.076616175 0.08339002 -0.11051581 0.08226402 -0.10335335 -0.07796439 0.100723974
-0.09536841 -0.18081418 0.15326063 -0.22355133 -0.040445935 -0.09693293 0.0071719587 0.13639785
-0.14195591 -0.023646766 0.024640428 -0.10533305 0.18908995 0.28984565 -0.016933521 -0.3195737
-0.13247465 0.09119014 0.061175432 -0.2413441 0.053538665 -0.11882454 -0.23689474 -0.2546905
0.15404128 0.117524914 -0.016348302 0.20473422 -0.023017524 0.18394051 -0.038291242 0.37760878
0.04558358 -0.1935031 -0.13189727 -0.14960526 0.06496084 0.11636787 0.079429075 0.021808421
0.15135534 -0.17831534 0.004964928 -0.025758207 -0.17266388 0.19107246 0.11417377 0.14956123
0.26797223 0.051957976 0.12750177 0.040494043 -0.08035228 -0.117013395 0.028296927 -0.074971676
0.02272299 0.17549466 0.09423517 -0.25090402 0.13594228 0.17380397 0.030496081 0.20535247
-0.066092655 0.049905326 -0.2716385 -0.00843547 -0.15560535 -0.05320692 -0.073217966 -0.07313718
0.118608184 0.4104054 0.14515437 -0.253957 -0.01574007 -0.073013134 -0.0031228533 0.22505946

sequential_2/lstm_5/Read_2/ReadVariableOp1 f4 [256]
00000000: 6943 913d 4b55 363d 9d58 163d cd53 023d
00000010: 6186 0e3d bfc5 ea3c 88e4 b03d 1001 cc3b
00000020: 9135 873d b796 34bd 69bd 6bbc ea93 793d
00000030: 33f5 113e ff02 3b3d 5d14 503d 4c69 243d
00000040: 0235 023e 9e1e b73d 9d8a 1f3a 4094 0e3d
00000050: f654 003e 0751 9d3d 7fc4 5a3c 231f fb3d
00000060: fb8b 313e 7bc5 863c d4fc 2b3d 3456 d03d
00000070: 6937 143d 22b7 4a3e 0c93 4a3d f781 8e3d
00000080: ad51 e33d 5fba 623d b2be a53d ec65 e6bc
00000090: f430 123e cc0c ef3d 48bb e83c 8972 0c3e
000000a0: 7a73 ad3d c7c5 593d 912f 0f3e e519 ee3d
000000b0: 1cb4 723d 0b13 293d 83f8 2d3e 25e6 df3d
000000c0: 99fd 0abd 07bf cf3c 7191 acbc 9304 39bd
000000d0: 808e f5bc f21c 893d 52db 4d3d ac4b f33d
000000e0: 7558 163e 372a 1fbd 6923 2f3e 5878 f1bc
000000f0: 5280 f23c 32ce 7a3b 0376 b13d 1875 713d
00000100: 3ef6 863f 3802 7c3f 5e77 793f 4586 7c3f
00000110: 820a 773f 0a7d 743f 8f57 813f e926 753f
00000120: 0837 8a3f 49c1 6e3f df88 753f 23ce 803f
00000130: fc25 9a3f e6cd 7a3f 1141 833f 8135 813f
00000140: 6476 903f b801 8c3f bc35 7e3f 4e29 863f
00000150: b426 803f 5e09 8f3f ea5d 7d3f cb58 803f
00000160: fcd2 8e3f fd42 813f e679 743f 86a4 843f
00000170: 7b0d 743f ee06 873f 2df4 7b3f 6eae 823f
00000180: 6232 853f faaf 7a3f aec9 823f e0b5 6d3f
00000190: c310 863f bd08 7a3f 2afb 783f bc80 833f
000001a0: c0c2 753f 229f 793f 4e97 833f 077e 803f
000001b0: 2384 703f 0a64 743f dd21 8d3f 3554 833f
000001c0: 756d 733f a9ed 7c3f da7a 733f a480 783f
000001d0: 6b55 773f ae21 873f 6d6e 783f d59f 8d3f
000001e0: 816c 813f 1f6d 663f 20b6 963f 4195 683f
000001f0: 9a0a 6d3f fcdf 853f 0639 793f 8435 773f
00000200: f6f9 b1bd 45cb b0bc 6885 883c 3ecc ffbb
00000210: 3a7a f8bc fc35 d4bc e454 303c 2c95 6a3c
00000220: d931 a9bd 53e6 79bc 52e8 44bc a8f8 973c
00000230: e835 1e3e abcb 4c3d dce7 43bd 1213 b0bd
00000240: 4229 09be c0b2 b2bd 6449 3abd 4f27 aabd
00000250: 2633 233d 4a24 f5bd a48a 063d 3f0b 2f3c
00000260: fe69 6f3d 5480 9c3c 700d 003c e4a0 733d
00000270: b27f 353b 0a1a 133d 6706 623c 4ab3 493d
00000280: 7d88 63bd 1bde 5ebd adfc a3bc cfc8 59bb
00000290: 9789 0abd 3827 f93c af2c 4bbd 3ba5 a3bb
000002a0: 079c 073c 8aaf 603c 8b16 713c 9a32 afbc
000002b0: a8fb 17ba fbf7 4e3d 160c 34bd 1e64 333c
000002c0: a2d1 f23c 91bb 013c e8f7 7fbd c1ae 7fbd
000002d0: 3167 3ebd cff7 e73d 57f4 25bd 54a9 b13d
000002e0: 21ba 0d3d aded 933c f5a5 ac3d 8182 2c3d
000002f0: 36cd 46bd 3485 babd ec42 e0bc 268b 05bd
00000300: 1609 993d 0128 8c3d 106f 773d 4e4a 9e3c
00000310: f3f5 803d d7ee 423d 0d5b 2e3d 0421 013c
00000320: f031 923d db86 84bc 7f86 6b3c 9eed 583d
00000330: a341 163e cf19 8e3d c2af c83c c4e0 f93d
00000340: 1c8d db3d 342a ac3d f08a 6f3c c17a 163d
00000350: 3a32 b83d 3fa1 a23d 7ca4 3e3b e4c7 e43d
00000360: 0a16 093e 7956 de3c 3649 fc3c 93fc 953d
00000370: 2484 253d aa66 2d3e ce88 473c fcca a33d
00000380: 455b b93d 9878 8a3d ed43 b43c 356a a1bb
00000390: 8752 b93d a555 d73d aef7 983d 8678 d43d
000003a0: 0083 c83d e01f a43d 8516 c83d df7c 063e
000003b0: 6c3f d73d e9b7 533d 54b3 c53d 36fa 9c3d
000003c0: ef79 ba3b e55a b33d 7efd 58bc f9af 06bd
000003d0: 2e4f bbbc 3c79 9c3d 9967 3e3d 9193 9d3d
000003e0: 9124 063e fd74 753d 39f0 313e 55c3 933c
000003f0: e28c b03d faa9 1f3b f0b6 dc3d cf28 4b3d
0.070929356 0.044514935 0.036705602 0.0318182 0.034796122 0.028658746 0.08637339 0.0062257126
0.06602014 -0.044089045 -0.014388421 0.060932077 0.14253692 0.045657154 0.05080067 0.04013948
0.12715533 0.08941387 0.00060860236 0.03480935 0.1253241 0.0768147 0.013352512 0.12261798
0.17338555 0.016451588 0.041989163 0.10172692 0.036185656 0.19796422 0.04945664 0.069583826
0.11099563 0.05535352 0.08093013 -0.028124772 0.14276487 0.11672363 0.028409615 0.13715567
0.08469291 0.05316713 0.13982989 0.11626033 0.059253797 0.041277926 0.16989331 0.109325685
-0.033933256 0.025359644 -0.021065446 -0.045170378 -0.029975176 0.06694974 0.05025799 0.11879668
0.14682181 -0.03885862 0.17103352 -0.02947633 0.029602204 0.0038269875 0.08665087 0.05894956
1.0543897 0.98440886 0.97447765 0.9864238 0.9650041 0.95503294 1.0104846 0.957625
1.0798044 0.9326368 0.95911974 1.0062908 1.2042842 0.97970426 1.0254232 1.0094453
1.128613 1.0938025 0.9930074 1.0481355 1.0011811 1.1174734 0.98971426 1.0027097
1.1158137 1.0098568 0.954985 1.0362709 0.9533307 1.054899 0.9841946 1.0209482
1.0406001 0.9792477 1.0217798 0.92855644 1.0473865 0.97669584 0.97258246 1.0273662
0.9600029 0.9750844 1.028055 1.003846 0.93951625 0.9546515 1.1025959 1.0260073
0.95088893 0.9880014 0.9510933 0.9707129 0.9661471 1.0557153 0.97043496 1.1064402
1.0111238 0.90010256 1.177433 0.90852743 0.925943 1.045898 0.97352636 0.96566033
-0.086902544 -0.021581301 0.016665176 -0.00780633 -0.03033172 -0.025904648 0.010762427 0.014317792
-0.08261461 -0.0152526675 -0.01201828 0.018551186 0.15450251 0.04999892 -0.04782854 -0.085973874
-0.13394645 -0.087255 -0.045480147 -0.08308279 0.0398437 -0.11969812 0.03284706 0.010683834
0.05845069 0.01910416 0.007815704 0.05947961 0.002769452 0.035913505 0.013795472 0.04924325
-0.055550087 -0.054411035 -0.020017946 -0.0033231264 -0.033822622 0.030414209 -0.04960316 -0.0049940622
0.008276946 0.013713727 0.014714847 -0.021386433 -0.00057976926 0.05052946 -0.04395684 0.010949163
0.029640976 0.0079182545 -0.06249228 -0.062422518 -0.04648513 0.113265626 -0.040516224 0.08674875
0.034601334 0.018057669 0.08430091 0.042116646 -0.04853555 -0.09107438 -0.02737566 -0.032603405
0.07472436 0.06843568 0.06040865 0.01932254 0.06296911 0.047591057 0.0425673 0.007881407
0.07138431 -0.016177585 0.014375328 0.052960984 0.14673476 0.06938516 0.02449787 0.12201074
0.10720274 0.08406487 0.014620528 0.03673816 0.08993955 0.079409115 0.002908974 0.111709386
0.13387313 0.027140843 0.030796628 0.07323565 0.040409222 0.16933694 0.012178613 0.079977006
0.090506114 0.06761283 0.022005046 -0.004925991 0.09048944 0.10514382 0.07469116 0.103745505
0.09790611 0.08013892 0.0976992 0.13133572 0.10510144 0.051689062 0.09653345 0.076649114
0.005690805 0.08757571 -0.013244031 -0.032882664 -0.022864904 0.07640311 0.046485517 0.07694162
0.13099886 0.05992602 0.17376794 0.018037478 0.08620621 0.0024362789 0.1077708 0.049599465
