app/src/main/assets/v8_seizure_prediction_model.tflite (tflite, 492476 bytes, 12 tensors)

sequential/lstm/Read_2/ReadVariableOp f4 [512]
0	0x3cead72e	0.028667059
1	0x3ca2c6c5	0.019870171
2	0x3d386194	0.045014933
3	0x3c6b9d5f	0.014380782
4	0x3c99fba0	0.018796742
5	0xbb5e7e2d	-0.0033949718
6	0x3d6bcecb	0.05757026
7	0x3c58059c	0.013184931
8	0x3c96e377	0.01841901
9	0xbb69cc3d	-0.0035674714
10	0x3a25096f	0.0006295656
11	0x3c329359	0.010899388
12	0x3da61185	0.0810881
13	0x3c2c9710	0.010534063
14	0x3ba71623	0.0050990744
15	0xbc8b4c43	-0.017004138
16	0x3cf52c40	0.029928327
17	0x3ac1ed0f	0.001479538
18	0xbc3180c8	-0.0108339265
19	0xbb88fa2b	-0.004180213
20	0x3ca99ba5	0.0207041
21	0x3da89341	0.082312115
22	0xbbc5ee32	-0.006040358
23	0x3c26ebfb	0.010188098
24	0x3c42f752	0.011899786
25	0xbbf19645	-0.00737265
26	0x3c99fd61	0.018797578
27	0x3c97b1c6	0.018517386
28	0x3d2b2ffc	0.04179381
29	0x3d368c44	0.04456736
30	0x3be6d8d3	0.0070448904
31	0xbc9a319b	-0.018822482
32	0x3c9a8246	0.018860947
33	0x3c131835	0.008977939
34	0x3cad5c1c	0.021162085
35	0xb9a3f724	-0.00031273917
36	0x3cb6db0d	0.022321248
37	0x3c967228	0.01836498
38	0x3b06b46b	0.0020554315
39	0x3d42d789	0.04756883
40	0x3d18dcbf	0.037319895
41	0x3bcad85c	0.006190343
42	0x3b8dfcdc	0.0043331217
43	0x3b054f22	0.0020341356
44	0x3caccb1a	0.02109294
45	0x3c300afd	0.010744807
46	0x3bd72e58	0.006566804
47	0xbcaa9391	-0.020822318
48	0x3cf6a351	0.030107172
49	0xbb3ac051	-0.0028495977
50	0x3d20c6c1	0.039252046
51	0x3c6dae2e	0.01450686
52	0x3cf1075b	0.029422453
53	0x3c6c8fe1	0.0144386
54	0xbc876c70	-0.0165312
55	0x3b7e0283	0.0038758821
56	0x3a5559e4	0.00081387
57	0xbcbf171a	-0.023326445
58	0x3c985e33	0.018599605
59	0xbc3f85bc	-0.0116896
60	0x3c9b9ecd	0.01899662
61	0x3cd39737	0.02582894
62	0x3d228d41	0.03968549
63	0xbbae2631	-0.0053146114
64	0x3d3de46a	0.04636041
65	0x3c92261d	0.01784044
66	0xbc21d1f4	-0.009876717
67	0x3cbffdb6	0.023436408
68	0xba8f7a5f	-0.0010946504
69	0x3cb59303	0.022164827
70	0x3d079f53	0.033110928
71	0x3ceeeb2c	0.029164873
72	0x3c2223de	0.009896247
73	0x3c532419	0.012887024
74	0x3d2a4b27	0.041575577
75	0x3cafcbcf	0.021459488
76	0x3bc3e509	0.005978231
77	0x3bece485	0.00722939
78	0x3d1ea6e8	0.038733393
79	0x3d2a0105	0.04150488
80	0xbb917e86	-0.0044401316
81	0xba8726eb	-0.0010311281
82	0xbc090fde	-0.008365599
83	0x3c45d417	0.012074492
84	0x3be792e1	0.00706707
85	0x3d47b971	0.048760835
86	0xbac73580	-0.0015198439
87	0x3c8975b3	0.016779756
88	0x3c880bcc	0.016607188
89	0x3c884517	0.016634507
90	0x3c55e8a3	0.013055953
91	0x3bdb719a	0.006696892
92	0x3d2bef69	0.041976366
93	0x3c515fa4	0.01277915
94	0x3d21fd84	0.039548412
95	0x3cac38b6	0.021023136
96	0x3d960a39	0.073261686
97	0x3d802fcf	0.06259119
98	0x3cbdaa69	0.023152547
99	0x3c45bba0	0.012068659
100	0x3d5deb0f	0.054179247
101	0x3cd80d53	0.026373541
102	0x3cad3e8b	0.021147987
103	0x3d66b3d5	0.056323845
104	0x3c50f3c6	0.012753433
105	0x3c8f65fc	0.017504685
106	0x3c05f6a8	0.008176483
107	0x3cb460d3	0.022018826
108	0xbb59e78d	-0.0033249587
109	0x3bd9966d	0.0066402466
110	0xbb91c374	-0.0044483487
111	0x3c2f0b89	0.010683903
112	0x3d32f4f5	0.04369064
113	0xbb0b9759	-0.0021299927
114	0x3b9be4e1	0.004757509
115	0x3caf47c7	0.02139653
116	0x3bae44fa	0.0053182812
117	0xbbd0ff72	-0.0063781077
118	0x3cf20b11	0.029546292
119	0x3ca95b78	0.020673499
120	0x3ca9e420	0.020738661
121	0x3d18b482	0.03728152
122	0xbc03fca2	-0.008055838
123	0x38d48904	0.00010134469
124	0xbc33ce55	-0.010974486
125	0x3cda7b79	0.026670204
126	0xbb08573f	-0.0020803956
127	0xbb087a22	-0.002082475
128	0x3f7e78dd	0.9940317
129	0x3f7a81e8	0.9785447
130	0x3f7deef6	0.9919275
131	0x3f8252f1	1.0181562
132	0x3f7ed23b	0.99539536
133	0x3f80b4c9	1.0055171
134	0x3f82e7af	1.0226954
135	0x3f8160e5	1.0107695
136	0x3f7c3443	0.98517245
137	0x3f811310	1.0083942
138	0x3f7db42b	0.9910304
139	0x3f819215	1.0122706
140	0x3f79b714	0.9754498
141	0x3f823c17	1.0174588
142	0x3f7fc50a	0.9991003
143	0x3f798958	0.97475195
144	0x3f809046	1.0044029
145	0x3f8044f3	1.0021042
146	0x3f791ed2	0.97312653
147	0x3f7c07ca	0.98449385
148	0x3f7fe14e	0.9995316
149	0x3f8d8963	1.1057552
150	0x3f82dca0	1.022358
151	0x3f7b6fab	0.98217267
152	0x3f7a50d8	0.9777961
153	0x3f79cdb3	0.975795
154	0x3f808789	1.0041362
155	0x3f7c022b	0.9844081
156	0x3f7f4aae	0.9972333
157	0x3f7ba702	0.9830171
158	0x3f7d25e3	0.98885936
159	0x3f80f640	1.007515
160	0x3f7d13e5	0.9885848
161	0x3f805063	1.0024532
162	0x3f809f86	1.0048683
163	0x3f7dcf4a	0.99144423
164	0x3f8001c5	1.000054
165	0x3f7c6af1	0.9860068
166	0x3f807afb	1.0037531
167	0x3f7c7e75	0.9863046
168	0x3f8337f5	1.0251452
169	0x3f81945f	1.0123404
170	0x3f81ac5a	1.0130723
171	0x3f7f3769	0.99693924
172	0x3f80f289	1.0074016
173	0x3f7ca1a9	0.98684174
174	0x3f7e5e79	0.99362904
175	0x3f84287b	1.0324854
176	0x3f815ced	1.0106484
177	0x3f7d7d2b	0.99019116
178	0x3f81a943	1.012978
179	0x3f81036f	1.0079173
180	0x3f7cd3c0	0.98760605
181	0x3f81a4ce	1.0128419
182	0x3f7d1adb	0.98869103
183	0x3f81d9b2	1.014456
184	0x3f84f244	1.0386434
185	0x3f766f82	0.962639
186	0x3f81968f	1.0124072
187	0x3f80c8ab	1.0061239
188	0x3f846bdb	1.0345415
189	0x3f7e46b2	0.9932662
190	0x3f7d21fb	0.98879975
191	0x3f80278c	1.0012069
192	0x3f7b67c1	0.9820519
193	0x3f813e25	1.009709
194	0x3f7e8e0c	0.99435496
195	0x3f840225	1.0313154
196	0x3f822985	1.0168921
197	0x3f7f44d2	0.99714386
198	0x3f82754d	1.0192047
199	0x3f8a8654	1.0822244
200	0x3f7e890e	0.9942788
201	0x3f800f1b	1.000461
202	0x3f79d1ed	0.97585946
203	0x3f80e55b	1.0069994
204	0x3f8074a5	1.0035597
205	0x3f828a53	1.0198463
206	0x3f771057	0.9650931
207	0x3f7ed080	0.99536896
208	0x3f7d5928	0.98964167
209	0x3f80800c	1.0039077
210	0x3f77e075	0.9682687
211	0x3f7fc1c6	0.9990505
212	0x3f82da50	1.0222874
213	0x3f7abc59	0.97943646
214	0x3f80b66b	1.005567
215	0x3f7f80ac	0.9980571
216	0x3f7fb281	0.9988175
217	0x3f789f87	0.9711842
218	0x3f8155a6	1.0104263
219	0x3f8113cd	1.0084168
220	0x3f85b572	1.0445998
221	0x3f7b7824	0.98230195
222	0x3f7ff014	0.99975705
223	0x3f825768	1.0182924
224	0x3f796f79	0.9743572
225	0x3f804353	1.0020546
226	0x3f82f0ea	1.0229771
227	0x3f816936	1.0110233
228	0x3f7bf143	0.9841501
229	0x3f7c0efa	0.9846035
230	0x3f82682b	1.018804
231	0x3f80aafe	1.0052183
232	0x3f7fff22	0.99998677
233	0x3f81ddd8	1.0145826
234	0x3f82116c	1.0161567
235	0x3f8616a7	1.0475663
236	0x3f80ded7	1.0068005
237	0x3f7f3d8e	0.997033
238	0x3f8074d1	1.003565
239	0x3f8561d1	1.0420476
240	0x3f789e9a	0.97117007
241	0x3f81df66	1.0146301
242	0x3f7c30b2	0.98511803
243	0x3f7bcaee	0.9835652
244	0x3f801a50	1.000803
245	0x3f8230a0	1.0171089
246	0x3f754267	0.95804447
247	0x3f8298a5	1.0202833
248	0x3f7fcc07	0.99920696
249	0x3f80b391	1.0054799
250	0x3f7b0884	0.9805987
251	0x3f83d112	1.0298178
252	0x3f795d69	0.9740816
253	0x3f812013	1.0087913
254	0x3f7c30b0	0.9851179
255	0x3f8332f4	1.0249925

sequential/lstm_1/Read_2/ReadVariableOp f4 [256]
0	0x3e0859ce	0.13315508
1	0x3dc3ee28	0.09566909
2	0x3db68e20	0.08913827
3	0x3cf169b7	0.029469354
4	0x3d2770b8	0.04087898
5	0xbc0755e9	-0.008260229
6	0x3d202b4a	0.039103784
7	0x3e120bd3	0.14262323
8	0x3d4c09b9	0.04981396
9	0x3cdf1561	0.027231874
10	0x3d77a461	0.0604595
11	0x3d725a6e	0.05916827
12	0x3db8b39d	0.090186335
13	0x3d3cad11	0.046063486
14	0x3d822aca	0.063558176
15	0x3d72ae56	0.05924829
16	0x3d801fdf	0.06256079
17	0x3d75b785	0.05998947
18	0x3cc53036	0.02407084
19	0x3d43927a	0.047747113
20	0x3d4039e3	0.046930205
21	0x3d6e0070	0.058105886
22	0x3db3960c	0.087688535
23	0x3c31307b	0.010814781
24	0x39a90aae	0.0003224215
25	0x3c99d09d	0.018776232
26	0x3cd0898d	0.025456214
27	0x3d62fdd8	0.055417866
28	0x3cdc956e	0.026926722
29	0x3db4b87b	0.08824249
30	0x3ce7ac7b	0.028280487
31	0x3c81cef5	0.015845755
32	0x3d89c411	0.0672685
33	0x3b05502f	0.0020341983
34	0x3d1c24d5	0.038121063
35	0x3db482eb	0.08814033
36	0x3d5a0923	0.05323137
37	0x3d4ee2e4	0.05050935
38	0x3afa3236	0.001908845
39	0x3d2ba8a8	0.04190889
40	0x3c7fa14a	0.015602419
41	0x3d726ca5	0.059185643
42	0x3d3c5b24	0.045985356
43	0x3d80bde3	0.06286218
44	0x3d80b88c	0.062851995
45	0x3d77ba34	0.06048031
46	0x3d94640e	0.072456464
47	0x3c905274	0.017617442
48	0x3d80efcd	0.06295738
49	0x3cdec38a	0.02719285
50	0x3c4e553c	0.012593564
51	0x3d424c88	0.047436267
52	0x3d242f23	0.040084016
53	0x3d3028f2	0.0430078
54	0x3cb0e6f7	0.021594508
55	0x3e2f547b	0.1712207
56	0x3e075240	0.1321497
57	0x3d101f4e	0.035186104
58	0x3d0bc214	0.034120634
59	0x3d31204c	0.04324369
60	0xbb8d7438	-0.004316833
61	0x3cbc2b5e	0.022969898
62	0x3b746d61	0.003729664
63	0x3e0aae9f	0.13543175
64	0x3f8359e1	1.0261804
65	0x3f8434f0	1.0328655
66	0x3f8af9c0	1.0857468
67	0x3f82d926	1.0222518
68	0x3f838d9a	1.0277588
69	0x3f7efb58	0.9960227
70	0x3f7a48ea	0.9776751
71	0x3f84ff17	1.0390347
72	0x3f80ae6c	1.0053229
73	0x3f825972	1.0183547
74	0x3f8565fa	1.0421746
75	0x3f8402d6	1.0313365
76	0x3f8b0aa0	1.0862617
77	0x3f80eed9	1.007289
78	0x3f882201	1.0635377
79	0x3f871a16	1.0554836
80	0x3f85fbdb	1.0467485
81	0x3f81606d	1.0107552
82	0x3f774593	0.96590537
83	0x3f85ee72	1.0463393
84	0x3f85ab07	1.0442818
85	0x3f87c471	1.0606824
86	0x3f8cdb57	1.1004437
87	0x3f80182c	1.0007377
88	0x3f7f16e2	0.9964429
89	0x3f7a4778	0.977653
90	0x3f87a746	1.0597923
91	0x3f8524ce	1.0401857
92	0x3f82be30	1.0214291
93	0x3f856016	1.0419948
94	0x3f802e9e	1.0014226
95	0x3f80fe6f	1.0077647
96	0x3f8652f7	1.0494069
97	0x3f807a85	1.003739
98	0x3f859844	1.0437093
99	0x3f7fcb53	0.99919623
100	0x3f88ba78	1.0681906
101	0x3f8122a7	1.00887
102	0x3f7c7c08	0.98626757
103	0x3f842af4	1.0325608
104	0x3f8137e7	1.0095185
105	0x3f85c077	1.0449361
106	0x3f7f6f50	0.99779224
107	0x3f82ffae	1.0234277
108	0x3f8830f1	1.0639936
109	0x3f7fea19	0.9996658
110	0x3f81432b	1.0098623
111	0x3f7d9234	0.99051213
112	0x3f894cc4	1.0726552
113	0x3f809583	1.0045627
114	0x3f7b9d8a	0.9828726
115	0x3f81dc69	1.0145389
116	0x3f80949f	1.0045356
117	0x3f825977	1.0183553
118	0x3f828d7c	1.0199428
119	0x3f87189e	1.0554388
120	0x3f81999e	1.0125005
121	0x3f84a49a	1.0362732
122	0x3f8359ff	1.026184
123	0x3f873974	1.0564408
124	0x3f79afd3	0.9753391
125	0x3f80e826	1.0070846
126	0x3f7bdbe4	0.983824
127	0x3f8b7e02	1.089783
128	0x39d44d42	0.00040493353
129	0xbd0483ce	-0.03235226
130	0xbca11cb3	-0.019667005
131	0x3d3b55f2	0.04573626
132	0x3d576225	0.052583832
133	0xbd1bddad	-0.038053203
134	0xbc66bc17	-0.01408293
135	0xbb222adf	-0.0024744791
136	0x3cc29336	0.023751836
137	0x3c25ea86	0.0101267155
138	0x3d8b7f94	0.06811443
139	0xbd24ccc5	-0.040234346
140	0xbcf3484a	-0.029697556
141	0xbd06204d	-0.03274565
142	0xbd8fcb03	-0.07021143
143	0xbd6c0b69	-0.05762807
144	0x3d85dcc0	0.06536245
145	0x3be587c5	0.0070047104
146	0xbc4480c8	-0.0119935945
147	0xbd166732	-0.03671951
148	0x3d9b99d2	0.07597698
149	0xbcbab33d	-0.022790546
150	0xbcc44006	-0.02395631
151	0x3cdcc3ea	0.026948888
152	0x3d27ce34	0.040968135
153	0xbc8dac54	-0.017294087
154	0x3d499da3	0.0492226
155	0x3d5a94c3	0.053364526
156	0xbcfa3465	-0.030542562
157	0xbc6ffc3d	-0.014647541
158	0x3c4ed8f7	0.012624971
159	0xbcdf26ce	-0.027240183
160	0x3dab5f0e	0.083677396
161	0x3d5d0607	0.053960826
162	0x3d6c21fd	0.0576496
163	0xbd1db055	-0.03849824
164	0xbd0252d1	-0.03181726
165	0x3ccf2507	0.02528621
166	0xbbc83d05	-0.0061107897
167	0x3d86d512	0.06583609
168	0x3c2a8f94	0.010410208
169	0x3c1f7ea2	0.009734781
170	0x3d3626e2	0.044470675
171	0x3c89dcb0	0.016828865
172	0xbcf3d27a	-0.029763449
173	0x3ca1b15a	0.019737888
174	0x3b5b5744	0.0033468762
175	0x3c8db899	0.017299937
176	0x3b933fa0	0.0044936687
177	0x3c725636	0.014791062
178	0x3cdf74b2	0.027277324
179	0x3cc1abc5	0.023641476
180	0xbc1a5711	-0.009420172
181	0x3b4d4a58	0.003132483
182	0xbd5a4fdf	-0.053298827
183	0x3c73be3c	0.014876898
184	0xbb048d23	-0.0020225726
185	0xbd8c6ed4	-0.06857076
186	0x3c9710ef	0.018440692
187	0xbd44b304	-0.048022285
188	0xbb7a489b	-0.003819025
189	0xbba66bbe	-0.005078762
190	0xbc46e18e	-0.012138737
191	0xbc2820ac	-0.010261696
192	0x3dded2b1	0.1088003
193	0x3daff601	0.085918434
194	0x3dbff05d	0.093720175
195	0x3d4f0eb9	0.05055115
196	0x3d6cf0c1	0.05784679
197	0x3c88f34a	0.016717572
198	0x3d416f01	0.047225002
199	0x3e0ae4d2	0.1356385
200	0x3d8d90ff	0.069124214
201	0x3d53e764	0.051734343
202	0x3d8f6333	0.070013426
203	0x3d3d803d	0.046264876
204	0x3db5c13c	0.08874747
205	0x3d2f0b89	0.04273561
206	0x3dace56e	0.08442198
207	0x3d72a54a	0.059239663
208	0x3d58dda8	0.052945763
209	0x3d86b851	0.06578124
210	0x3d3cd558	0.046101898
211	0x3d277edf	0.040892478
212	0x3d5217a2	0.05129207
213	0x3d5a06d3	0.053229164
214	0x3db58022	0.0886233
215	0x3c711a36	0.014715722
216	0x3c664aa2	0.01405588
217	0x3c98eea1	0.018668475
218	0x3d197712	0.03746707
219	0x3d8502d7	0.06494682
220	0x3d2f472b	0.04279248
221	0x3dafb8f3	0.08580198
222	0x3d148d92	0.036267824
223	0x3cfe72b6	0.031060558
224	0x3d5fd27c	0.054644093
225	0x3c90b73e	0.017665502
226	0x3d2e6f6f	0.04258674
227	0x3d9dae81	0.076992996
228	0x3d8776a9	0.066144295
229	0x3d877914	0.06614891
230	0x3ceb178b	0.02869775
231	0x3d4f0d80	0.050549984
232	0x3d1312d2	0.03590662
233	0x3d83092d	0.063982345
234	0x3d7e067a	0.062017895
235	0x3d7ac1c0	0.06121993
236	0x3d8fc4a2	0.070199266
237	0x3d9d19f0	0.07670963
238	0x3dc0ccf3	0.09414091
239	0x3c930112	0.017944846
240	0x3d7980e4	0.060913935
241	0x3d10706a	0.035263456
242	0x3d2c441b	0.042057138
243	0x3d607389	0.054797683
244	0x3d475dc0	0.04867339
245	0x3d487023	0.048935067
246	0x3c91047d	0.017702335
247	0x3e1cfe91	0.15331484
248	0x3e0b2b4c	0.13590735
249	0x3d09b693	0.033621382
250	0x3d51636e	0.051120214
251	0x3d83cde8	0.06435758
252	0x3be50dc8	0.0069901682
253	0x3ccaacd4	0.024740614
254	0x3ce2bdc9	0.027678387
255	0x3e10d898	0.14145124

sequential/dense/BiasAdd/ReadVariableOp f4 [32]
0	0x3d2652ab	0.040606182
1	0x3c02b037	0.007976583
2	0x3c866f8a	0.016410608
3	0x3d6c2314	0.05765064
4	0x3c333563	0.010938021
5	0xbb04bc65	-0.0020253893
6	0x3d8649b9	0.0655703
7	0x3cee1be9	0.029066043
8	0x3a80929d	0.0009809319
9	0x3c3000d8	0.010742389
10	0x3cd645eb	0.026156386
11	0x3d029f53	0.031890225
12	0xbc04aed4	-0.008098323
13	0x3bebc609	0.0071952385
14	0x3b7a4dfa	0.003819345
15	0x3d3d8c0a	0.04627613
16	0x3c09215b	0.008369769
17	0x3c657a02	0.01400614
18	0xbc27cfe9	-0.010242441
19	0x3c493afd	0.01228213
20	0x3bd93194	0.0066282246
21	0xbcc1f254	-0.023675121
22	0x3d8da0d0	0.06915438
23	0x3af6976f	0.0018813441
24	0x3d192f19	0.03739843
25	0xbce68c20	-0.028142989
26	0x3c588ae7	0.013216711
27	0x3c92b737	0.01790963
28	0x3d187e60	0.037229896
29	0x3c694bad	0.014239234
30	0xba890cf2	-0.0010456129
31	0x3c2b262c	0.010446113

sequential/dense_1/BiasAdd/ReadVariableOp f4 [3]
0	0x3c57abe0	0.013163537
1	0x3b3d8313	0.0028917238
2	0xbcca2ef8	-0.0246806

sequential/dense/MatMul f4 [32, 64]
0	0x3dcf6d4e	0.1012827
1	0xbe2a6b25	-0.16642435
2	0x3e693f5f	0.2277808
3	0x3e7eee37	0.24895559
4	0x3e89fd40	0.26951027
5	0xbdd39a1c	-0.103321284
6	0x3d87cef0	0.06631267
7	0x3e11a81c	0.14224285
8	0x3d51d7f6	0.051231347
9	0xbe3076f3	-0.17232876
10	0xbd352dda	-0.04423318
11	0xbe3770de	-0.17914149
12	0x3ea69a70	0.325397
13	0x3d97a4d1	0.07404483
14	0xbe0d914b	-0.13824956
15	0xbd395c36	-0.045253955
16	0xbe14c478	-0.14528072
17	0xbeb17d98	-0.34666133
18	0x3e9f87ef	0.31158397
19	0x3e860668	0.26176763
20	0x3de5803d	0.112061
21	0xbda123cc	-0.07868156
22	0xbe31610d	-0.17322178
23	0x3e614a4c	0.22000998
24	0xbd8378d8	-0.064195335
25	0xba4ea0cd	-0.00078822376
26	0xbc9aeb9e	-0.01891118
27	0xbe413a48	-0.18869889
28	0xbe88d2d0	-0.26723337
29	0xbcd8a591	-0.026446136
30	0xbe04f8f4	-0.12985593
31	0xbc9d582a	-0.019207079
32	0x3e890e75	0.26768842
33	0xbd4a4b53	-0.04938824
34	0xbc43ad4a	-0.011943171
35	0xbd157166	-0.0364851
36	0x3d6a8240	0.057253122
37	0xbbef6513	-0.00730575
38	0x3e782693	0.24233465
39	0x3e2e5d67	0.17027818
40	0x3ed2fda8	0.4120915
41	0xbdb14d5a	-0.08657332
42	0xbeb532cb	-0.35390314
43	0xbddef092	-0.10885729
44	0x3e952a85	0.29134002
45	0xbea98590	-0.33109713
46	0x3e1692e5	0.14704473
47	0x3d688647	0.05676868
48	0xbe6de2e2	-0.2323108
49	0xbe85cf11	-0.26134542
50	0xbdd5d337	-0.10440677
51	0xbe548539	-0.20753945
52	0xbe019710	-0.12655282
53	0xbd43adda	-0.04777322
54	0x3e3eef3e	0.18645951
55	0xbdc98b01	-0.09840966
56	0xbebfeea4	-0.37486756
57	0xbd09bdd8	-0.033628315
58	0xbe4a57f6	-0.19760117
59	0xbe34b53e	-0.17647263
60	0x3e1a63ab	0.15077083
61	0xbe69b429	-0.22822632
62	0x3de1f8c0	0.110337734
63	0xbe835173	-0.25648078
64	0xbc00dba0	-0.007864863
65	0xbba3f334	-0.0050033573
66	0x3e5cea52	0.21573761
67	0xbe928098	-0.28613734
68	0xbe538ba1	-0.20658733
69	0xbaf090b0	-0.0018353667
70	0xbd5ab6a1	-0.053396825
71	0x3e1b4bf4	0.15165693
72	0xbd001c60	-0.03127706
73	0x3e4843c1	0.19557096
74	0x3c47a3a5	0.012185012
75	0x3e9515d3	0.29118213
76	0x3e99f764	0.30071557
77	0x3e35f5f6	0.17769608
78	0x3e3c3ad4	0.18381816
79	0x3ce5b309	0.028039472
80	0x3e0a5229	0.13507904
81	0xbe6a2fa6	-0.22869739
82	0xbd271944	-0.04079558
83	0xbd98276c	-0.07429394
84	0x3de3de9c	0.11126444
85	0x3e49cd18	0.19707143
86	0xbd63233c	-0.055453524
87	0x3c301319	0.010746741
88	0xbe7119ea	-0.23545042
89	0xbdc0b324	-0.09409168
90	0x3baeb3da	0.0053314986
91	0xbe19d619	-0.15023078
92	0x3d1879cd	0.037225533
93	0x3ea5b838	0.3236711
94	0x3dd6b279	0.1048326
95	0x3e03fb37	0.128888
96	0xbe319d90	-0.17345262
97	0x3d5eec7c	0.054424748
98	0xbe8fbf59	-0.28075674
99	0x3d8eb6d8	0.069684684
100	0x3dcbea8a	0.09956844
101	0xbe8fe209	-0.2810214
102	0xbe1c0799	-0.15237273
103	0xbe8c52be	-0.27406877
104	0x3da3ed7a	0.080042794
105	0xbd170bab	-0.03687636
106	0xbe7fbdc6	-0.24974737
107	0x3e13a961	0.14420082
108	0xbd67db42	-0.056605585
109	0x3d46bad5	0.04851802
110	0x3d0ae1eb	0.03390686
111	0x3e174588	0.14772618
112	0x3cb813e1	0.022470417
113	0x3d8aa832	0.06770362
114	0x3e0728f5	0.13199218
115	0xbe169641	-0.14705755
116	0x3e0e9d57	0.13927208
117	0x3e6bd0c4	0.23028857
118	0xbcc9941c	-0.024606757
119	0xbe410eff	-0.18853377
120	0xbe4c581e	-0.19955489
121	0x3dabc229	0.083866425
122	0xbe81fdb2	-0.25388867
123	0x3e696623	0.22792868
124	0x3e84d15a	0.25940973
125	0x3e0dd6d3	0.1385148
126	0xbe100ae4	-0.14066654
127	0xbe65adf7	-0.22429644
128	0x3e9e2ffa	0.30895978
129	0x3e545149	0.20734133
130	0xbdb1e1b6	-0.08685629
131	0x3e307559	0.17232265
132	0xbd473a80	-0.048639774
133	0x3d47ec38	0.04880926
134	0xbe295e2a	-0.16539827
135	0x3d5f31a4	0.0544907
136	0xbe172da1	-0.147635
137	0xbe169dcb	-0.1470863
138	0x3c95d4a6	0.018289875
139	0x3e5d07c5	0.21584995
140	0x3c20b998	0.009809874
141	0x3d7a81f8	0.061159104
142	0x3bfe7f98	0.007766675
143	0xbe8e0ad0	-0.27742624
144	0xbe5c3d67	-0.21507798
145	0x3ba89c61	0.005145595
146	0xbd923c23	-0.071403764
147	0x3c792d0a	0.015208492
148	0xbd5b0cab	-0.053478878
149	0xbe0b3673	-0.1359499
150	0x3e07a7e1	0.13247634
151	0xbdec56dc	-0.115400046
152	0x3e6bf791	0.23043658
153	0x3e1640b0	0.14673114
154	0x3e5476d9	0.20748462
155	0x3d0f19b4	0.03493662
156	0x3e52a3a7	0.20570241
157	0xbe788cc2	-0.24272445
158	0x3dbcd9f6	0.0922126
159	0x3de090c2	0.1096511
160	0xbe27bf36	-0.16381535
161	0x3e34acb4	0.17644006
162	0x3e2eab02	0.17057422
163	0x3d0aee42	0.033918627
164	0x3dbf5a04	0.09343341
165	0x3e485cf8	0.19566715
166	0x3e3d2b40	0.1847353
167	0x3cf43e94	0.029814996
168	0x3c7523de	0.014962165
169	0x3e442cba	0.19157687
170	0xbe3cbd40	-0.18431568
171	0xbe81ce8e	-0.253529
172	0x3e0b738c	0.13618296
173	0x3d1d06c6	0.038336538
174	0x3df64676	0.12025158
175	0xbe0f5cce	-0.14000246
176	0x3e3e55a7	0.18587361
177	0x3e49d54d	0.19710274
178	0xbd6392b7	-0.05555984
179	0x3c23699c	0.00997391
180	0xbd3f2115	-0.04666241
181	0xbe7bb485	-0.24580581
182	0x3d2349c3	0.039865267
183	0x3e89e3ef	0.26931712
184	0xbe52acad	-0.20573683
185	0x3e060ee2	0.13091615
186	0x3e27d56c	0.16390008
187	0xbe8c5abb	-0.27412972
188	0x3e5c3f3d	0.21508498
189	0xbdbf7d89	-0.09350116
190	0x3e6b345c	0.22969192
191	0xbdedc3d5	-0.116096176
192	0xbe9d6539	-0.3074129
193	0x3b8f0e7b	0.00436574
194	0x3d127a49	0.03576115
195	0xbe646d1f	-0.22307251
196	0x3e8d700f	0.27624556
197	0x3c5c8bc5	0.013461058
198	0x3d0177df	0.03160846
199	0xbd4f40d8	-0.05059895
200	0x3e36845a	0.17823926
201	0x3e346432	0.17616346
202	0x3e2feb46	0.17179593
203	0xbe028005	-0.12744148
204	0xbe9f4c47	-0.31112882
205	0xbe3db9a0	-0.18527842
206	0xbdce1ffc	-0.10064694
207	0x3d5e1eee	0.054228716
208	0xbe054a72	-0.1301668
209	0x3e9b5884	0.3034097
210	0x3df1a0b7	0.11798232
211	0xbd240f7a	-0.040053822
212	0x3e5a3989	0.2131101
213	0x3e64a974	0.22330266
214	0xbde11c7c	-0.10991761
215	0x3e85d5b4	0.26139605
216	0x3e3853ea	0.1800076
217	0xbe8f331e	-0.27968687
218	0x3d69f568	0.057118803
219	0xbd91db48	-0.07121903
220	0x3d1d50a9	0.038407
221	0x3dbe17c9	0.092818804
222	0xbe93c486	-0.28860873
223	0x3dc23a63	0.09483793
224	0xbe1f1e5e	-0.15538928
225	0x3e219bb1	0.15782048
226	0x3dbefe5a	0.093258575
227	0x3d741177	0.05958697
228	0xbe8393cf	-0.25698707
229	0x3e469ceb	0.19395797
230	0xbe7a882e	-0.24466011
231	0x3e4a3a1c	0.1974873
232	0xbdb2c10a	-0.087282255
233	0x3de3eade	0.11128782
234	0x3dc676f5	0.09690658
235	0xbc913aa5	-0.01772816
236	0xbea5f7fc	-0.3241576
237	0x3e60aa11	0.21939875
238	0xbdd64155	-0.1046168
239	0x3e85cc27	0.26132318
240	0x3e93f3b9	0.28896883
241	0x3e50ceba	0.2039136
242	0xbe6ea8fc	-0.2330665
243	0x3d4ae84f	0.049537953
244	0x3e5c76e8	0.21529734
245	0xbdb7feb5	-0.089841284
246	0xbe1f744c	-0.15571707
247	0x3e106a88	0.14103138
248	0x3ce822b3	0.028336858
249	0xbbb68864	-0.0055704582
250	0xbe1566dc	-0.14590019
251	0x3e6c682f	0.23086618
252	0xbde76a7d	-0.11299608
253	0xbe054fbc	-0.13018698
254	0xbe7f7398	-0.2494644
255	0xbcee12e5	-0.029061744

sequential/dense_1/MatMul f4 [3, 32]
0	0xbd977755	-0.07395808
1	0x3e8efcfa	0.2792738
2	0xbeb44426	-0.35208243
3	0x3edc517e	0.43030924
4	0x3ed4c8a1	0.41559318
5	0xbd9446db	-0.07240077
6	0x3ec07bdf	0.37594506
7	0xbd9e99b7	-0.077441625
8	0x3ecdd438	0.40200973
9	0xbd552388	-0.05203584
10	0x3ebb750e	0.36612743
11	0xbea074dc	-0.31339157
12	0x3ec53cb2	0.3852287
13	0x3d9b588f	0.075852506
14	0xbd5715a8	-0.052510887
15	0x3d6f7a47	0.058466222
16	0xbebf75c1	-0.37394527
17	0x3eceeba3	0.40414152
18	0xbede3d7f	-0.43406293
19	0x3ef041d4	0.46925223
20	0x3ddfac13	0.109214924
21	0xbe9bf812	-0.304627
22	0x3e29dd35	0.1658829
23	0xbef8bc57	-0.48581192
24	0xbae6385f	-0.0017564407
25	0x3e313cf3	0.17308407
26	0x3eec457d	0.46146765
27	0xbefb04c5	-0.49027076
28	0xbe6ad458	-0.22932565
29	0xbefeb803	-0.49749765
30	0xbec4e906	-0.38459033
31	0xbef188ab	-0.47174582
32	0xbeca95e4	-0.39567482
33	0xbe1683e3	-0.14698748
34	0x3e1f3dcc	0.15550917
35	0x3e27a9f1	0.16373421
36	0xbe7b2bac	-0.24528378
37	0x3e739365	0.23786695
38	0x3e74fb15	0.23923905
39	0x3ec05695	0.37566057
40	0xbec67d7b	-0.3876761
41	0x3e8afcaf	0.27145907
42	0xbeee6321	-0.46560004
43	0x3e646da8	0.22307456
44	0x3e325d2b	0.17418353
45	0xbee0b4d5	-0.43887964
46	0xbe3a00e3	-0.18164401
47	0xbdadb2c6	-0.08481364
48	0xbebcffb9	-0.3691385
49	0xbe27fc07	-0.16404735
50	0x3d35e109	0.044404063
51	0x3e571060	0.2100234
52	0x3eb10a46	0.3457815
53	0x3dd30b1f	0.103048556
54	0x3ca128d3	0.019672787
55	0xbe20c3a1	-0.15699627
56	0x3dde15d9	0.10844011
57	0x3e2785cf	0.16359638
58	0xbe4119aa	-0.18857446
59	0xbc50d6ee	-0.012746556
60	0x3e831023	0.2559825
61	0x3ec80d25	0.39072528
62	0x3e1aca09	0.15116133
63	0xbd272bc1	-0.04081321
64	0x3e1793d7	0.1480249
65	0xbe08aac8	-0.13346398
66	0x3eb3774d	0.35051957
67	0xbe3fad95	-0.1871856
68	0xbdfb150c	-0.12259874
69	0x3eab15f3	0.33415183
70	0xbeb58829	-0.35455444
71	0x3e70a1b7	0.2349919
72	0x3e9a2121	0.301034
73	0x3ea19e49	0.31566074
74	0x3cc9dc32	0.02464113
75	0xbe36c1fa	-0.17847434
76	0x3e7fde6b	0.2498719
77	0xbe730298	-0.23731458
78	0x3eb6e484	0.3572122
79	0xbe9e4e33	-0.30919036
80	0x3e010974	0.12601262
81	0xbe15160d	-0.14559193
82	0xbd53f4ec	-0.051747248
83	0x3e84b6f1	0.25920823
84	0x3d34486c	0.04401438
85	0xbeac87a3	-0.33697233
86	0xbee66f0b	-0.45006594
87	0xbdb6c020	-0.08923364
88	0xbe36aa61	-0.17838432
89	0x3e982fac	0.2972387
90	0x3d57dc63	0.05270041
91	0xbda91fd5	-0.082580246
92	0x3eb97464	0.36221611
93	0xbc1ae0d2	-0.009453015
94	0x3eaea294	0.34108412
95	0xbdafd2df	-0.08585142

sequential/lstm/Read_2/ReadVariableOp1 f4 [512]
0	0x3cead72e	0.028667059
1	0x3ca2c6c5	0.019870171
2	0x3d386194	0.045014933
3	0x3c6b9d5f	0.014380782
4	0x3c99fba0	0.018796742
5	0xbb5e7e2d	-0.0033949718
6	0x3d6bcecb	0.05757026
7	0x3c58059c	0.013184931
8	0x3c96e377	0.01841901
9	0xbb69cc3d	-0.0035674714
10	0x3a25096f	0.0006295656
11	0x3c329359	0.010899388
12	0x3da61185	0.0810881
13	0x3c2c9710	0.010534063
14	0x3ba71623	0.0050990744
15	0xbc8b4c43	-0.017004138
16	0x3cf52c40	0.029928327
17	0x3ac1ed0f	0.001479538
18	0xbc3180c8	-0.0108339265
19	0xbb88fa2b	-0.004180213
20	0x3ca99ba5	0.0207041
21	0x3da89341	0.082312115
22	0xbbc5ee32	-0.006040358
23	0x3c26ebfb	0.010188098
24	0x3c42f752	0.011899786
25	0xbbf19645	-0.00737265
26	0x3c99fd61	0.018797578
27	0x3c97b1c6	0.018517386
28	0x3d2b2ffc	0.04179381
29	0x3d368c44	0.04456736
30	0x3be6d8d3	0.0070448904
31	0xbc9a319b	-0.018822482
32	0x3c9a8246	0.018860947
33	0x3c131835	0.008977939
34	0x3cad5c1c	0.021162085
35	0xb9a3f724	-0.00031273917
36	0x3cb6db0d	0.022321248
37	0x3c967228	0.01836498
38	0x3b06b46b	0.0020554315
39	0x3d42d789	0.04756883
40	0x3d18dcbf	0.037319895
41	0x3bcad85c	0.006190343
42	0x3b8dfcdc	0.0043331217
43	0x3b054f22	0.0020341356
44	0x3caccb1a	0.02109294
45	0x3c300afd	0.010744807
46	0x3bd72e58	0.006566804
47	0xbcaa9391	-0.020822318
48	0x3cf6a351	0.030107172
49	0xbb3ac051	-0.0028495977
50	0x3d20c6c1	0.039252046
51	0x3c6dae2e	0.01450686
52	0x3cf1075b	0.029422453
53	0x3c6c8fe1	0.0144386
54	0xbc876c70	-0.0165312
55	0x3b7e0283	0.0038758821
56	0x3a5559e4	0.00081387
57	0xbcbf171a	-0.023326445
58	0x3c985e33	0.018599605
59	0xbc3f85bc	-0.0116896
60	0x3c9b9ecd	0.01899662
61	0x3cd39737	0.02582894
62	0x3d228d41	0.03968549
63	0xbbae2631	-0.0053146114
64	0x3d3de46a	0.04636041
65	0x3c92261d	0.01784044
66	0xbc21d1f4	-0.009876717
67	0x3cbffdb6	0.023436408
68	0xba8f7a5f	-0.0010946504
69	0x3cb59303	0.022164827
70	0x3d079f53	0.033110928
71	0x3ceeeb2c	0.029164873
72	0x3c2223de	0.009896247
73	0x3c532419	0.012887024
74	0x3d2a4b27	0.041575577
75	0x3cafcbcf	0.021459488
76	0x3bc3e509	0.005978231
77	0x3bece485	0.00722939
78	0x3d1ea6e8	0.038733393
79	0x3d2a0105	0.04150488
80	0xbb917e86	-0.0044401316
81	0xba8726eb	-0.0010311281
82	0xbc090fde	-0.008365599
83	0x3c45d417	0.012074492
84	0x3be792e1	0.00706707
85	0x3d47b971	0.048760835
86	0xbac73580	-0.0015198439
87	0x3c8975b3	0.016779756
88	0x3c880bcc	0.016607188
89	0x3c884517	0.016634507
90	0x3c55e8a3	0.013055953
91	0x3bdb719a	0.006696892
92	0x3d2bef69	0.041976366
93	0x3c515fa4	0.01277915
94	0x3d21fd84	0.039548412
95	0x3cac38b6	0.021023136
96	0x3d960a39	0.073261686
97	0x3d802fcf	0.06259119
98	0x3cbdaa69	0.023152547
99	0x3c45bba0	0.012068659
100	0x3d5deb0f	0.054179247
101	0x3cd80d53	0.026373541
102	0x3cad3e8b	0.021147987
103	0x3d66b3d5	0.056323845
104	0x3c50f3c6	0.012753433
105	0x3c8f65fc	0.017504685
106	0x3c05f6a8	0.008176483
107	0x3cb460d3	0.022018826
108	0xbb59e78d	-0.0033249587
109	0x3bd9966d	0.0066402466
110	0xbb91c374	-0.0044483487
111	0x3c2f0b89	0.010683903
112	0x3d32f4f5	0.04369064
113	0xbb0b9759	-0.0021299927
114	0x3b9be4e1	0.004757509
115	0x3caf47c7	0.02139653
116	0x3bae44fa	0.0053182812
117	0xbbd0ff72	-0.0063781077
118	0x3cf20b11	0.029546292
119	0x3ca95b78	0.020673499
120	0x3ca9e420	0.020738661
121	0x3d18b482	0.03728152
122	0xbc03fca2	-0.008055838
123	0x38d48904	0.00010134469
124	0xbc33ce55	-0.010974486
125	0x3cda7b79	0.026670204
126	0xbb08573f	-0.0020803956
127	0xbb087a22	-0.002082475
128	0x3f7e78dd	0.9940317
129	0x3f7a81e8	0.9785447
130	0x3f7deef6	0.9919275
131	0x3f8252f1	1.0181562
132	0x3f7ed23b	0.99539536
133	0x3f80b4c9	1.0055171
134	0x3f82e7af	1.0226954
135	0x3f8160e5	1.0107695
136	0x3f7c3443	0.98517245
137	0x3f811310	1.0083942
138	0x3f7db42b	0.9910304
139	0x3f819215	1.0122706
140	0x3f79b714	0.9754498
141	0x3f823c17	1.0174588
142	0x3f7fc50a	0.9991003
143	0x3f798958	0.97475195
144	0x3f809046	1.0044029
145	0x3f8044f3	1.0021042
146	0x3f791ed2	0.97312653
147	0x3f7c07ca	0.98449385
148	0x3f7fe14e	0.9995316
149	0x3f8d8963	1.1057552
150	0x3f82dca0	1.022358
151	0x3f7b6fab	0.98217267
152	0x3f7a50d8	0.9777961
153	0x3f79cdb3	0.975795
154	0x3f808789	1.0041362
155	0x3f7c022b	0.9844081
156	0x3f7f4aae	0.9972333
157	0x3f7ba702	0.9830171
158	0x3f7d25e3	0.98885936
159	0x3f80f640	1.007515
160	0x3f7d13e5	0.9885848
161	0x3f805063	1.0024532
162	0x3f809f86	1.0048683
163	0x3f7dcf4a	0.99144423
164	0x3f8001c5	1.000054
165	0x3f7c6af1	0.9860068
166	0x3f807afb	1.0037531
167	0x3f7c7e75	0.9863046
168	0x3f8337f5	1.0251452
169	0x3f81945f	1.0123404
170	0x3f81ac5a	1.0130723
171	0x3f7f3769	0.99693924
172	0x3f80f289	1.0074016
173	0x3f7ca1a9	0.98684174
174	0x3f7e5e79	0.99362904
175	0x3f84287b	1.0324854
176	0x3f815ced	1.0106484
177	0x3f7d7d2b	0.99019116
178	0x3f81a943	1.012978
179	0x3f81036f	1.0079173
180	0x3f7cd3c0	0.98760605
181	0x3f81a4ce	1.0128419
182	0x3f7d1adb	0.98869103
183	0x3f81d9b2	1.014456
184	0x3f84f244	1.0386434
185	0x3f766f82	0.962639
186	0x3f81968f	1.0124072
187	0x3f80c8ab	1.0061239
188	0x3f846bdb	1.0345415
189	0x3f7e46b2	0.9932662
190	0x3f7d21fb	0.98879975
191	0x3f80278c	1.0012069
192	0x3f7b67c1	0.9820519
193	0x3f813e25	1.009709
194	0x3f7e8e0c	0.99435496
195	0x3f840225	1.0313154
196	0x3f822985	1.0168921
197	0x3f7f44d2	0.99714386
198	0x3f82754d	1.0192047
199	0x3f8a8654	1.0822244
200	0x3f7e890e	0.9942788
201	0x3f800f1b	1.000461
202	0x3f79d1ed	0.97585946
203	0x3f80e55b	1.0069994
204	0x3f8074a5	1.0035597
205	0x3f828a53	1.0198463
206	0x3f771057	0.9650931
207	0x3f7ed080	0.99536896
208	0x3f7d5928	0.98964167
209	0x3f80800c	1.0039077
210	0x3f77e075	0.9682687
211	0x3f7fc1c6	0.9990505
212	0x3f82da50	1.0222874
213	0x3f7abc59	0.97943646
214	0x3f80b66b	1.005567
215	0x3f7f80ac	0.9980571
216	0x3f7fb281	0.9988175
217	0x3f789f87	0.9711842
218	0x3f8155a6	1.0104263
219	0x3f8113cd	1.0084168
220	0x3f85b572	1.0445998
221	0x3f7b7824	0.98230195
222	0x3f7ff014	0.99975705
223	0x3f825768	1.0182924
224	0x3f796f79	0.9743572
225	0x3f804353	1.0020546
226	0x3f82f0ea	1.0229771
227	0x3f816936	1.0110233
228	0x3f7bf143	0.9841501
229	0x3f7c0efa	0.9846035
230	0x3f82682b	1.018804
231	0x3f80aafe	1.0052183
232	0x3f7fff22	0.99998677
233	0x3f81ddd8	1.0145826
234	0x3f82116c	1.0161567
235	0x3f8616a7	1.0475663
236	0x3f80ded7	1.0068005
237	0x3f7f3d8e	0.997033
238	0x3f8074d1	1.003565
239	0x3f8561d1	1.0420476
240	0x3f789e9a	0.97117007
241	0x3f81df66	1.0146301
242	0x3f7c30b2	0.98511803
243	0x3f7bcaee	0.9835652
244	0x3f801a50	1.000803
245	0x3f8230a0	1.0171089
246	0x3f754267	0.95804447
247	0x3f8298a5	1.0202833
248	0x3f7fcc07	0.99920696
249	0x3f80b391	1.0054799
250	0x3f7b0884	0.9805987
251	0x3f83d112	1.0298178
252	0x3f795d69	0.9740816
253	0x3f812013	1.0087913
254	0x3f7c30b0	0.9851179
255	0x3f8332f4	1.0249925

while/MatMul_11 f4 [512, 128]
0	0x3c5c8dd9	0.0134615535
1	0xbdb56472	-0.08857049
2	0x3c8d2a12	0.017231975
3	0xbda80688	-0.08204371
4	0xbd9d4943	-0.07679989
5	0x3c40c1e3	0.011764976
6	0xbb02d8bd	-0.0019965612
7	0x3d09515e	0.033524863
8	0x3cc483d7	0.023988647
9	0xbcf9d369	-0.030496316
10	0xbb2bbd4b	-0.0026205357
11	0x3b2764b4	0.0025542201
12	0x3d55d601	0.052206043
13	0xbd138acb	-0.036021035
14	0xbcb4a433	-0.022050953
15	0xbd4689f9	-0.048471425
16	0xbc3f08d7	-0.011659822
17	0x3c2a72ad	0.010403317
18	0x3caf3a12	0.021389995
19	0xbbc28721	-0.005936519
20	0xbe0b7e32	-0.13622358
21	0xbabc2a16	-0.0014355804
22	0xbbb08129	-0.005386491
23	0xbb3434b0	-0.0027497225
24	0xbda004a1	-0.07813383
25	0xbd9c5bb6	-0.0763468
26	0x3ddd1ebb	0.10796877
27	0x3a8a278d	0.0010540352
28	0x3c810b3b	0.015752425
29	0x3cfc0ed5	0.030768791
30	0x3cdf9747	0.027293814
31	0xbdbd7af1	-0.09251965
32	0x3ca7b831	0.020473571
33	0xbd0f02b5	-0.03491469
34	0xbce41c3f	-0.0278455
35	0xbd0419ee	-0.03225129
36	0x3cd03ed4	0.025420584
37	0x3dc588b7	0.09645217
38	0x3c7567ff	0.014978408
39	0xbdbbfc33	-0.091789626
40	0x3d3cf5d9	0.046132896
41	0x3d7e83cb	0.062137406
42	0x3cb0b907	0.021572603
43	0xbbf124a5	-0.0073591047
44	0x3c968741	0.018375041
45	0x3d8efa07	0.06981283
46	0xbd7d3714	-0.061820105
47	0xbe2bf8c3	-0.16794114
48	0x3c2e656c	0.010644298
49	0x3d869308	0.06571013
50	0xbdea87a2	-0.11451651
51	0x3d093fcc	0.033508107
52	0x3cc28591	0.02374533
53	0x3d33e980	0.043923855
54	0x3ce089a5	0.027409384
55	0x3cfdba22	0.030972544
56	0x3dc7f6b4	0.09763852
57	0xbbb694e8	-0.00557195
58	0xbb98256b	-0.0046431324
59	0xbcb07c26	-0.021543574
60	0x3d9d85dd	0.07691548
61	0x3d52de3c	0.05148147
62	0xbdd392ff	-0.10330772
63	0xbd0d84e5	-0.034550566
64	0xbd71be65	-0.059019465
65	0x3bd094e4	0.0063654054
66	0xbc75e4c7	-0.015008158
67	0xbdcf0f75	-0.1011037
68	0xbc0f0271	-0.008728609
69	0x3db1f55a	0.08689375
70	0x3cd363d9	0.025804447
71	0xbd0bc046	-0.034118913
72	0xbd50ba27	-0.05095878
73	0xbcac18cf	-0.021007923
74	0x3c988aa0	0.018620789
75	0x3c5148b2	0.01277368
76	0xbd013906	-0.031548522
77	0xbd6be512	-0.057591505
78	0xbd24711a	-0.040146925
79	0xbd67887c	-0.056526646
80	0xbd65cf91	-0.056106154
81	0xbb25ec62	-0.0025317897
82	0x3c52048a	0.012818465
83	0x3d150daa	0.036389984
84	0xbe0e7257	-0.13910805
85	0xbaedba3a	-0.0018137165
86	0xbb8e5850	-0.0043440238
87	0xbe19e929	-0.1503035
88	0xbd575d5d	-0.052579273
89	0x3d634c1e	0.055492513
90	0xbacbf8f8	-0.0015561869
91	0xbc0b166b	-0.008489232
92	0x3bd391f1	0.0064566066
93	0xbdd94829	-0.106094666
94	0xbd032932	-0.03202171
95	0x3d5ba75d	0.053626407
96	0xbd61f0e8	-0.055161387
97	0x3d8bf475	0.06833736
98	0xbd5d3c02	-0.054012306
99	0x3b29f9aa	0.0025936165
100	0x3d301fa8	0.04299894
101	0xbc0dfe05	-0.00866652
102	0x3c0644b2	0.008195089
103	0xbd4f5495	-0.050617773
104	0x3d589bf2	0.052883096
105	0xbc6ab75a	-0.014325941
106	0x3dcba5e4	0.099437505
107	0x3d0b295c	0.03397499
108	0x3d2e8e5b	0.04261623
109	0x3d0a9838	0.033836573
110	0xbd53c1d5	-0.051698525
111	0x3d733dd4	0.059385136
112	0xbd8c2807	-0.06843572
113	0x3d8464f9	0.064645715
114	0xbd05620a	-0.0325642
115	0x3d92f3fc	0.071754426
116	0x3db68969	0.08912928
117	0x3ce1f0c1	0.02758062
118	0xbd7e941a	-0.06215296
119	0x3cba9ed3	0.022780811
120	0x3d2296a3	0.03969444
121	0xbd4c631f	-0.049899217
122	0x3cb92145	0.022598872
123	0xbd519cb4	-0.051174834
124	0x3ccc9a44	0.024975903
125	0xbc9dc887	-0.019260658
126	0x3c8c9f54	0.017165817
127	0x3cb36bdf	0.021902023
128	0x3c0b61f2	0.008507239
129	0xbd04e02b	-0.032440346
130	0xbc80cadc	-0.01572173
131	0xbcb898bf	-0.022533773
132	0x3d995e1f	0.07488655
133	0xbd4cd63d	-0.050009
134	0x3c261a7f	0.010138153
135	0xbd0210d6	-0.031754337
136	0xbdca3bdb	-0.09874698
137	0x3d54a819	0.051918123
138	0x3d53f3cd	0.05174618
139	0xbd11114e	-0.035416894
140	0xbe0d5fb3	-0.13806038
141	0x3d13a15d	0.03604256
142	0xbd5b5dd6	-0.053556286
143	0xbd883f37	-0.06652682
144	0xbd42f292	-0.047594614
145	0xbd4d0852	-0.050056763
146	0xbcb07b7b	-0.021543255
147	0xbd190dc0	-0.03736663
148	0x3dc7e0ab	0.09759649
149	0x3b6a65e7	0.0035766305
150	0xbd02c761	-0.031928424
151	0xbd8091b0	-0.06277788
152	0xbda5cd79	-0.080958314
153	0x3d1aa980	0.037759304
154	0x3d78af2a	0.060713924
155	0xbd9562b8	-0.0729422
156	0x3d56cba9	0.05244032
157	0xbd946713	-0.07246222
158	0x3bbc0d97	0.0057389247
159	0xbe0a216c	-0.13489312
160	0xbdbb9ac7	-0.09160381
161	0x3d41c5bf	0.047307726
162	0x3d07427c	0.03302239
163	0x3d47c63a	0.048773028
164	0x3d06336a	0.032763876
165	0x3d4bfc8e	0.0498014
166	0xbd772501	-0.060338024
167	0x3dd7a941	0.105303295
168	0xbdaaaaaa	-0.08333333
169	0x3c794a57	0.015215478
170	0x3de4d987	0.111743025
171	0xbd8b1245	-0.06790594
172	0x3c2e6bf6	0.010645857
173	0x3cc49296	0.023995679
174	0xbe22d667	-0.159021
175	0xbccfb9d2	-0.02535716
176	0xbc906fb3	-0.017631387
177	0x3d9a8f07	0.075468116
178	0xbd336596	-0.04379805
179	0x3ce10495	0.027468005
180	0x3c22dd92	0.009940522
181	0xbaed7aaa	-0.0018118222
182	0xbc91a1fe	-0.01777744
183	0x3d918f7f	0.07107448
184	0x3cdb5f54	0.026778854
185	0xbc38e590	-0.011285201
186	0xbd45ad51	-0.04826099
187	0x3e0f0eb3	0.13970451
188	0x3cee948f	0.029123573
189	0xbd4328cd	-0.047646333
190	0x3d7c6aac	0.061625168
191	0x3d30ae7c	0.04313515
192	0xbccdca75	-0.025120953
193	0xbd52adc0	-0.051435232
194	0x3d02c546	0.031926416
195	0x3c50626b	0.012718777
196	0x3c262922	0.010141643
197	0xbc3730a3	-0.0111810295
198	0x3dbc9fe9	0.09210188
199	0x3d81aa4f	0.06331312
200	0x3cedd603	0.029032713
201	0xbbb7ccee	-0.0056091463
202	0xbd77925f	-0.060442325
203	0x3dacdeab	0.08440908
204	0x3d6e8676	0.0582337
205	0xbdc3cf78	-0.09561056
206	0xbd030685	-0.03198864
207	0x3cf36ab4	0.029713966
208	0x3ce8b5ef	0.028407065
209	0xbd74202f	-0.059601005
210	0xbbe01df8	-0.00683951
211	0x3e251758	0.16122186
212	0x3cd38d3f	0.025824187
213	0x3cc724a9	0.024309473
214	0xbdb9b493	-0.09067645
215	0x3dd66516	0.10468499
216	0xbd910c98	-0.0708248
217	0xbc146770	-0.009057865
218	0xbd1590f0	-0.036515176
219	0xbce83c14	-0.02834896
220	0x3d3fb977	0.046807732
221	0xbd21eab6	-0.03953048
222	0x3d8c4a7b	0.068501435
223	0x3d2fdea3	0.042936932
224	0xbcbe02d0	-0.0231947
225	0xbd2ff575	-0.042958695
226	0xbd9e0f8a	-0.077178076
227	0xbd8c1930	-0.06840742
228	0x3cd0b120	0.025475085
229	0x3df0eb46	0.11763625
230	0x3c1330c2	0.008983793
231	0xbd8dc286	-0.06921868
232	0xbdaced98	-0.08443755
233	0x3d9b4c07	0.075828604
234	0x3e242840	0.16030979
235	0x3d81fe27	0.06347304
236	0xbd803f57	-0.06262081
237	0xbd8102c1	-0.062993534
238	0x3ce69c1d	0.028150612
239	0xbbcedf87	-0.0063132676
240	0x3dcd692f	0.10029828
241	0x3d9a5c5d	0.07537148
242	0x3d7663bc	0.060153708
243	0xbda9d315	-0.08292214
244	0x3d8277cd	0.063705064
245	0xbe0c58d1	-0.13705756
246	0x3c6abbb2	0.014326977
247	0x3de759cd	0.11296425
248	0x3cbaa876	0.022785407
249	0xbd1bc6a0	-0.03803122
250	0x3dc47ad7	0.09593742
251	0xbd8c9d27	-0.06865912
252	0xbd86397b	-0.06553932
253	0xbd34bf4a	-0.04412774
254	0xbbd07610	-0.0063617304
255	0xbc6340af	-0.013870402

while/MatMul f4 [512, 1]
0	0x3e15b622	0.1462026
1	0x3e2d9f01	0.16955186
2	0x3c05fbe9	0.008177736
3	0x3e8b376d	0.27190724
4	0xbdd782f4	-0.10523024
5	0xbe043d31	-0.12913968
6	0x3e524b4e	0.20536539
7	0x3e857009	0.2606204
8	0x3e89af09	0.26891354
9	0x3debbb48	0.115103304
10	0x3d155d5a	0.03646598
11	0xbe3fd1f2	-0.18732432
12	0xbe2904ac	-0.16505688
13	0xbe9d6a7c	-0.30745304
14	0xbda5bcdd	-0.080926634
15	0xbe4d10d6	-0.20025954
16	0xbdbbc2b6	-0.091679975
17	0xbd9b13a5	-0.07572106
18	0xbc7e46c2	-0.0155198
19	0x3e63407e	0.2219257
20	0x3e3021fc	0.17200464
21	0x3efaa817	0.48956367
22	0xbedb6037	-0.42846844
23	0xbe1151d1	-0.14191367
24	0xbc6cdb67	-0.0144566065
25	0x3df58ff6	0.11990349
26	0x3e011195	0.12604363
27	0x3dec4e45	0.11538366
28	0xbe478139	-0.19482888
29	0x3e315f8c	0.17321604
30	0xbdc5f602	-0.09666063
31	0xbeb7eb64	-0.35921776
32	0xbdfbe59d	-0.12299655
33	0xbe57f258	-0.2108854
34	0xbe2c060e	-0.16799185
35	0x3dd5eba6	0.10445337
36	0x3d9ed0ec	0.077546924
37	0x3de21430	0.11039007
38	0xbe8ce5de	-0.27519125
39	0x3e9bd2b2	0.30434185
40	0x3da19b97	0.078910045
41	0xbe868974	-0.26276743
42	0xbe4396b2	-0.19100454
43	0x3d8206f9	0.06348986
44	0xbe179883	-0.14804272
45	0x3e0d2e80	0.1378727
46	0x3e23bef3	0.1599081
47	0x3dd71bb4	0.10503331
48	0x3e464336	0.19361576
49	0x3d9e325b	0.07724448
50	0x3d111c82	0.035427578
51	0xbd4d4f8e	-0.050124697
52	0x3da2fb4e	0.07958089
53	0xbe3fc9a8	-0.1872927
54	0x3db1a426	0.08673887
55	0xbdec770d	-0.11546145
56	0xbeaa7572	-0.3329273
57	0xbd2fb046	-0.042892717
58	0x3e8952ef	0.26821086
59	0xbdb1e510	-0.08686268
60	0x3e9d4f1c	0.30724418
61	0xbdf889ce	-0.12135659
62	0x3e44dd41	0.19225027
63	0xbcc57904	-0.024105556
64	0xbdf20845	-0.118179835
65	0xbdcd3d6f	-0.10021483
66	0xbdc1f9e1	-0.09471489
67	0x3c308bf4	0.010775555
68	0xbdd399c1	-0.103320606
69	0x3d53062c	0.051519558
70	0x3dbff0f0	0.09372127
71	0x3ead6697	0.33867332
72	0xbce50c67	-0.027960015
73	0x3d1fc007	0.03900149
74	0x3ddd0d9f	0.10793614
75	0xbc7f7638	-0.01559215
76	0xbde05f77	-0.109557085
77	0xbebc4261	-0.36769393
78	0xbe836a0d	-0.25666848
79	0xbe5dc9e6	-0.2165905
80	0x3e1d7361	0.15376045
81	0x3e11b7b2	0.1423023
82	0x3ea40a9a	0.32039338
83	0x3e41e957	0.18936668
84	0xbeadd71f	-0.33953187
85	0x3d57330a	0.05253891
86	0xbe9bc350	-0.3042245
87	0xbd8223d2	-0.063544884
88	0x3e58821b	0.21143381
89	0xbe63151c	-0.22176021
90	0xbe14ddc5	-0.14537723
91	0xbe8525db	-0.26005444
92	0x3eb49ddd	0.3527669
93	0xbe85306e	-0.2601351
94	0x3dda7be4	0.106681615
95	0x3e65446c	0.22389382
96	0x3d976d96	0.07393949
97	0xbdda95bf	-0.10673093
98	0x3d8c63f2	0.068550006
99	0x3e431386	0.19050416
100	0x3cb192a0	0.021676362
101	0x3e123047	0.14276229
102	0x3e4f2c5e	0.20231768
103	0xbd9044ac	-0.07044348
104	0x3e732717	0.2374538
105	0xbdd84ae1	-0.10561157
106	0x3d77667d	0.060400475
107	0x3e5d1902	0.21591571
108	0x3e951e1f	0.29124543
109	0xbe52a4fc	-0.20570749
110	0xbe7a3175	-0.24432929
111	0xbc8ebea9	-0.017424898
112	0x3de9c756	0.114149734
113	0x3cd1a520	0.025591433
114	0xbdf1606c	-0.11785969
115	0xbe87455f	-0.26420113
116	0x3da0c1f7	0.07849496
117	0xbe8a060b	-0.26957735
118	0xbda6903c	-0.08132979
119	0xbe6b22a8	-0.22962439
120	0x3cc3dd03	0.023909098
121	0x3e193032	0.14959791
122	0x3e2d9364	0.16950756
123	0xbe966139	-0.2937105
124	0x3de18bd3	0.110129975
125	0xbd9ac7ea	-0.07557662
126	0xbd259309	-0.040423427
127	0xbe9f93c7	-0.31167433
128	0xbb5af25e	-0.0033408622
129	0x3e404350	0.18775678
130	0x3e4d4640	0.2004633
131	0x3d881c43	0.066460155
132	0x3e663aab	0.22483318
133	0xbd4410b7	-0.047867503
134	0xbdef2864	-0.11677626
135	0x3cb65f59	0.022262262
136	0x3c655a1c	0.0139985345
137	0x3e034cd0	0.1282227
138	0x3e65f448	0.22456467
139	0x3e35dccb	0.17760007
140	0x3e096e08	0.1342088
141	0x3e047a87	0.12937365
142	0x3e645af4	0.22300321
143	0x3d484bdd	0.048900474
144	0x3a852ff6	0.0010161388
145	0x3e23203c	0.15930265
146	0xbe50bbdd	-0.20384164
147	0x3da8cea0	0.082425356
148	0xbd698542	-0.05701185
149	0xbcfa4f68	-0.030555442
150	0xbd8365f3	-0.0641593
151	0xbe1b15da	-0.15145054
152	0xbe11d5fd	-0.14241786
153	0x3e48e512	0.19618633
154	0xbd965e08	-0.07342154
155	0x3e357861	0.17721702
156	0x3c6b91fd	0.014378068
157	0x3d699c34	0.057033733
158	0x3e0c759c	0.1371674
159	0xbe310da9	-0.17290367
160	0x3e16037d	0.14649768
161	0x3e5e681f	0.21719407
162	0xbcf181aa	-0.029480774
163	0xbc36bca9	-0.0111533785
164	0x3dc5b6df	0.096540205
165	0x3e544206	0.20728311
166	0x3e278d12	0.16362408
167	0xbd9ae12a	-0.07562478
168	0xbe1cd274	-0.15314656
169	0x3d0bd54d	0.034138966
170	0x3d86bbb8	0.06578773
171	0x3e16ebc5	0.14738376
172	0x3d67b59c	0.05656968
173	0xbdc4bf63	-0.096068166
174	0x3dd7e574	0.105418116
175	0x3b331bd8	0.0027329829
176	0xbe87f9ef	-0.26557872
177	0xbd80fc46	-0.06298117
178	0xbe72a50b	-0.23695771
179	0xbe2c91c0	-0.16852474
180	0xbd968c36	-0.07350962
181	0xbe25d790	-0.16195512
182	0xbe41dfbe	-0.18933007
183	0xbe8106de	-0.25200552
184	0x3d35d69e	0.044394128
185	0xbc8296fd	-0.015941137
186	0xbdd56b72	-0.10420884
187	0xbddd09b1	-0.10792864
188	0xbe865896	-0.2623946
189	0xbe385cca	-0.18004146
190	0xbe105520	-0.14094973
191	0x3da24c57	0.07924717
192	0x3d122d1b	0.035687547
193	0x3e607dea	0.21923032
194	0xbe2ac5ec	-0.16677064
195	0xbdf6b27c	-0.12045762
196	0x3cd3d0cb	0.025856396
197	0xbd88de3f	-0.06683015
198	0xbded3e4a	-0.11584146
199	0xbe2dbac3	-0.16965775
200	0xbd90a734	-0.070631415
201	0xbdfc5ec5	-0.12322763
202	0xbc32fc55	-0.010924418
203	0xbe34e78b	-0.17666452
204	0x3e2fe645	0.17177685
205	0xbd2fab5a	-0.042888023
206	0x3de5e1ad	0.11224685
207	0x3e465c91	0.19371249
208	0x3d559c2c	0.05215089
209	0xbdc67c03	-0.09691622
210	0xbe00e8f0	-0.12588859
211	0xbe34abd4	-0.17643672
212	0x3d586794	0.052833155
213	0xbe0ad9ae	-0.135596
214	0x3e3006f5	0.17190154
215	0xbe773485	-0.24141128
216	0x3dbecf26	0.09316854
217	0x3cac2001	0.021011354
218	0xbd24fb31	-0.040278617
219	0x3baa0d11	0.005189546
220	0xbde0a8aa	-0.1096967
221	0x3d508e39	0.050916884
222	0x3de85626	0.113445565
223	0x3cebb94e	0.028774884
224	0xbd692749	-0.05692223
225	0x3b71c965	0.0036893722
226	0xbe27cede	-0.16387507
227	0x3cf66da6	0.030081581
228	0xbdd27a98	-0.10277289
229	0x3e152399	0.1456436
230	0xbe14759a	-0.14497986
231	0x3e8ce20d	0.27516213
232	0x3c09eb6e	0.008417947
233	0x3e417b3e	0.1889467
234	0xbdf25034	-0.11831704
235	0xbe475730	-0.19466853
236	0xbe3a9d68	-0.18224108
237	0x3e80457d	0.25053015
238	0x3e43288e	0.19058439
239	0xbc895541	-0.016764285
240	0x3d00310c	0.031296775
241	0x3df49593	0.119425915
242	0x3da3e41b	0.08002492
243	0x3d6e614a	0.05819825
244	0x3e4c8719	0.1997341
245	0x3e7573de	0.23969981
246	0x3d455ddf	0.048185226
247	0x3e8f5c98	0.2800033
248	0xbdf3b316	-0.11899392
249	0xbe88c634	-0.26713717
250	0xbc76a45b	-0.015053834
251	0xbe082f06	-0.13299188
252	0xbd9fcbad	-0.0780252
253	0x3e6380d2	0.2221711
254	0x3e3aab09	0.18229307
255	0x3e6ec86f	0.23318647
